…
I0827 11:13:29.353596 14822 net.cpp:294] The NetState phase (0) differed from the phase (1) specified by a rule in layer data
I0827 11:13:29.353679 14822 net.cpp:294] The NetState phase (0) differed from the phase (1) specified by a rule in layer euclidean_loss
I0827 11:13:29.354931 14822 net.cpp:51] Initializing net from parameters: 
name: "shufflenet_v2"
state {
  phase: TRAIN
  level: 0
  stage: ""
}
layer {
  name: "data"
  type: "HDF5Data"
  top: "data"
  top: "label"
  include {
    phase: TRAIN
  }
  hdf5_data_param {
    source: "/home/sxdz/data/landmark/beadwallet/samples/trainHDF5/112/hdf5-norm.txt"
    batch_size: 64
    shuffle: true
  }
}
layer {
  name: "conv1"
  type: "Convolution"
  bottom: "data"
  top: "conv1"
  convolution_param {
    num_output: 24
    bias_term: false
    pad: 1
    kernel_size: 3
    stride: 2
    weight_filler {
      type: "msra"
    }
  }
}
layer {
  name: "conv1_bn"
  type: "BatchNorm"
  bottom: "conv1"
  top: "conv1"
  param {
    lr_mult: 0
    decay_mult: 0
  }
  param {
    lr_mult: 0
    decay_mult: 0
  }
  param {
    lr_mult: 0
    decay_mult: 0
  }
}
layer {
  name: "conv1_scale"
  type: "Scale"
  bottom: "conv1"
  top: "conv1"
  scale_param {
    filler {
      value: 1
    }
    bias_term: true
    bias_filler {
      value: 0
    }
  }
}
layer {
  name: "conv1_relu"
  type: "ReLU"
  bottom: "conv1"
  top: "conv1"
}
layer {
  name: "pool1"
  type: "Pooling"
  bottom: "conv1"
  top: "pool1"
  pooling_param {
    pool: MAX
    kernel_size: 3
    stride: 2
  }
}
layer {
  name: "branch1_1_conv1"
  type: "DepthwiseConvolution"
  bottom: "pool1"
  top: "branch1_1_conv1"
  convolution_param {
    num_output: 24
    bias_term: false
    pad: 1
    kernel_size: 3
    group: 24
    stride: 2
    weight_filler {
      type: "msra"
    }
  }
}
layer {
  name: "branch1_1_conv1_bn"
  type: "BatchNorm"
  bottom: "branch1_1_conv1"
  top: "branch1_1_conv1"
  param {
    lr_mult: 0
    decay_mult: 0
  }
  param {
    lr_mult: 0
    decay_mult: 0
  }
  param {
    lr_mult: 0
    decay_mult: 0
  }
}
layer {
  name: "branch1_1_conv1_scale"
  type: "Scale"
  bottom: "branch1_1_conv1"
  top: "branch1_1_conv1"
  scale_param {
    filler {
      value: 1
    }
    bias_term: true
    bias_filler {
      value: 0
    }
  }
}
layer {
  name: "branch1_1_conv2"
  type: "Convolution"
  bottom: "branch1_1_conv1"
  top: "branch1_1_conv2"
  convolution_param {
    num_output: 58
    bias_term: false
    pad: 0
    kernel_size: 1
    stride: 1
    weight_filler {
      type: "msra"
    }
  }
}
layer {
  name: "branch1_1_conv2_bn"
  type: "BatchNorm"
  bottom: "branch1_1_conv2"
  top: "branch1_1_conv2"
  param {
    lr_mult: 0
    decay_mult: 0
  }
  param {
    lr_mult: 0
    decay_mult: 0
  }
  param {
    lr_mult: 0
    decay_mult: 0
  }
}
layer {
  name: "branch1_1_conv2_scale"
  type: "Scale"
  bottom: "branch1_1_conv2"
  top: "branch1_1_conv2"
  scale_param {
    filler {
      value: 1
    }
    bias_term: true
    bias_filler {
      value: 0
    }
  }
}
layer {
  name: "branch1_1_conv2_relu"
  type: "ReLU"
  bottom: "branch1_1_conv2"
  top: "branch1_1_conv2"
}
layer {
  name: "branch1_2_conv1"
  type: "Convolution"
  bottom: "pool1"
  top: "branch1_2_conv1"
  convolution_param {
    num_output: 58
    bias_term: false
    pad: 0
    kernel_size: 1
    stride: 1
    weight_filler {
      type: "msra"
    }
  }
}
layer {
  name: "branch1_2_conv1_bn"
  type: "BatchNorm"
  bottom: "branch1_2_conv1"
  top: "branch1_2_conv1"
  param {
    lr_mult: 0
    decay_mult: 0
  }
  param {
    lr_mult: 0
    decay_mult: 0
  }
  param {
    lr_mult: 0
    decay_mult: 0
  }
}
layer {
  name: "branch1_2_conv1_scale"
  type: "Scale"
  bottom: "branch1_2_conv1"
  top: "branch1_2_conv1"
  scale_param {
    filler {
      value: 1
    }
    bias_term: true
    bias_filler {
      value: 0
    }
  }
}
layer {
  name: "branch1_2_conv1_relu"
  type: "ReLU"
  bottom: "branch1_2_conv1"
  top: "branch1_2_conv1"
}
layer {
  name: "branch1_2_conv2"
  type: "DepthwiseConvolution"
  bottom: "branch1_2_conv1"
  top: "branch1_2_conv2"
  convolution_param {
    num_output: 58
    bias_term: false
    pad: 1
    kernel_size: 3
    group: 58
    stride: 2
    weight_filler {
      type: "msra"
    }
  }
}
layer {
  name: "branch1_2_conv2_bn"
  type: "BatchNorm"
  bottom: "branch1_2_conv2"
  top: "branch1_2_conv2"
  param {
    lr_mult: 0
    decay_mult: 0
  }
  param {
    lr_mult: 0
    decay_mult: 0
  }
  param {
    lr_mult: 0
    decay_mult: 0
  }
}
layer {
  name: "branch1_2_conv2_scale"
  type: "Scale"
  bottom: "branch1_2_conv2"
  top: "branch1_2_conv2"
  scale_param {
    filler {
      value: 1
    }
    bias_term: true
    bias_filler {
      value: 0
    }
  }
}
layer {
  name: "branch1_2_conv3"
  type: "Convolution"
  bottom: "branch1_2_conv2"
  top: "branch1_2_conv3"
  convolution_param {
    num_output: 58
    bias_term: false
    pad: 0
    kernel_size: 1
    stride: 1
    weight_filler {
      type: "msra"
    }
  }
}
layer {
  name: "branch1_2_conv3_bn"
  type: "BatchNorm"
  bottom: "branch1_2_conv3"
  top: "branch1_2_conv3"
  param {
    lr_mult: 0
    decay_mult: 0
  }
  param {
    lr_mult: 0
    decay_mult: 0
  }
  param {
    lr_mult: 0
    decay_mult: 0
  }
}
layer {
  name: "branch1_2_conv3_scale"
  type: "Scale"
  bottom: "branch1_2_conv3"
  top: "branch1_2_conv3"
  scale_param {
    filler {
      value: 1
    }
    bias_term: true
    bias_filler {
      value: 0
    }
  }
}
layer {
  name: "branch1_2_conv3_relu"
  type: "ReLU"
  bottom: "branch1_2_conv3"
  top: "branch1_2_conv3"
}
layer {
  name: "concat1"
  type: "Concat"
  bottom: "branch1_1_conv2"
  bottom: "branch1_2_conv3"
  top: "concat1"
}
layer {
  name: "shuffle1"
  type: "ShuffleChannel"
  bottom: "concat1"
  top: "shuffle1"
  shuffle_channel_param {
    group: 2
  }
}
layer {
  name: "slice2"
  type: "Slice"
  bottom: "shuffle1"
  top: "branch2_1"
  top: "branch2_2"
  slice_param {
    slice_point: 58
    axis: 1
  }
}
layer {
  name: "branch2_2_conv1"
  type: "Convolution"
  bottom: "branch2_2"
  top: "branch2_2_conv1"
  convolution_param {
    num_output: 58
    bias_term: false
    pad: 0
    kernel_size: 1
    stride: 1
    weight_filler {
      type: "msra"
    }
  }
}
layer {
  name: "branch2_2_conv1_bn"
  type: "BatchNorm"
  bottom: "branch2_2_conv1"
  top: "branch2_2_conv1"
  param {
    lr_mult: 0
    decay_mult: 0
  }
  param {
    lr_mult: 0
    decay_mult: 0
  }
  param {
    lr_mult: 0
    decay_mult: 0
  }
}
layer {
  name: "branch2_2_conv1_scale"
  type: "Scale"
  bottom: "branch2_2_conv1"
  top: "branch2_2_conv1"
  scale_param {
    filler {
      value: 1
    }
    bias_term: true
    bias_filler {
      value: 0
    }
  }
}
layer {
  name: "branch2_2_conv1_relu"
  type: "ReLU"
  bottom: "branch2_2_conv1"
  top: "branch2_2_conv1"
}
layer {
  name: "branch2_2_conv2"
  type: "DepthwiseConvolution"
  bottom: "branch2_2_conv1"
  top: "branch2_2_conv2"
  convolution_param {
    num_output: 58
    bias_term: false
    pad: 1
    kernel_size: 3
    group: 58
    stride: 1
    weight_filler {
      type: "msra"
    }
  }
}
layer {
  name: "branch2_2_conv2_bn"
  type: "BatchNorm"
  bottom: "branch2_2_conv2"
  top: "branch2_2_conv2"
  param {
    lr_mult: 0
    decay_mult: 0
  }
  param {
    lr_mult: 0
    decay_mult: 0
  }
  param {
    lr_mult: 0
    decay_mult: 0
  }
}
layer {
  name: "branch2_2_conv2_scale"
  type: "Scale"
  bottom: "branch2_2_conv2"
  top: "branch2_2_conv2"
  scale_param {
    filler {
      value: 1
    }
    bias_term: true
    bias_filler {
      value: 0
    }
  }
}
layer {
  name: "branch2_2_conv3"
  type: "Convolution"
  bottom: "branch2_2_conv2"
  top: "branch2_2_conv3"
  convolution_param {
    num_output: 58
    bias_term: false
    pad: 0
    kernel_size: 1
    stride: 1
    weight_filler {
      type: "msra"
    }
  }
}
layer {
  name: "branch2_2_conv3_bn"
  type: "BatchNorm"
  bottom: "branch2_2_conv3"
  top: "branch2_2_conv3"
  param {
    lr_mult: 0
    decay_mult: 0
  }
  param {
    lr_mult: 0
    decay_mult: 0
  }
  param {
    lr_mult: 0
    decay_mult: 0
  }
}
layer {
  name: "branch2_2_conv3_scale"
  type: "Scale"
  bottom: "branch2_2_conv3"
  top: "branch2_2_conv3"
  scale_param {
    filler {
      value: 1
    }
    bias_term: true
    bias_filler {
      value: 0
    }
  }
}
layer {
  name: "branch2_2_conv3_relu"
  type: "ReLU"
  bottom: "branch2_2_conv3"
  top: "branch2_2_conv3"
}
layer {
  name: "concat2"
  type: "Concat"
  bottom: "branch2_1"
  bottom: "branch2_2_conv3"
  top: "concat2"
}
layer {
  name: "shuffle2"
  type: "ShuffleChannel"
  bottom: "concat2"
  top: "shuffle2"
  shuffle_channel_param {
    group: 2
  }
}
layer {
  name: "slice3"
  type: "Slice"
  bottom: "shuffle2"
  top: "branch3_1"
  top: "branch3_2"
  slice_param {
    slice_point: 58
    axis: 1
  }
}
layer {
  name: "branch3_2_conv1"
  type: "Convolution"
  bottom: "branch3_2"
  top: "branch3_2_conv1"
  convolution_param {
    num_output: 58
    bias_term: false
    pad: 0
    kernel_size: 1
    stride: 1
    weight_filler {
      type: "msra"
    }
  }
}
layer {
  name: "branch3_2_conv1_bn"
  type: "BatchNorm"
  bottom: "branch3_2_conv1"
  top: "branch3_2_conv1"
  param {
    lr_mult: 0
    decay_mult: 0
  }
  param {
    lr_mult: 0
    decay_mult: 0
  }
  param {
    lr_mult: 0
    decay_mult: 0
  }
}
layer {
  name: "branch3_2_conv1_scale"
  type: "Scale"
  bottom: "branch3_2_conv1"
  top: "branch3_2_conv1"
  scale_param {
    filler {
      value: 1
    }
    bias_term: true
    bias_filler {
      value: 0
    }
  }
}
layer {
  name: "branch3_2_conv1_relu"
  type: "ReLU"
  bottom: "branch3_2_conv1"
  top: "branch3_2_conv1"
}
layer {
  name: "branch3_2_conv2"
  type: "DepthwiseConvolution"
  bottom: "branch3_2_conv1"
  top: "branch3_2_conv2"
  convolution_param {
    num_output: 58
    bias_term: false
    pad: 1
    kernel_size: 3
    group: 58
    stride: 1
    weight_filler {
      type: "msra"
    }
  }
}
layer {
  name: "branch3_2_conv2_bn"
  type: "BatchNorm"
  bottom: "branch3_2_conv2"
  top: "branch3_2_conv2"
  param {
    lr_mult: 0
    decay_mult: 0
  }
  param {
    lr_mult: 0
    decay_mult: 0
  }
  param {
    lr_mult: 0
    decay_mult: 0
  }
}
layer {
  name: "branch3_2_conv2_scale"
  type: "Scale"
  bottom: "branch3_2_conv2"
  top: "branch3_2_conv2"
  scale_param {
    filler {
      value: 1
    }
    bias_term: true
    bias_filler {
      value: 0
    }
  }
}
layer {
  name: "branch3_2_conv3"
  type: "Convolution"
  bottom: "branch3_2_conv2"
  top: "branch3_2_conv3"
  convolution_param {
    num_output: 58
    bias_term: false
    pad: 0
    kernel_size: 1
    stride: 1
    weight_filler {
      type: "msra"
    }
  }
}
layer {
  name: "branch3_2_conv3_bn"
  type: "BatchNorm"
  bottom: "branch3_2_conv3"
  top: "branch3_2_conv3"
  param {
    lr_mult: 0
    decay_mult: 0
  }
  param {
    lr_mult: 0
    decay_mult: 0
  }
  param {
    lr_mult: 0
    decay_mult: 0
  }
}
layer {
  name: "branch3_2_conv3_scale"
  type: "Scale"
  bottom: "branch3_2_conv3"
  top: "branch3_2_conv3"
  scale_param {
    filler {
      value: 1
    }
    bias_term: true
    bias_filler {
      value: 0
    }
  }
}
layer {
  name: "branch3_2_conv3_relu"
  type: "ReLU"
  bottom: "branch3_2_conv3"
  top: "branch3_2_conv3"
}
layer {
  name: "concat3"
  type: "Concat"
  bottom: "branch3_1"
  bottom: "branch3_2_conv3"
  top: "concat3"
}
layer {
  name: "shuffle3"
  type: "ShuffleChannel"
  bottom: "concat3"
  top: "shuffle3"
  shuffle_channel_param {
    group: 2
  }
}
layer {
  name: "slice4"
  type: "Slice"
  bottom: "shuffle3"
  top: "branch4_1"
  top: "branch4_2"
  slice_param {
    slice_point: 58
    axis: 1
  }
}
layer {
  name: "branch4_2_conv1"
  type: "Convolution"
  bottom: "branch4_2"
  top: "branch4_2_conv1"
  convolution_param {
    num_output: 58
    bias_term: false
    pad: 0
    kernel_size: 1
    stride: 1
    weight_filler {
      type: "msra"
    }
  }
}
layer {
  name: "branch4_2_conv1_bn"
  type: "BatchNorm"
  bottom: "branch4_2_conv1"
  top: "branch4_2_conv1"
  param {
    lr_mult: 0
    decay_mult: 0
  }
  param {
    lr_mult: 0
    decay_mult: 0
  }
  param {
    lr_mult: 0
    decay_mult: 0
  }
}
layer {
  name: "branch4_2_conv1_scale"
  type: "Scale"
  bottom: "branch4_2_conv1"
  top: "branch4_2_conv1"
  scale_param {
    filler {
      value: 1
    }
    bias_term: true
    bias_filler {
      value: 0
    }
  }
}
layer {
  name: "branch4_2_conv1_relu"
  type: "ReLU"
  bottom: "branch4_2_conv1"
  top: "branch4_2_conv1"
}
layer {
  name: "branch4_2_conv2"
  type: "DepthwiseConvolution"
  bottom: "branch4_2_conv1"
  top: "branch4_2_conv2"
  convolution_param {
    num_output: 58
    bias_term: false
    pad: 1
    kernel_size: 3
    group: 58
    stride: 1
    weight_filler {
      type: "msra"
    }
  }
}
layer {
  name: "branch4_2_conv2_bn"
  type: "BatchNorm"
  bottom: "branch4_2_conv2"
  top: "branch4_2_conv2"
  param {
    lr_mult: 0
    decay_mult: 0
  }
  param {
    lr_mult: 0
    decay_mult: 0
  }
  param {
    lr_mult: 0
    decay_mult: 0
  }
}
layer {
  name: "branch4_2_conv2_scale"
  type: "Scale"
  bottom: "branch4_2_conv2"
  top: "branch4_2_conv2"
  scale_param {
    filler {
      value: 1
    }
    bias_term: true
    bias_filler {
      value: 0
    }
  }
}
layer {
  name: "branch4_2_conv3"
  type: "Convolution"
  bottom: "branch4_2_conv2"
  top: "branch4_2_conv3"
  convolution_param {
    num_output: 58
    bias_term: false
    pad: 0
    kernel_size: 1
    stride: 1
    weight_filler {
      type: "msra"
    }
  }
}
layer {
  name: "branch4_2_conv3_bn"
  type: "BatchNorm"
  bottom: "branch4_2_conv3"
  top: "branch4_2_conv3"
  param {
    lr_mult: 0
    decay_mult: 0
  }
  param {
    lr_mult: 0
    decay_mult: 0
  }
  param {
    lr_mult: 0
    decay_mult: 0
  }
}
layer {
  name: "branch4_2_conv3_scale"
  type: "Scale"
  bottom: "branch4_2_conv3"
  top: "branch4_2_conv3"
  scale_param {
    filler {
      value: 1
    }
    bias_term: true
    bias_filler {
      value: 0
    }
  }
}
layer {
  name: "branch4_2_conv3_relu"
  type: "ReLU"
  bottom: "branch4_2_conv3"
  top: "branch4_2_conv3"
}
layer {
  name: "concat4"
  type: "Concat"
  bottom: "branch4_1"
  bottom: "branch4_2_conv3"
  top: "concat4"
}
layer {
  name: "shuffle4"
  type: "ShuffleChannel"
  bottom: "concat4"
  top: "shuffle4"
  shuffle_channel_param {
    group: 2
  }
}
layer {
  name: "branch5_1_conv1"
  type: "DepthwiseConvolution"
  bottom: "shuffle4"
  top: "branch5_1_conv1"
  convolution_param {
    num_output: 116
    bias_term: false
    pad: 2
    kernel_size: 3
    group: 116
    stride: 2
    weight_filler {
      type: "msra"
    }
  }
}
layer {
  name: "branch5_1_conv1_bn"
  type: "BatchNorm"
  bottom: "branch5_1_conv1"
  top: "branch5_1_conv1"
  param {
    lr_mult: 0
    decay_mult: 0
  }
  param {
    lr_mult: 0
    decay_mult: 0
  }
  param {
    lr_mult: 0
    decay_mult: 0
  }
}
layer {
  name: "branch5_1_conv1_scale"
  type: "Scale"
  bottom: "branch5_1_conv1"
  top: "branch5_1_conv1"
  scale_param {
    filler {
      value: 1
    }
    bias_term: true
    bias_filler {
      value: 0
    }
  }
}
layer {
  name: "branch5_1_conv2"
  type: "Convolution"
  bottom: "branch5_1_conv1"
  top: "branch5_1_conv2"
  convolution_param {
    num_output: 116
    bias_term: false
    pad: 0
    kernel_size: 1
    stride: 1
    weight_filler {
      type: "msra"
    }
  }
}
layer {
  name: "branch5_1_conv2_bn"
  type: "BatchNorm"
  bottom: "branch5_1_conv2"
  top: "branch5_1_conv2"
  param {
    lr_mult: 0
    decay_mult: 0
  }
  param {
    lr_mult: 0
    decay_mult: 0
  }
  param {
    lr_mult: 0
    decay_mult: 0
  }
}
layer {
  name: "branch5_1_conv2_scale"
  type: "Scale"
  bottom: "branch5_1_conv2"
  top: "branch5_1_conv2"
  scale_param {
    filler {
      value: 1
    }
    bias_term: true
    bias_filler {
      value: 0
    }
  }
}
layer {
  name: "branch5_1_conv2_relu"
  type: "ReLU"
  bottom: "branch5_1_conv2"
  top: "branch5_1_conv2"
}
layer {
  name: "branch5_2_conv1"
  type: "Convolution"
  bottom: "shuffle4"
  top: "branch5_2_conv1"
  convolution_param {
    num_output: 116
    bias_term: false
    pad: 0
    kernel_size: 1
    stride: 1
    weight_filler {
      type: "msra"
    }
  }
}
layer {
  name: "branch5_2_conv1_bn"
  type: "BatchNorm"
  bottom: "branch5_2_conv1"
  top: "branch5_2_conv1"
  param {
    lr_mult: 0
    decay_mult: 0
  }
  param {
    lr_mult: 0
    decay_mult: 0
  }
  param {
    lr_mult: 0
    decay_mult: 0
  }
}
layer {
  name: "branch5_2_conv1_scale"
  type: "Scale"
  bottom: "branch5_2_conv1"
  top: "branch5_2_conv1"
  scale_param {
    filler {
      value: 1
    }
    bias_term: true
    bias_filler {
      value: 0
    }
  }
}
layer {
  name: "branch5_2_conv1_relu"
  type: "ReLU"
  bottom: "branch5_2_conv1"
  top: "branch5_2_conv1"
}
layer {
  name: "branch5_2_conv2"
  type: "DepthwiseConvolution"
  bottom: "branch5_2_conv1"
  top: "branch5_2_conv2"
  convolution_param {
    num_output: 116
    bias_term: false
    pad: 2
    kernel_size: 3
    group: 116
    stride: 2
    weight_filler {
      type: "msra"
    }
  }
}
layer {
  name: "branch5_2_conv2_bn"
  type: "BatchNorm"
  bottom: "branch5_2_conv2"
  top: "branch5_2_conv2"
  param {
    lr_mult: 0
    decay_mult: 0
  }
  param {
    lr_mult: 0
    decay_mult: 0
  }
  param {
    lr_mult: 0
    decay_mult: 0
  }
}
layer {
  name: "branch5_2_conv2_scale"
  type: "Scale"
  bottom: "branch5_2_conv2"
  top: "branch5_2_conv2"
  scale_param {
    filler {
      value: 1
    }
    bias_term: true
    bias_filler {
      value: 0
    }
  }
}
layer {
  name: "branch5_2_conv3"
  type: "Convolution"
  bottom: "branch5_2_conv2"
  top: "branch5_2_conv3"
  convolution_param {
    num_output: 116
    bias_term: false
    pad: 0
    kernel_size: 1
    stride: 1
    weight_filler {
      type: "msra"
    }
  }
}
layer {
  name: "branch5_2_conv3_bn"
  type: "BatchNorm"
  bottom: "branch5_2_conv3"
  top: "branch5_2_conv3"
  param {
    lr_mult: 0
    decay_mult: 0
  }
  param {
    lr_mult: 0
    decay_mult: 0
  }
  param {
    lr_mult: 0
    decay_mult: 0
  }
}
layer {
  name: "branch5_2_conv3_scale"
  type: "Scale"
  bottom: "branch5_2_conv3"
  top: "branch5_2_conv3"
  scale_param {
    filler {
      value: 1
    }
    bias_term: true
    bias_filler {
      value: 0
    }
  }
}
layer {
  name: "branch5_2_conv3_relu"
  type: "ReLU"
  bottom: "branch5_2_conv3"
  top: "branch5_2_conv3"
}
layer {
  name: "concat5"
  type: "Concat"
  bottom: "branch5_1_conv2"
  bottom: "branch5_2_conv3"
  top: "concat5"
}
layer {
  name: "shuffle5"
  type: "ShuffleChannel"
  bottom: "concat5"
  top: "shuffle5"
  shuffle_channel_param {
    group: 2
  }
}
layer {
  name: "slice6"
  type: "Slice"
  bottom: "shuffle5"
  top: "branch6_1"
  top: "branch6_2"
  slice_param {
    slice_point: 116
    axis: 1
  }
}
layer {
  name: "branch6_2_conv1"
  type: "Convolution"
  bottom: "branch6_2"
  top: "branch6_2_conv1"
  convolution_param {
    num_output: 116
    bias_term: false
    pad: 0
    kernel_size: 1
    stride: 1
    weight_filler {
      type: "msra"
    }
  }
}
layer {
  name: "branch6_2_conv1_bn"
  type: "BatchNorm"
  bottom: "branch6_2_conv1"
  top: "branch6_2_conv1"
  param {
    lr_mult: 0
    decay_mult: 0
  }
  param {
    lr_mult: 0
    decay_mult: 0
  }
  param {
    lr_mult: 0
    decay_mult: 0
  }
}
layer {
  name: "branch6_2_conv1_scale"
  type: "Scale"
  bottom: "branch6_2_conv1"
  top: "branch6_2_conv1"
  scale_param {
    filler {
      value: 1
    }
    bias_term: true
    bias_filler {
      value: 0
    }
  }
}
layer {
  name: "branch6_2_conv1_relu"
  type: "ReLU"
  bottom: "branch6_2_conv1"
  top: "branch6_2_conv1"
}
layer {
  name: "branch6_2_conv2"
  type: "DepthwiseConvolution"
  bottom: "branch6_2_conv1"
  top: "branch6_2_conv2"
  convolution_param {
    num_output: 116
    bias_term: false
    pad: 1
    kernel_size: 3
    group: 116
    stride: 1
    weight_filler {
      type: "msra"
    }
  }
}
layer {
  name: "branch6_2_conv2_bn"
  type: "BatchNorm"
  bottom: "branch6_2_conv2"
  top: "branch6_2_conv2"
  param {
    lr_mult: 0
    decay_mult: 0
  }
  param {
    lr_mult: 0
    decay_mult: 0
  }
  param {
    lr_mult: 0
    decay_mult: 0
  }
}
layer {
  name: "branch6_2_conv2_scale"
  type: "Scale"
  bottom: "branch6_2_conv2"
  top: "branch6_2_conv2"
  scale_param {
    filler {
      value: 1
    }
    bias_term: true
    bias_filler {
      value: 0
    }
  }
}
layer {
  name: "branch6_2_conv3"
  type: "Convolution"
  bottom: "branch6_2_conv2"
  top: "branch6_2_conv3"
  convolution_param {
    num_output: 116
    bias_term: false
    pad: 0
    kernel_size: 1
    stride: 1
    weight_filler {
      type: "msra"
    }
  }
}
layer {
  name: "branch6_2_conv3_bn"
  type: "BatchNorm"
  bottom: "branch6_2_conv3"
  top: "branch6_2_conv3"
  param {
    lr_mult: 0
    decay_mult: 0
  }
  param {
    lr_mult: 0
    decay_mult: 0
  }
  param {
    lr_mult: 0
    decay_mult: 0
  }
}
layer {
  name: "branch6_2_conv3_scale"
  type: "Scale"
  bottom: "branch6_2_conv3"
  top: "branch6_2_conv3"
  scale_param {
    filler {
      value: 1
    }
    bias_term: true
    bias_filler {
      value: 0
    }
  }
}
layer {
  name: "branch6_2_conv3_relu"
  type: "ReLU"
  bottom: "branch6_2_conv3"
  top: "branch6_2_conv3"
}
layer {
  name: "concat6"
  type: "Concat"
  bottom: "branch6_1"
  bottom: "branch6_2_conv3"
  top: "concat6"
}
layer {
  name: "shuffle6"
  type: "ShuffleChannel"
  bottom: "concat6"
  top: "shuffle6"
  shuffle_channel_param {
    group: 2
  }
}
layer {
  name: "slice7"
  type: "Slice"
  bottom: "shuffle6"
  top: "branch7_1"
  top: "branch7_2"
  slice_param {
    slice_point: 116
    axis: 1
  }
}
layer {
  name: "branch7_2_conv1"
  type: "Convolution"
  bottom: "branch7_2"
  top: "branch7_2_conv1"
  convolution_param {
    num_output: 116
    bias_term: false
    pad: 0
    kernel_size: 1
    stride: 1
    weight_filler {
      type: "msra"
    }
  }
}
layer {
  name: "branch7_2_conv1_bn"
  type: "BatchNorm"
  bottom: "branch7_2_conv1"
  top: "branch7_2_conv1"
  param {
    lr_mult: 0
    decay_mult: 0
  }
  param {
    lr_mult: 0
    decay_mult: 0
  }
  param {
    lr_mult: 0
    decay_mult: 0
  }
}
layer {
  name: "branch7_2_conv1_scale"
  type: "Scale"
  bottom: "branch7_2_conv1"
  top: "branch7_2_conv1"
  scale_param {
    filler {
      value: 1
    }
    bias_term: true
    bias_filler {
      value: 0
    }
  }
}
layer {
  name: "branch7_2_conv1_relu"
  type: "ReLU"
  bottom: "branch7_2_conv1"
  top: "branch7_2_conv1"
}
layer {
  name: "branch7_2_conv2"
  type: "DepthwiseConvolution"
  bottom: "branch7_2_conv1"
  top: "branch7_2_conv2"
  convolution_param {
    num_output: 116
    bias_term: false
    pad: 1
    kernel_size: 3
    group: 116
    stride: 1
    weight_filler {
      type: "msra"
    }
  }
}
layer {
  name: "branch7_2_conv2_bn"
  type: "BatchNorm"
  bottom: "branch7_2_conv2"
  top: "branch7_2_conv2"
  param {
    lr_mult: 0
    decay_mult: 0
  }
  param {
    lr_mult: 0
    decay_mult: 0
  }
  param {
    lr_mult: 0
    decay_mult: 0
  }
}
layer {
  name: "branch7_2_conv2_scale"
  type: "Scale"
  bottom: "branch7_2_conv2"
  top: "branch7_2_conv2"
  scale_param {
    filler {
      value: 1
    }
    bias_term: true
    bias_filler {
      value: 0
    }
  }
}
layer {
  name: "branch7_2_conv3"
  type: "Convolution"
  bottom: "branch7_2_conv2"
  top: "branch7_2_conv3"
  convolution_param {
    num_output: 116
    bias_term: false
    pad: 0
    kernel_size: 1
    stride: 1
    weight_filler {
      type: "msra"
    }
  }
}
layer {
  name: "branch7_2_conv3_bn"
  type: "BatchNorm"
  bottom: "branch7_2_conv3"
  top: "branch7_2_conv3"
  param {
    lr_mult: 0
    decay_mult: 0
  }
  param {
    lr_mult: 0
    decay_mult: 0
  }
  param {
    lr_mult: 0
    decay_mult: 0
  }
}
layer {
  name: "branch7_2_conv3_scale"
  type: "Scale"
  bottom: "branch7_2_conv3"
  top: "branch7_2_conv3"
  scale_param {
    filler {
      value: 1
    }
    bias_term: true
    bias_filler {
      value: 0
    }
  }
}
layer {
  name: "branch7_2_conv3_relu"
  type: "ReLU"
  bottom: "branch7_2_conv3"
  top: "branch7_2_conv3"
}
layer {
  name: "concat7"
  type: "Concat"
  bottom: "branch7_1"
  bottom: "branch7_2_conv3"
  top: "concat7"
}
layer {
  name: "shuffle7"
  type: "ShuffleChannel"
  bottom: "concat7"
  top: "shuffle7"
  shuffle_channel_param {
    group: 2
  }
}
layer {
  name: "slice8"
  type: "Slice"
  bottom: "shuffle7"
  top: "branch8_1"
  top: "branch8_2"
  slice_param {
    slice_point: 116
    axis: 1
  }
}
layer {
  name: "branch8_2_conv1"
  type: "Convolution"
  bottom: "branch8_2"
  top: "branch8_2_conv1"
  convolution_param {
    num_output: 116
    bias_term: false
    pad: 0
    kernel_size: 1
    stride: 1
    weight_filler {
      type: "msra"
    }
  }
}
layer {
  name: "branch8_2_conv1_bn"
  type: "BatchNorm"
  bottom: "branch8_2_conv1"
  top: "branch8_2_conv1"
  param {
    lr_mult: 0
    decay_mult: 0
  }
  param {
    lr_mult: 0
    decay_mult: 0
  }
  param {
    lr_mult: 0
    decay_mult: 0
  }
}
layer {
  name: "branch8_2_conv1_scale"
  type: "Scale"
  bottom: "branch8_2_conv1"
  top: "branch8_2_conv1"
  scale_param {
    filler {
      value: 1
    }
    bias_term: true
    bias_filler {
      value: 0
    }
  }
}
layer {
  name: "branch8_2_conv1_relu"
  type: "ReLU"
  bottom: "branch8_2_conv1"
  top: "branch8_2_conv1"
}
layer {
  name: "branch8_2_conv2"
  type: "DepthwiseConvolution"
  bottom: "branch8_2_conv1"
  top: "branch8_2_conv2"
  convolution_param {
    num_output: 116
    bias_term: false
    pad: 1
    kernel_size: 3
    group: 116
    stride: 1
    weight_filler {
      type: "msra"
    }
  }
}
layer {
  name: "branch8_2_conv2_bn"
  type: "BatchNorm"
  bottom: "branch8_2_conv2"
  top: "branch8_2_conv2"
  param {
    lr_mult: 0
    decay_mult: 0
  }
  param {
    lr_mult: 0
    decay_mult: 0
  }
  param {
    lr_mult: 0
    decay_mult: 0
  }
}
layer {
  name: "branch8_2_conv2_scale"
  type: "Scale"
  bottom: "branch8_2_conv2"
  top: "branch8_2_conv2"
  scale_param {
    filler {
      value: 1
    }
    bias_term: true
    bias_filler {
      value: 0
    }
  }
}
layer {
  name: "branch8_2_conv3"
  type: "Convolution"
  bottom: "branch8_2_conv2"
  top: "branch8_2_conv3"
  convolution_param {
    num_output: 116
    bias_term: false
    pad: 0
    kernel_size: 1
    stride: 1
    weight_filler {
      type: "msra"
    }
  }
}
layer {
  name: "branch8_2_conv3_bn"
  type: "BatchNorm"
  bottom: "branch8_2_conv3"
  top: "branch8_2_conv3"
  param {
    lr_mult: 0
    decay_mult: 0
  }
  param {
    lr_mult: 0
    decay_mult: 0
  }
  param {
    lr_mult: 0
    decay_mult: 0
  }
}
layer {
  name: "branch8_2_conv3_scale"
  type: "Scale"
  bottom: "branch8_2_conv3"
  top: "branch8_2_conv3"
  scale_param {
    filler {
      value: 1
    }
    bias_term: true
    bias_filler {
      value: 0
    }
  }
}
layer {
  name: "branch8_2_conv3_relu"
  type: "ReLU"
  bottom: "branch8_2_conv3"
  top: "branch8_2_conv3"
}
layer {
  name: "concat8"
  type: "Concat"
  bottom: "branch8_1"
  bottom: "branch8_2_conv3"
  top: "concat8"
}
layer {
  name: "shuffle8"
  type: "ShuffleChannel"
  bottom: "concat8"
  top: "shuffle8"
  shuffle_channel_param {
    group: 2
  }
}
layer {
  name: "slice9"
  type: "Slice"
  bottom: "shuffle8"
  top: "branch9_1"
  top: "branch9_2"
  slice_param {
    slice_point: 116
    axis: 1
  }
}
layer {
  name: "branch9_2_conv1"
  type: "Convolution"
  bottom: "branch9_2"
  top: "branch9_2_conv1"
  convolution_param {
    num_output: 116
    bias_term: false
    pad: 0
    kernel_size: 1
    stride: 1
    weight_filler {
      type: "msra"
    }
  }
}
layer {
  name: "branch9_2_conv1_bn"
  type: "BatchNorm"
  bottom: "branch9_2_conv1"
  top: "branch9_2_conv1"
  param {
    lr_mult: 0
    decay_mult: 0
  }
  param {
    lr_mult: 0
    decay_mult: 0
  }
  param {
    lr_mult: 0
    decay_mult: 0
  }
}
layer {
  name: "branch9_2_conv1_scale"
  type: "Scale"
  bottom: "branch9_2_conv1"
  top: "branch9_2_conv1"
  scale_param {
    filler {
      value: 1
    }
    bias_term: true
    bias_filler {
      value: 0
    }
  }
}
layer {
  name: "branch9_2_conv1_relu"
  type: "ReLU"
  bottom: "branch9_2_conv1"
  top: "branch9_2_conv1"
}
layer {
  name: "branch9_2_conv2"
  type: "DepthwiseConvolution"
  bottom: "branch9_2_conv1"
  top: "branch9_2_conv2"
  convolution_param {
    num_output: 116
    bias_term: false
    pad: 1
    kernel_size: 3
    group: 116
    stride: 1
    weight_filler {
      type: "msra"
    }
  }
}
layer {
  name: "branch9_2_conv2_bn"
  type: "BatchNorm"
  bottom: "branch9_2_conv2"
  top: "branch9_2_conv2"
  param {
    lr_mult: 0
    decay_mult: 0
  }
  param {
    lr_mult: 0
    decay_mult: 0
  }
  param {
    lr_mult: 0
    decay_mult: 0
  }
}
layer {
  name: "branch9_2_conv2_scale"
  type: "Scale"
  bottom: "branch9_2_conv2"
  top: "branch9_2_conv2"
  scale_param {
    filler {
      value: 1
    }
    bias_term: true
    bias_filler {
      value: 0
    }
  }
}
layer {
  name: "branch9_2_conv3"
  type: "Convolution"
  bottom: "branch9_2_conv2"
  top: "branch9_2_conv3"
  convolution_param {
    num_output: 116
    bias_term: false
    pad: 0
    kernel_size: 1
    stride: 1
    weight_filler {
      type: "msra"
    }
  }
}
layer {
  name: "branch9_2_conv3_bn"
  type: "BatchNorm"
  bottom: "branch9_2_conv3"
  top: "branch9_2_conv3"
  param {
    lr_mult: 0
    decay_mult: 0
  }
  param {
    lr_mult: 0
    decay_mult: 0
  }
  param {
    lr_mult: 0
    decay_mult: 0
  }
}
layer {
  name: "branch9_2_conv3_scale"
  type: "Scale"
  bottom: "branch9_2_conv3"
  top: "branch9_2_conv3"
  scale_param {
    filler {
      value: 1
    }
    bias_term: true
    bias_filler {
      value: 0
    }
  }
}
layer {
  name: "branch9_2_conv3_relu"
  type: "ReLU"
  bottom: "branch9_2_conv3"
  top: "branch9_2_conv3"
}
layer {
  name: "concat9"
  type: "Concat"
  bottom: "branch9_1"
  bottom: "branch9_2_conv3"
  top: "concat9"
}
layer {
  name: "shuffle9"
  type: "ShuffleChannel"
  bottom: "concat9"
  top: "shuffle9"
  shuffle_channel_param {
    group: 2
I0827 11:13:29.355751 14822 layer_factory.hpp:77] Creating layer data
I0827 11:13:29.355767 14822 net.cpp:84] Creating Layer data
I0827 11:13:29.355772 14822 net.cpp:380] data -> data
I0827 11:13:29.355792 14822 net.cpp:380] data -> label
I0827 11:13:29.355803 14822 hdf5_data_layer.cpp:80] Loading list of HDF5 filenames from: /home/sxdz/data/landmark/beadwallet/samples/trainHDF5/112/hdf5-norm.txt
I0827 11:13:29.363579 14822 hdf5_data_layer.cpp:94] Number of HDF5 files: 18232
I0827 11:13:29.364807 14822 hdf5.cpp:32] Datatype class: H5T_FLOAT
I0827 11:13:29.370752 14822 net.cpp:122] Setting up data
I0827 11:13:29.370781 14822 net.cpp:129] Top shape: 64 3 112 112 (2408448)
I0827 11:13:29.370787 14822 net.cpp:129] Top shape: 64 254 (16256)
I0827 11:13:29.370790 14822 net.cpp:137] Memory required for data: 9698816
I0827 11:13:29.370796 14822 layer_factory.hpp:77] Creating layer conv1
I0827 11:13:29.370815 14822 net.cpp:84] Creating Layer conv1
I0827 11:13:29.370820 14822 net.cpp:406] conv1 <- data
I0827 11:13:29.370831 14822 net.cpp:380] conv1 -> conv1
I0827 11:13:29.371345 14822 net.cpp:122] Setting up conv1
I0827 11:13:29.371356 14822 net.cpp:129] Top shape: 64 24 56 56 (4816896)
I0827 11:13:29.371371 14822 net.cpp:137] Memory required for data: 28966400
I0827 11:13:29.371382 14822 layer_factory.hpp:77] Creating layer conv1_bn
I0827 11:13:29.371389 14822 net.cpp:84] Creating Layer conv1_bn
I0827 11:13:29.371393 14822 net.cpp:406] conv1_bn <- conv1
I0827 11:13:29.371398 14822 net.cpp:367] conv1_bn -> conv1 (in-place)
I0827 11:13:29.371565 14822 net.cpp:122] Setting up conv1_bn
I0827 11:13:29.371574 14822 net.cpp:129] Top shape: 64 24 56 56 (4816896)
I0827 11:13:29.371577 14822 net.cpp:137] Memory required for data: 48233984
I0827 11:13:29.371587 14822 layer_factory.hpp:77] Creating layer conv1_scale
I0827 11:13:29.371594 14822 net.cpp:84] Creating Layer conv1_scale
I0827 11:13:29.371598 14822 net.cpp:406] conv1_scale <- conv1
I0827 11:13:29.371603 14822 net.cpp:367] conv1_scale -> conv1 (in-place)
I0827 11:13:29.371637 14822 layer_factory.hpp:77] Creating layer conv1_scale
I0827 11:13:29.371738 14822 net.cpp:122] Setting up conv1_scale
I0827 11:13:29.371747 14822 net.cpp:129] Top shape: 64 24 56 56 (4816896)
I0827 11:13:29.371750 14822 net.cpp:137] Memory required for data: 67501568
I0827 11:13:29.371757 14822 layer_factory.hpp:77] Creating layer conv1_relu
I0827 11:13:29.371763 14822 net.cpp:84] Creating Layer conv1_relu
I0827 11:13:29.371767 14822 net.cpp:406] conv1_relu <- conv1
I0827 11:13:29.371771 14822 net.cpp:367] conv1_relu -> conv1 (in-place)
I0827 11:13:29.371776 14822 net.cpp:122] Setting up conv1_relu
I0827 11:13:29.371780 14822 net.cpp:129] Top shape: 64 24 56 56 (4816896)
I0827 11:13:29.371783 14822 net.cpp:137] Memory required for data: 86769152
I0827 11:13:29.371785 14822 layer_factory.hpp:77] Creating layer pool1
I0827 11:13:29.371791 14822 net.cpp:84] Creating Layer pool1
I0827 11:13:29.371794 14822 net.cpp:406] pool1 <- conv1
I0827 11:13:29.371798 14822 net.cpp:380] pool1 -> pool1
I0827 11:13:29.371836 14822 net.cpp:122] Setting up pool1
I0827 11:13:29.371845 14822 net.cpp:129] Top shape: 64 24 28 28 (1204224)
I0827 11:13:29.371847 14822 net.cpp:137] Memory required for data: 91586048
I0827 11:13:29.371850 14822 layer_factory.hpp:77] Creating layer pool1_pool1_0_split
I0827 11:13:29.371855 14822 net.cpp:84] Creating Layer pool1_pool1_0_split
I0827 11:13:29.371858 14822 net.cpp:406] pool1_pool1_0_split <- pool1
I0827 11:13:29.371863 14822 net.cpp:380] pool1_pool1_0_split -> pool1_pool1_0_split_0
I0827 11:13:29.371870 14822 net.cpp:380] pool1_pool1_0_split -> pool1_pool1_0_split_1
I0827 11:13:29.371897 14822 net.cpp:122] Setting up pool1_pool1_0_split
I0827 11:13:29.371904 14822 net.cpp:129] Top shape: 64 24 28 28 (1204224)
I0827 11:13:29.371908 14822 net.cpp:129] Top shape: 64 24 28 28 (1204224)
I0827 11:13:29.371912 14822 net.cpp:137] Memory required for data: 101219840
I0827 11:13:29.371914 14822 layer_factory.hpp:77] Creating layer branch1_1_conv1
I0827 11:13:29.371922 14822 net.cpp:84] Creating Layer branch1_1_conv1
I0827 11:13:29.371924 14822 net.cpp:406] branch1_1_conv1 <- pool1_pool1_0_split_0
I0827 11:13:29.371929 14822 net.cpp:380] branch1_1_conv1 -> branch1_1_conv1
I0827 11:13:29.372086 14822 net.cpp:122] Setting up branch1_1_conv1
I0827 11:13:29.372093 14822 net.cpp:129] Top shape: 64 24 14 14 (301056)
I0827 11:13:29.372097 14822 net.cpp:137] Memory required for data: 102424064
I0827 11:13:29.372102 14822 layer_factory.hpp:77] Creating layer branch1_1_conv1_bn
I0827 11:13:29.372108 14822 net.cpp:84] Creating Layer branch1_1_conv1_bn
I0827 11:13:29.372112 14822 net.cpp:406] branch1_1_conv1_bn <- branch1_1_conv1
I0827 11:13:29.372117 14822 net.cpp:367] branch1_1_conv1_bn -> branch1_1_conv1 (in-place)
I0827 11:13:29.372280 14822 net.cpp:122] Setting up branch1_1_conv1_bn
I0827 11:13:29.372289 14822 net.cpp:129] Top shape: 64 24 14 14 (301056)
I0827 11:13:29.372292 14822 net.cpp:137] Memory required for data: 103628288
I0827 11:13:29.372303 14822 layer_factory.hpp:77] Creating layer branch1_1_conv1_scale
I0827 11:13:29.372308 14822 net.cpp:84] Creating Layer branch1_1_conv1_scale
I0827 11:13:29.372311 14822 net.cpp:406] branch1_1_conv1_scale <- branch1_1_conv1
I0827 11:13:29.372316 14822 net.cpp:367] branch1_1_conv1_scale -> branch1_1_conv1 (in-place)
I0827 11:13:29.372347 14822 layer_factory.hpp:77] Creating layer branch1_1_conv1_scale
I0827 11:13:29.372438 14822 net.cpp:122] Setting up branch1_1_conv1_scale
I0827 11:13:29.372445 14822 net.cpp:129] Top shape: 64 24 14 14 (301056)
I0827 11:13:29.372448 14822 net.cpp:137] Memory required for data: 104832512
I0827 11:13:29.372454 14822 layer_factory.hpp:77] Creating layer branch1_1_conv2
I0827 11:13:29.372462 14822 net.cpp:84] Creating Layer branch1_1_conv2
I0827 11:13:29.372465 14822 net.cpp:406] branch1_1_conv2 <- branch1_1_conv1
I0827 11:13:29.372470 14822 net.cpp:380] branch1_1_conv2 -> branch1_1_conv2
I0827 11:13:29.372634 14822 net.cpp:122] Setting up branch1_1_conv2
I0827 11:13:29.372643 14822 net.cpp:129] Top shape: 64 58 14 14 (727552)
I0827 11:13:29.372647 14822 net.cpp:137] Memory required for data: 107742720
I0827 11:13:29.372651 14822 layer_factory.hpp:77] Creating layer branch1_1_conv2_bn
I0827 11:13:29.372658 14822 net.cpp:84] Creating Layer branch1_1_conv2_bn
I0827 11:13:29.372660 14822 net.cpp:406] branch1_1_conv2_bn <- branch1_1_conv2
I0827 11:13:29.372665 14822 net.cpp:367] branch1_1_conv2_bn -> branch1_1_conv2 (in-place)
I0827 11:13:29.372822 14822 net.cpp:122] Setting up branch1_1_conv2_bn
I0827 11:13:29.372829 14822 net.cpp:129] Top shape: 64 58 14 14 (727552)
I0827 11:13:29.372833 14822 net.cpp:137] Memory required for data: 110652928
I0827 11:13:29.372839 14822 layer_factory.hpp:77] Creating layer branch1_1_conv2_scale
I0827 11:13:29.372845 14822 net.cpp:84] Creating Layer branch1_1_conv2_scale
I0827 11:13:29.372848 14822 net.cpp:406] branch1_1_conv2_scale <- branch1_1_conv2
I0827 11:13:29.372853 14822 net.cpp:367] branch1_1_conv2_scale -> branch1_1_conv2 (in-place)
I0827 11:13:29.372884 14822 layer_factory.hpp:77] Creating layer branch1_1_conv2_scale
I0827 11:13:29.372974 14822 net.cpp:122] Setting up branch1_1_conv2_scale
I0827 11:13:29.372982 14822 net.cpp:129] Top shape: 64 58 14 14 (727552)
I0827 11:13:29.372985 14822 net.cpp:137] Memory required for data: 113563136
I0827 11:13:29.372993 14822 layer_factory.hpp:77] Creating layer branch1_1_conv2_relu
I0827 11:13:29.372999 14822 net.cpp:84] Creating Layer branch1_1_conv2_relu
I0827 11:13:29.373003 14822 net.cpp:406] branch1_1_conv2_relu <- branch1_1_conv2
I0827 11:13:29.373006 14822 net.cpp:367] branch1_1_conv2_relu -> branch1_1_conv2 (in-place)
I0827 11:13:29.373011 14822 net.cpp:122] Setting up branch1_1_conv2_relu
I0827 11:13:29.373015 14822 net.cpp:129] Top shape: 64 58 14 14 (727552)
I0827 11:13:29.373018 14822 net.cpp:137] Memory required for data: 116473344
I0827 11:13:29.373021 14822 layer_factory.hpp:77] Creating layer branch1_2_conv1
I0827 11:13:29.373028 14822 net.cpp:84] Creating Layer branch1_2_conv1
I0827 11:13:29.373031 14822 net.cpp:406] branch1_2_conv1 <- pool1_pool1_0_split_1
I0827 11:13:29.373036 14822 net.cpp:380] branch1_2_conv1 -> branch1_2_conv1
I0827 11:13:29.373200 14822 net.cpp:122] Setting up branch1_2_conv1
I0827 11:13:29.373208 14822 net.cpp:129] Top shape: 64 58 28 28 (2910208)
I0827 11:13:29.373211 14822 net.cpp:137] Memory required for data: 128114176
I0827 11:13:29.373215 14822 layer_factory.hpp:77] Creating layer branch1_2_conv1_bn
I0827 11:13:29.373221 14822 net.cpp:84] Creating Layer branch1_2_conv1_bn
I0827 11:13:29.373224 14822 net.cpp:406] branch1_2_conv1_bn <- branch1_2_conv1
I0827 11:13:29.373229 14822 net.cpp:367] branch1_2_conv1_bn -> branch1_2_conv1 (in-place)
I0827 11:13:29.373383 14822 net.cpp:122] Setting up branch1_2_conv1_bn
I0827 11:13:29.373390 14822 net.cpp:129] Top shape: 64 58 28 28 (2910208)
I0827 11:13:29.373394 14822 net.cpp:137] Memory required for data: 139755008
I0827 11:13:29.373400 14822 layer_factory.hpp:77] Creating layer branch1_2_conv1_scale
I0827 11:13:29.373407 14822 net.cpp:84] Creating Layer branch1_2_conv1_scale
I0827 11:13:29.373411 14822 net.cpp:406] branch1_2_conv1_scale <- branch1_2_conv1
I0827 11:13:29.373416 14822 net.cpp:367] branch1_2_conv1_scale -> branch1_2_conv1 (in-place)
I0827 11:13:29.373447 14822 layer_factory.hpp:77] Creating layer branch1_2_conv1_scale
I0827 11:13:29.373539 14822 net.cpp:122] Setting up branch1_2_conv1_scale
I0827 11:13:29.373546 14822 net.cpp:129] Top shape: 64 58 28 28 (2910208)
I0827 11:13:29.373550 14822 net.cpp:137] Memory required for data: 151395840
I0827 11:13:29.373555 14822 layer_factory.hpp:77] Creating layer branch1_2_conv1_relu
I0827 11:13:29.373560 14822 net.cpp:84] Creating Layer branch1_2_conv1_relu
I0827 11:13:29.373564 14822 net.cpp:406] branch1_2_conv1_relu <- branch1_2_conv1
I0827 11:13:29.373569 14822 net.cpp:367] branch1_2_conv1_relu -> branch1_2_conv1 (in-place)
I0827 11:13:29.373572 14822 net.cpp:122] Setting up branch1_2_conv1_relu
I0827 11:13:29.373576 14822 net.cpp:129] Top shape: 64 58 28 28 (2910208)
I0827 11:13:29.373579 14822 net.cpp:137] Memory required for data: 163036672
I0827 11:13:29.373582 14822 layer_factory.hpp:77] Creating layer branch1_2_conv2
I0827 11:13:29.373589 14822 net.cpp:84] Creating Layer branch1_2_conv2
I0827 11:13:29.373591 14822 net.cpp:406] branch1_2_conv2 <- branch1_2_conv1
I0827 11:13:29.373596 14822 net.cpp:380] branch1_2_conv2 -> branch1_2_conv2
I0827 11:13:29.373746 14822 net.cpp:122] Setting up branch1_2_conv2
I0827 11:13:29.373755 14822 net.cpp:129] Top shape: 64 58 14 14 (727552)
I0827 11:13:29.373759 14822 net.cpp:137] Memory required for data: 165946880
I0827 11:13:29.373762 14822 layer_factory.hpp:77] Creating layer branch1_2_conv2_bn
I0827 11:13:29.373769 14822 net.cpp:84] Creating Layer branch1_2_conv2_bn
I0827 11:13:29.373771 14822 net.cpp:406] branch1_2_conv2_bn <- branch1_2_conv2
I0827 11:13:29.373775 14822 net.cpp:367] branch1_2_conv2_bn -> branch1_2_conv2 (in-place)
I0827 11:13:29.373931 14822 net.cpp:122] Setting up branch1_2_conv2_bn
I0827 11:13:29.373939 14822 net.cpp:129] Top shape: 64 58 14 14 (727552)
I0827 11:13:29.373942 14822 net.cpp:137] Memory required for data: 168857088
I0827 11:13:29.373948 14822 layer_factory.hpp:77] Creating layer branch1_2_conv2_scale
I0827 11:13:29.373955 14822 net.cpp:84] Creating Layer branch1_2_conv2_scale
I0827 11:13:29.373957 14822 net.cpp:406] branch1_2_conv2_scale <- branch1_2_conv2
I0827 11:13:29.373962 14822 net.cpp:367] branch1_2_conv2_scale -> branch1_2_conv2 (in-place)
I0827 11:13:29.373992 14822 layer_factory.hpp:77] Creating layer branch1_2_conv2_scale
I0827 11:13:29.374084 14822 net.cpp:122] Setting up branch1_2_conv2_scale
I0827 11:13:29.374091 14822 net.cpp:129] Top shape: 64 58 14 14 (727552)
I0827 11:13:29.374094 14822 net.cpp:137] Memory required for data: 171767296
I0827 11:13:29.374100 14822 layer_factory.hpp:77] Creating layer branch1_2_conv3
I0827 11:13:29.374107 14822 net.cpp:84] Creating Layer branch1_2_conv3
I0827 11:13:29.374110 14822 net.cpp:406] branch1_2_conv3 <- branch1_2_conv2
I0827 11:13:29.374115 14822 net.cpp:380] branch1_2_conv3 -> branch1_2_conv3
I0827 11:13:29.374300 14822 net.cpp:122] Setting up branch1_2_conv3
I0827 11:13:29.374307 14822 net.cpp:129] Top shape: 64 58 14 14 (727552)
I0827 11:13:29.374310 14822 net.cpp:137] Memory required for data: 174677504
I0827 11:13:29.374315 14822 layer_factory.hpp:77] Creating layer branch1_2_conv3_bn
I0827 11:13:29.374320 14822 net.cpp:84] Creating Layer branch1_2_conv3_bn
I0827 11:13:29.374323 14822 net.cpp:406] branch1_2_conv3_bn <- branch1_2_conv3
I0827 11:13:29.374328 14822 net.cpp:367] branch1_2_conv3_bn -> branch1_2_conv3 (in-place)
I0827 11:13:29.374505 14822 net.cpp:122] Setting up branch1_2_conv3_bn
I0827 11:13:29.374512 14822 net.cpp:129] Top shape: 64 58 14 14 (727552)
I0827 11:13:29.374516 14822 net.cpp:137] Memory required for data: 177587712
I0827 11:13:29.374526 14822 layer_factory.hpp:77] Creating layer branch1_2_conv3_scale
I0827 11:13:29.374531 14822 net.cpp:84] Creating Layer branch1_2_conv3_scale
I0827 11:13:29.374534 14822 net.cpp:406] branch1_2_conv3_scale <- branch1_2_conv3
I0827 11:13:29.374539 14822 net.cpp:367] branch1_2_conv3_scale -> branch1_2_conv3 (in-place)
I0827 11:13:29.374570 14822 layer_factory.hpp:77] Creating layer branch1_2_conv3_scale
I0827 11:13:29.374665 14822 net.cpp:122] Setting up branch1_2_conv3_scale
I0827 11:13:29.374672 14822 net.cpp:129] Top shape: 64 58 14 14 (727552)
I0827 11:13:29.374676 14822 net.cpp:137] Memory required for data: 180497920
I0827 11:13:29.374681 14822 layer_factory.hpp:77] Creating layer branch1_2_conv3_relu
I0827 11:13:29.374686 14822 net.cpp:84] Creating Layer branch1_2_conv3_relu
I0827 11:13:29.374689 14822 net.cpp:406] branch1_2_conv3_relu <- branch1_2_conv3
I0827 11:13:29.374693 14822 net.cpp:367] branch1_2_conv3_relu -> branch1_2_conv3 (in-place)
I0827 11:13:29.374698 14822 net.cpp:122] Setting up branch1_2_conv3_relu
I0827 11:13:29.374702 14822 net.cpp:129] Top shape: 64 58 14 14 (727552)
I0827 11:13:29.374704 14822 net.cpp:137] Memory required for data: 183408128
I0827 11:13:29.374707 14822 layer_factory.hpp:77] Creating layer concat1
I0827 11:13:29.374712 14822 net.cpp:84] Creating Layer concat1
I0827 11:13:29.374716 14822 net.cpp:406] concat1 <- branch1_1_conv2
I0827 11:13:29.374719 14822 net.cpp:406] concat1 <- branch1_2_conv3
I0827 11:13:29.374723 14822 net.cpp:380] concat1 -> concat1
I0827 11:13:29.374743 14822 net.cpp:122] Setting up concat1
I0827 11:13:29.374749 14822 net.cpp:129] Top shape: 64 116 14 14 (1455104)
I0827 11:13:29.374752 14822 net.cpp:137] Memory required for data: 189228544
I0827 11:13:29.374755 14822 layer_factory.hpp:77] Creating layer shuffle1
I0827 11:13:29.374761 14822 net.cpp:84] Creating Layer shuffle1
I0827 11:13:29.374764 14822 net.cpp:406] shuffle1 <- concat1
I0827 11:13:29.374768 14822 net.cpp:380] shuffle1 -> shuffle1
I0827 11:13:29.374789 14822 net.cpp:122] Setting up shuffle1
I0827 11:13:29.374796 14822 net.cpp:129] Top shape: 64 116 14 14 (1455104)
I0827 11:13:29.374799 14822 net.cpp:137] Memory required for data: 195048960
I0827 11:13:29.374801 14822 layer_factory.hpp:77] Creating layer slice2
I0827 11:13:29.374807 14822 net.cpp:84] Creating Layer slice2
I0827 11:13:29.374810 14822 net.cpp:406] slice2 <- shuffle1
I0827 11:13:29.374815 14822 net.cpp:380] slice2 -> branch2_1
I0827 11:13:29.374822 14822 net.cpp:380] slice2 -> branch2_2
I0827 11:13:29.374850 14822 net.cpp:122] Setting up slice2
I0827 11:13:29.374856 14822 net.cpp:129] Top shape: 64 58 14 14 (727552)
I0827 11:13:29.374861 14822 net.cpp:129] Top shape: 64 58 14 14 (727552)
I0827 11:13:29.374863 14822 net.cpp:137] Memory required for data: 200869376
I0827 11:13:29.374867 14822 layer_factory.hpp:77] Creating layer branch2_2_conv1
I0827 11:13:29.374873 14822 net.cpp:84] Creating Layer branch2_2_conv1
I0827 11:13:29.374877 14822 net.cpp:406] branch2_2_conv1 <- branch2_2
I0827 11:13:29.374881 14822 net.cpp:380] branch2_2_conv1 -> branch2_2_conv1
I0827 11:13:29.375070 14822 net.cpp:122] Setting up branch2_2_conv1
I0827 11:13:29.375078 14822 net.cpp:129] Top shape: 64 58 14 14 (727552)
I0827 11:13:29.375082 14822 net.cpp:137] Memory required for data: 203779584
I0827 11:13:29.375087 14822 layer_factory.hpp:77] Creating layer branch2_2_conv1_bn
I0827 11:13:29.375092 14822 net.cpp:84] Creating Layer branch2_2_conv1_bn
I0827 11:13:29.375095 14822 net.cpp:406] branch2_2_conv1_bn <- branch2_2_conv1
I0827 11:13:29.375099 14822 net.cpp:367] branch2_2_conv1_bn -> branch2_2_conv1 (in-place)
I0827 11:13:29.375258 14822 net.cpp:122] Setting up branch2_2_conv1_bn
I0827 11:13:29.375265 14822 net.cpp:129] Top shape: 64 58 14 14 (727552)
I0827 11:13:29.375268 14822 net.cpp:137] Memory required for data: 206689792
I0827 11:13:29.375275 14822 layer_factory.hpp:77] Creating layer branch2_2_conv1_scale
I0827 11:13:29.375280 14822 net.cpp:84] Creating Layer branch2_2_conv1_scale
I0827 11:13:29.375284 14822 net.cpp:406] branch2_2_conv1_scale <- branch2_2_conv1
I0827 11:13:29.375288 14822 net.cpp:367] branch2_2_conv1_scale -> branch2_2_conv1 (in-place)
I0827 11:13:29.375320 14822 layer_factory.hpp:77] Creating layer branch2_2_conv1_scale
I0827 11:13:29.375416 14822 net.cpp:122] Setting up branch2_2_conv1_scale
I0827 11:13:29.375424 14822 net.cpp:129] Top shape: 64 58 14 14 (727552)
I0827 11:13:29.375427 14822 net.cpp:137] Memory required for data: 209600000
I0827 11:13:29.375432 14822 layer_factory.hpp:77] Creating layer branch2_2_conv1_relu
I0827 11:13:29.375437 14822 net.cpp:84] Creating Layer branch2_2_conv1_relu
I0827 11:13:29.375440 14822 net.cpp:406] branch2_2_conv1_relu <- branch2_2_conv1
I0827 11:13:29.375444 14822 net.cpp:367] branch2_2_conv1_relu -> branch2_2_conv1 (in-place)
I0827 11:13:29.375449 14822 net.cpp:122] Setting up branch2_2_conv1_relu
I0827 11:13:29.375453 14822 net.cpp:129] Top shape: 64 58 14 14 (727552)
I0827 11:13:29.375456 14822 net.cpp:137] Memory required for data: 212510208
I0827 11:13:29.375459 14822 layer_factory.hpp:77] Creating layer branch2_2_conv2
I0827 11:13:29.375468 14822 net.cpp:84] Creating Layer branch2_2_conv2
I0827 11:13:29.375471 14822 net.cpp:406] branch2_2_conv2 <- branch2_2_conv1
I0827 11:13:29.375476 14822 net.cpp:380] branch2_2_conv2 -> branch2_2_conv2
I0827 11:13:29.375635 14822 net.cpp:122] Setting up branch2_2_conv2
I0827 11:13:29.375643 14822 net.cpp:129] Top shape: 64 58 14 14 (727552)
I0827 11:13:29.375646 14822 net.cpp:137] Memory required for data: 215420416
I0827 11:13:29.375651 14822 layer_factory.hpp:77] Creating layer branch2_2_conv2_bn
I0827 11:13:29.375656 14822 net.cpp:84] Creating Layer branch2_2_conv2_bn
I0827 11:13:29.375660 14822 net.cpp:406] branch2_2_conv2_bn <- branch2_2_conv2
I0827 11:13:29.375664 14822 net.cpp:367] branch2_2_conv2_bn -> branch2_2_conv2 (in-place)
I0827 11:13:29.375823 14822 net.cpp:122] Setting up branch2_2_conv2_bn
I0827 11:13:29.375830 14822 net.cpp:129] Top shape: 64 58 14 14 (727552)
I0827 11:13:29.375833 14822 net.cpp:137] Memory required for data: 218330624
I0827 11:13:29.375840 14822 layer_factory.hpp:77] Creating layer branch2_2_conv2_scale
I0827 11:13:29.375845 14822 net.cpp:84] Creating Layer branch2_2_conv2_scale
I0827 11:13:29.375849 14822 net.cpp:406] branch2_2_conv2_scale <- branch2_2_conv2
I0827 11:13:29.375854 14822 net.cpp:367] branch2_2_conv2_scale -> branch2_2_conv2 (in-place)
I0827 11:13:29.375883 14822 layer_factory.hpp:77] Creating layer branch2_2_conv2_scale
I0827 11:13:29.375980 14822 net.cpp:122] Setting up branch2_2_conv2_scale
I0827 11:13:29.375988 14822 net.cpp:129] Top shape: 64 58 14 14 (727552)
I0827 11:13:29.375990 14822 net.cpp:137] Memory required for data: 221240832
I0827 11:13:29.375996 14822 layer_factory.hpp:77] Creating layer branch2_2_conv3
I0827 11:13:29.376003 14822 net.cpp:84] Creating Layer branch2_2_conv3
I0827 11:13:29.376006 14822 net.cpp:406] branch2_2_conv3 <- branch2_2_conv2
I0827 11:13:29.376011 14822 net.cpp:380] branch2_2_conv3 -> branch2_2_conv3
I0827 11:13:29.376204 14822 net.cpp:122] Setting up branch2_2_conv3
I0827 11:13:29.376212 14822 net.cpp:129] Top shape: 64 58 14 14 (727552)
I0827 11:13:29.376215 14822 net.cpp:137] Memory required for data: 224151040
I0827 11:13:29.376220 14822 layer_factory.hpp:77] Creating layer branch2_2_conv3_bn
I0827 11:13:29.376226 14822 net.cpp:84] Creating Layer branch2_2_conv3_bn
I0827 11:13:29.376230 14822 net.cpp:406] branch2_2_conv3_bn <- branch2_2_conv3
I0827 11:13:29.376235 14822 net.cpp:367] branch2_2_conv3_bn -> branch2_2_conv3 (in-place)
I0827 11:13:29.376391 14822 net.cpp:122] Setting up branch2_2_conv3_bn
I0827 11:13:29.376399 14822 net.cpp:129] Top shape: 64 58 14 14 (727552)
I0827 11:13:29.376401 14822 net.cpp:137] Memory required for data: 227061248
I0827 11:13:29.376408 14822 layer_factory.hpp:77] Creating layer branch2_2_conv3_scale
I0827 11:13:29.376413 14822 net.cpp:84] Creating Layer branch2_2_conv3_scale
I0827 11:13:29.376417 14822 net.cpp:406] branch2_2_conv3_scale <- branch2_2_conv3
I0827 11:13:29.376421 14822 net.cpp:367] branch2_2_conv3_scale -> branch2_2_conv3 (in-place)
I0827 11:13:29.376451 14822 layer_factory.hpp:77] Creating layer branch2_2_conv3_scale
I0827 11:13:29.376546 14822 net.cpp:122] Setting up branch2_2_conv3_scale
I0827 11:13:29.376554 14822 net.cpp:129] Top shape: 64 58 14 14 (727552)
I0827 11:13:29.376556 14822 net.cpp:137] Memory required for data: 229971456
I0827 11:13:29.376562 14822 layer_factory.hpp:77] Creating layer branch2_2_conv3_relu
I0827 11:13:29.376567 14822 net.cpp:84] Creating Layer branch2_2_conv3_relu
I0827 11:13:29.376570 14822 net.cpp:406] branch2_2_conv3_relu <- branch2_2_conv3
I0827 11:13:29.376574 14822 net.cpp:367] branch2_2_conv3_relu -> branch2_2_conv3 (in-place)
I0827 11:13:29.376579 14822 net.cpp:122] Setting up branch2_2_conv3_relu
I0827 11:13:29.376582 14822 net.cpp:129] Top shape: 64 58 14 14 (727552)
I0827 11:13:29.376585 14822 net.cpp:137] Memory required for data: 232881664
I0827 11:13:29.376588 14822 layer_factory.hpp:77] Creating layer concat2
I0827 11:13:29.376592 14822 net.cpp:84] Creating Layer concat2
I0827 11:13:29.376596 14822 net.cpp:406] concat2 <- branch2_1
I0827 11:13:29.376600 14822 net.cpp:406] concat2 <- branch2_2_conv3
I0827 11:13:29.376605 14822 net.cpp:380] concat2 -> concat2
I0827 11:13:29.376622 14822 net.cpp:122] Setting up concat2
I0827 11:13:29.376629 14822 net.cpp:129] Top shape: 64 116 14 14 (1455104)
I0827 11:13:29.376632 14822 net.cpp:137] Memory required for data: 238702080
I0827 11:13:29.376634 14822 layer_factory.hpp:77] Creating layer shuffle2
I0827 11:13:29.376639 14822 net.cpp:84] Creating Layer shuffle2
I0827 11:13:29.376642 14822 net.cpp:406] shuffle2 <- concat2
I0827 11:13:29.376647 14822 net.cpp:380] shuffle2 -> shuffle2
I0827 11:13:29.376665 14822 net.cpp:122] Setting up shuffle2
I0827 11:13:29.376672 14822 net.cpp:129] Top shape: 64 116 14 14 (1455104)
I0827 11:13:29.376674 14822 net.cpp:137] Memory required for data: 244522496
I0827 11:13:29.376677 14822 layer_factory.hpp:77] Creating layer slice3
I0827 11:13:29.376682 14822 net.cpp:84] Creating Layer slice3
I0827 11:13:29.376685 14822 net.cpp:406] slice3 <- shuffle2
I0827 11:13:29.376690 14822 net.cpp:380] slice3 -> branch3_1
I0827 11:13:29.376695 14822 net.cpp:380] slice3 -> branch3_2
I0827 11:13:29.376724 14822 net.cpp:122] Setting up slice3
I0827 11:13:29.376729 14822 net.cpp:129] Top shape: 64 58 14 14 (727552)
I0827 11:13:29.376734 14822 net.cpp:129] Top shape: 64 58 14 14 (727552)
I0827 11:13:29.376736 14822 net.cpp:137] Memory required for data: 250342912
I0827 11:13:29.376739 14822 layer_factory.hpp:77] Creating layer branch3_2_conv1
I0827 11:13:29.376746 14822 net.cpp:84] Creating Layer branch3_2_conv1
I0827 11:13:29.376750 14822 net.cpp:406] branch3_2_conv1 <- branch3_2
I0827 11:13:29.376754 14822 net.cpp:380] branch3_2_conv1 -> branch3_2_conv1
I0827 11:13:29.376943 14822 net.cpp:122] Setting up branch3_2_conv1
I0827 11:13:29.376951 14822 net.cpp:129] Top shape: 64 58 14 14 (727552)
I0827 11:13:29.376955 14822 net.cpp:137] Memory required for data: 253253120
I0827 11:13:29.376958 14822 layer_factory.hpp:77] Creating layer branch3_2_conv1_bn
I0827 11:13:29.376965 14822 net.cpp:84] Creating Layer branch3_2_conv1_bn
I0827 11:13:29.376968 14822 net.cpp:406] branch3_2_conv1_bn <- branch3_2_conv1
I0827 11:13:29.376972 14822 net.cpp:367] branch3_2_conv1_bn -> branch3_2_conv1 (in-place)
I0827 11:13:29.377135 14822 net.cpp:122] Setting up branch3_2_conv1_bn
I0827 11:13:29.377143 14822 net.cpp:129] Top shape: 64 58 14 14 (727552)
I0827 11:13:29.377146 14822 net.cpp:137] Memory required for data: 256163328
I0827 11:13:29.377152 14822 layer_factory.hpp:77] Creating layer branch3_2_conv1_scale
I0827 11:13:29.377158 14822 net.cpp:84] Creating Layer branch3_2_conv1_scale
I0827 11:13:29.377161 14822 net.cpp:406] branch3_2_conv1_scale <- branch3_2_conv1
I0827 11:13:29.377166 14822 net.cpp:367] branch3_2_conv1_scale -> branch3_2_conv1 (in-place)
I0827 11:13:29.377197 14822 layer_factory.hpp:77] Creating layer branch3_2_conv1_scale
I0827 11:13:29.377293 14822 net.cpp:122] Setting up branch3_2_conv1_scale
I0827 11:13:29.377301 14822 net.cpp:129] Top shape: 64 58 14 14 (727552)
I0827 11:13:29.377305 14822 net.cpp:137] Memory required for data: 259073536
I0827 11:13:29.377310 14822 layer_factory.hpp:77] Creating layer branch3_2_conv1_relu
I0827 11:13:29.377315 14822 net.cpp:84] Creating Layer branch3_2_conv1_relu
I0827 11:13:29.377317 14822 net.cpp:406] branch3_2_conv1_relu <- branch3_2_conv1
I0827 11:13:29.377321 14822 net.cpp:367] branch3_2_conv1_relu -> branch3_2_conv1 (in-place)
I0827 11:13:29.377326 14822 net.cpp:122] Setting up branch3_2_conv1_relu
I0827 11:13:29.377331 14822 net.cpp:129] Top shape: 64 58 14 14 (727552)
I0827 11:13:29.377333 14822 net.cpp:137] Memory required for data: 261983744
I0827 11:13:29.377336 14822 layer_factory.hpp:77] Creating layer branch3_2_conv2
I0827 11:13:29.377341 14822 net.cpp:84] Creating Layer branch3_2_conv2
I0827 11:13:29.377344 14822 net.cpp:406] branch3_2_conv2 <- branch3_2_conv1
I0827 11:13:29.377349 14822 net.cpp:380] branch3_2_conv2 -> branch3_2_conv2
I0827 11:13:29.377511 14822 net.cpp:122] Setting up branch3_2_conv2
I0827 11:13:29.377518 14822 net.cpp:129] Top shape: 64 58 14 14 (727552)
I0827 11:13:29.377521 14822 net.cpp:137] Memory required for data: 264893952
I0827 11:13:29.377526 14822 layer_factory.hpp:77] Creating layer branch3_2_conv2_bn
I0827 11:13:29.377532 14822 net.cpp:84] Creating Layer branch3_2_conv2_bn
I0827 11:13:29.377535 14822 net.cpp:406] branch3_2_conv2_bn <- branch3_2_conv2
I0827 11:13:29.377539 14822 net.cpp:367] branch3_2_conv2_bn -> branch3_2_conv2 (in-place)
I0827 11:13:29.377701 14822 net.cpp:122] Setting up branch3_2_conv2_bn
I0827 11:13:29.377707 14822 net.cpp:129] Top shape: 64 58 14 14 (727552)
I0827 11:13:29.377710 14822 net.cpp:137] Memory required for data: 267804160
I0827 11:13:29.377717 14822 layer_factory.hpp:77] Creating layer branch3_2_conv2_scale
I0827 11:13:29.377722 14822 net.cpp:84] Creating Layer branch3_2_conv2_scale
I0827 11:13:29.377725 14822 net.cpp:406] branch3_2_conv2_scale <- branch3_2_conv2
I0827 11:13:29.377729 14822 net.cpp:367] branch3_2_conv2_scale -> branch3_2_conv2 (in-place)
I0827 11:13:29.377760 14822 layer_factory.hpp:77] Creating layer branch3_2_conv2_scale
I0827 11:13:29.377857 14822 net.cpp:122] Setting up branch3_2_conv2_scale
I0827 11:13:29.377866 14822 net.cpp:129] Top shape: 64 58 14 14 (727552)
I0827 11:13:29.377868 14822 net.cpp:137] Memory required for data: 270714368
I0827 11:13:29.377879 14822 layer_factory.hpp:77] Creating layer branch3_2_conv3
I0827 11:13:29.377887 14822 net.cpp:84] Creating Layer branch3_2_conv3
I0827 11:13:29.377889 14822 net.cpp:406] branch3_2_conv3 <- branch3_2_conv2
I0827 11:13:29.377894 14822 net.cpp:380] branch3_2_conv3 -> branch3_2_conv3
I0827 11:13:29.378087 14822 net.cpp:122] Setting up branch3_2_conv3
I0827 11:13:29.378095 14822 net.cpp:129] Top shape: 64 58 14 14 (727552)
I0827 11:13:29.378099 14822 net.cpp:137] Memory required for data: 273624576
I0827 11:13:29.378103 14822 layer_factory.hpp:77] Creating layer branch3_2_conv3_bn
I0827 11:13:29.378109 14822 net.cpp:84] Creating Layer branch3_2_conv3_bn
I0827 11:13:29.378113 14822 net.cpp:406] branch3_2_conv3_bn <- branch3_2_conv3
I0827 11:13:29.378118 14822 net.cpp:367] branch3_2_conv3_bn -> branch3_2_conv3 (in-place)
I0827 11:13:29.378276 14822 net.cpp:122] Setting up branch3_2_conv3_bn
I0827 11:13:29.378283 14822 net.cpp:129] Top shape: 64 58 14 14 (727552)
I0827 11:13:29.378288 14822 net.cpp:137] Memory required for data: 276534784
I0827 11:13:29.378293 14822 layer_factory.hpp:77] Creating layer branch3_2_conv3_scale
I0827 11:13:29.378298 14822 net.cpp:84] Creating Layer branch3_2_conv3_scale
I0827 11:13:29.378302 14822 net.cpp:406] branch3_2_conv3_scale <- branch3_2_conv3
I0827 11:13:29.378306 14822 net.cpp:367] branch3_2_conv3_scale -> branch3_2_conv3 (in-place)
I0827 11:13:29.378337 14822 layer_factory.hpp:77] Creating layer branch3_2_conv3_scale
I0827 11:13:29.378432 14822 net.cpp:122] Setting up branch3_2_conv3_scale
I0827 11:13:29.378439 14822 net.cpp:129] Top shape: 64 58 14 14 (727552)
I0827 11:13:29.378443 14822 net.cpp:137] Memory required for data: 279444992
I0827 11:13:29.378448 14822 layer_factory.hpp:77] Creating layer branch3_2_conv3_relu
I0827 11:13:29.378453 14822 net.cpp:84] Creating Layer branch3_2_conv3_relu
I0827 11:13:29.378456 14822 net.cpp:406] branch3_2_conv3_relu <- branch3_2_conv3
I0827 11:13:29.378460 14822 net.cpp:367] branch3_2_conv3_relu -> branch3_2_conv3 (in-place)
I0827 11:13:29.378465 14822 net.cpp:122] Setting up branch3_2_conv3_relu
I0827 11:13:29.378469 14822 net.cpp:129] Top shape: 64 58 14 14 (727552)
I0827 11:13:29.378473 14822 net.cpp:137] Memory required for data: 282355200
I0827 11:13:29.378475 14822 layer_factory.hpp:77] Creating layer concat3
I0827 11:13:29.378480 14822 net.cpp:84] Creating Layer concat3
I0827 11:13:29.378484 14822 net.cpp:406] concat3 <- branch3_1
I0827 11:13:29.378486 14822 net.cpp:406] concat3 <- branch3_2_conv3
I0827 11:13:29.378491 14822 net.cpp:380] concat3 -> concat3
I0827 11:13:29.378510 14822 net.cpp:122] Setting up concat3
I0827 11:13:29.378517 14822 net.cpp:129] Top shape: 64 116 14 14 (1455104)
I0827 11:13:29.378520 14822 net.cpp:137] Memory required for data: 288175616
I0827 11:13:29.378523 14822 layer_factory.hpp:77] Creating layer shuffle3
I0827 11:13:29.378528 14822 net.cpp:84] Creating Layer shuffle3
I0827 11:13:29.378531 14822 net.cpp:406] shuffle3 <- concat3
I0827 11:13:29.378536 14822 net.cpp:380] shuffle3 -> shuffle3
I0827 11:13:29.378554 14822 net.cpp:122] Setting up shuffle3
I0827 11:13:29.378561 14822 net.cpp:129] Top shape: 64 116 14 14 (1455104)
I0827 11:13:29.378563 14822 net.cpp:137] Memory required for data: 293996032
I0827 11:13:29.378566 14822 layer_factory.hpp:77] Creating layer slice4
I0827 11:13:29.378571 14822 net.cpp:84] Creating Layer slice4
I0827 11:13:29.378576 14822 net.cpp:406] slice4 <- shuffle3
I0827 11:13:29.378579 14822 net.cpp:380] slice4 -> branch4_1
I0827 11:13:29.378585 14822 net.cpp:380] slice4 -> branch4_2
I0827 11:13:29.378612 14822 net.cpp:122] Setting up slice4
I0827 11:13:29.378619 14822 net.cpp:129] Top shape: 64 58 14 14 (727552)
I0827 11:13:29.378623 14822 net.cpp:129] Top shape: 64 58 14 14 (727552)
I0827 11:13:29.378625 14822 net.cpp:137] Memory required for data: 299816448
I0827 11:13:29.378628 14822 layer_factory.hpp:77] Creating layer branch4_2_conv1
I0827 11:13:29.378636 14822 net.cpp:84] Creating Layer branch4_2_conv1
I0827 11:13:29.378639 14822 net.cpp:406] branch4_2_conv1 <- branch4_2
I0827 11:13:29.378644 14822 net.cpp:380] branch4_2_conv1 -> branch4_2_conv1
I0827 11:13:29.378831 14822 net.cpp:122] Setting up branch4_2_conv1
I0827 11:13:29.378839 14822 net.cpp:129] Top shape: 64 58 14 14 (727552)
I0827 11:13:29.378842 14822 net.cpp:137] Memory required for data: 302726656
I0827 11:13:29.378846 14822 layer_factory.hpp:77] Creating layer branch4_2_conv1_bn
I0827 11:13:29.378852 14822 net.cpp:84] Creating Layer branch4_2_conv1_bn
I0827 11:13:29.378855 14822 net.cpp:406] branch4_2_conv1_bn <- branch4_2_conv1
I0827 11:13:29.378860 14822 net.cpp:367] branch4_2_conv1_bn -> branch4_2_conv1 (in-place)
I0827 11:13:29.379019 14822 net.cpp:122] Setting up branch4_2_conv1_bn
I0827 11:13:29.379025 14822 net.cpp:129] Top shape: 64 58 14 14 (727552)
I0827 11:13:29.379029 14822 net.cpp:137] Memory required for data: 305636864
I0827 11:13:29.379035 14822 layer_factory.hpp:77] Creating layer branch4_2_conv1_scale
I0827 11:13:29.379041 14822 net.cpp:84] Creating Layer branch4_2_conv1_scale
I0827 11:13:29.379045 14822 net.cpp:406] branch4_2_conv1_scale <- branch4_2_conv1
I0827 11:13:29.379048 14822 net.cpp:367] branch4_2_conv1_scale -> branch4_2_conv1 (in-place)
I0827 11:13:29.379081 14822 layer_factory.hpp:77] Creating layer branch4_2_conv1_scale
I0827 11:13:29.379179 14822 net.cpp:122] Setting up branch4_2_conv1_scale
I0827 11:13:29.379185 14822 net.cpp:129] Top shape: 64 58 14 14 (727552)
I0827 11:13:29.379189 14822 net.cpp:137] Memory required for data: 308547072
I0827 11:13:29.379194 14822 layer_factory.hpp:77] Creating layer branch4_2_conv1_relu
I0827 11:13:29.379199 14822 net.cpp:84] Creating Layer branch4_2_conv1_relu
I0827 11:13:29.379202 14822 net.cpp:406] branch4_2_conv1_relu <- branch4_2_conv1
I0827 11:13:29.379206 14822 net.cpp:367] branch4_2_conv1_relu -> branch4_2_conv1 (in-place)
I0827 11:13:29.379211 14822 net.cpp:122] Setting up branch4_2_conv1_relu
I0827 11:13:29.379215 14822 net.cpp:129] Top shape: 64 58 14 14 (727552)
I0827 11:13:29.379218 14822 net.cpp:137] Memory required for data: 311457280
I0827 11:13:29.379221 14822 layer_factory.hpp:77] Creating layer branch4_2_conv2
I0827 11:13:29.379226 14822 net.cpp:84] Creating Layer branch4_2_conv2
I0827 11:13:29.379230 14822 net.cpp:406] branch4_2_conv2 <- branch4_2_conv1
I0827 11:13:29.379235 14822 net.cpp:380] branch4_2_conv2 -> branch4_2_conv2
I0827 11:13:29.379396 14822 net.cpp:122] Setting up branch4_2_conv2
I0827 11:13:29.379405 14822 net.cpp:129] Top shape: 64 58 14 14 (727552)
I0827 11:13:29.379407 14822 net.cpp:137] Memory required for data: 314367488
I0827 11:13:29.379412 14822 layer_factory.hpp:77] Creating layer branch4_2_conv2_bn
I0827 11:13:29.379418 14822 net.cpp:84] Creating Layer branch4_2_conv2_bn
I0827 11:13:29.379421 14822 net.cpp:406] branch4_2_conv2_bn <- branch4_2_conv2
I0827 11:13:29.379426 14822 net.cpp:367] branch4_2_conv2_bn -> branch4_2_conv2 (in-place)
I0827 11:13:29.379587 14822 net.cpp:122] Setting up branch4_2_conv2_bn
I0827 11:13:29.379595 14822 net.cpp:129] Top shape: 64 58 14 14 (727552)
I0827 11:13:29.379598 14822 net.cpp:137] Memory required for data: 317277696
I0827 11:13:29.379604 14822 layer_factory.hpp:77] Creating layer branch4_2_conv2_scale
I0827 11:13:29.379609 14822 net.cpp:84] Creating Layer branch4_2_conv2_scale
I0827 11:13:29.379613 14822 net.cpp:406] branch4_2_conv2_scale <- branch4_2_conv2
I0827 11:13:29.379617 14822 net.cpp:367] branch4_2_conv2_scale -> branch4_2_conv2 (in-place)
I0827 11:13:29.379648 14822 layer_factory.hpp:77] Creating layer branch4_2_conv2_scale
I0827 11:13:29.379745 14822 net.cpp:122] Setting up branch4_2_conv2_scale
I0827 11:13:29.379751 14822 net.cpp:129] Top shape: 64 58 14 14 (727552)
I0827 11:13:29.379755 14822 net.cpp:137] Memory required for data: 320187904
I0827 11:13:29.379760 14822 layer_factory.hpp:77] Creating layer branch4_2_conv3
I0827 11:13:29.379766 14822 net.cpp:84] Creating Layer branch4_2_conv3
I0827 11:13:29.379770 14822 net.cpp:406] branch4_2_conv3 <- branch4_2_conv2
I0827 11:13:29.379776 14822 net.cpp:380] branch4_2_conv3 -> branch4_2_conv3
I0827 11:13:29.379966 14822 net.cpp:122] Setting up branch4_2_conv3
I0827 11:13:29.379976 14822 net.cpp:129] Top shape: 64 58 14 14 (727552)
I0827 11:13:29.379978 14822 net.cpp:137] Memory required for data: 323098112
I0827 11:13:29.379982 14822 layer_factory.hpp:77] Creating layer branch4_2_conv3_bn
I0827 11:13:29.379994 14822 net.cpp:84] Creating Layer branch4_2_conv3_bn
I0827 11:13:29.379997 14822 net.cpp:406] branch4_2_conv3_bn <- branch4_2_conv3
I0827 11:13:29.380002 14822 net.cpp:367] branch4_2_conv3_bn -> branch4_2_conv3 (in-place)
I0827 11:13:29.380173 14822 net.cpp:122] Setting up branch4_2_conv3_bn
I0827 11:13:29.380182 14822 net.cpp:129] Top shape: 64 58 14 14 (727552)
I0827 11:13:29.380184 14822 net.cpp:137] Memory required for data: 326008320
I0827 11:13:29.380192 14822 layer_factory.hpp:77] Creating layer branch4_2_conv3_scale
I0827 11:13:29.380198 14822 net.cpp:84] Creating Layer branch4_2_conv3_scale
I0827 11:13:29.380201 14822 net.cpp:406] branch4_2_conv3_scale <- branch4_2_conv3
I0827 11:13:29.380205 14822 net.cpp:367] branch4_2_conv3_scale -> branch4_2_conv3 (in-place)
I0827 11:13:29.380236 14822 layer_factory.hpp:77] Creating layer branch4_2_conv3_scale
I0827 11:13:29.380336 14822 net.cpp:122] Setting up branch4_2_conv3_scale
I0827 11:13:29.380343 14822 net.cpp:129] Top shape: 64 58 14 14 (727552)
I0827 11:13:29.380347 14822 net.cpp:137] Memory required for data: 328918528
I0827 11:13:29.380352 14822 layer_factory.hpp:77] Creating layer branch4_2_conv3_relu
I0827 11:13:29.380357 14822 net.cpp:84] Creating Layer branch4_2_conv3_relu
I0827 11:13:29.380362 14822 net.cpp:406] branch4_2_conv3_relu <- branch4_2_conv3
I0827 11:13:29.380365 14822 net.cpp:367] branch4_2_conv3_relu -> branch4_2_conv3 (in-place)
I0827 11:13:29.380369 14822 net.cpp:122] Setting up branch4_2_conv3_relu
I0827 11:13:29.380374 14822 net.cpp:129] Top shape: 64 58 14 14 (727552)
I0827 11:13:29.380376 14822 net.cpp:137] Memory required for data: 331828736
I0827 11:13:29.380379 14822 layer_factory.hpp:77] Creating layer concat4
I0827 11:13:29.380384 14822 net.cpp:84] Creating Layer concat4
I0827 11:13:29.380388 14822 net.cpp:406] concat4 <- branch4_1
I0827 11:13:29.380391 14822 net.cpp:406] concat4 <- branch4_2_conv3
I0827 11:13:29.380396 14822 net.cpp:380] concat4 -> concat4
I0827 11:13:29.380419 14822 net.cpp:122] Setting up concat4
I0827 11:13:29.380425 14822 net.cpp:129] Top shape: 64 116 14 14 (1455104)
I0827 11:13:29.380429 14822 net.cpp:137] Memory required for data: 337649152
I0827 11:13:29.380431 14822 layer_factory.hpp:77] Creating layer shuffle4
I0827 11:13:29.380436 14822 net.cpp:84] Creating Layer shuffle4
I0827 11:13:29.380440 14822 net.cpp:406] shuffle4 <- concat4
I0827 11:13:29.380445 14822 net.cpp:380] shuffle4 -> shuffle4
I0827 11:13:29.380463 14822 net.cpp:122] Setting up shuffle4
I0827 11:13:29.380470 14822 net.cpp:129] Top shape: 64 116 14 14 (1455104)
I0827 11:13:29.380472 14822 net.cpp:137] Memory required for data: 343469568
I0827 11:13:29.380475 14822 layer_factory.hpp:77] Creating layer shuffle4_shuffle4_0_split
I0827 11:13:29.380481 14822 net.cpp:84] Creating Layer shuffle4_shuffle4_0_split
I0827 11:13:29.380483 14822 net.cpp:406] shuffle4_shuffle4_0_split <- shuffle4
I0827 11:13:29.380488 14822 net.cpp:380] shuffle4_shuffle4_0_split -> shuffle4_shuffle4_0_split_0
I0827 11:13:29.380493 14822 net.cpp:380] shuffle4_shuffle4_0_split -> shuffle4_shuffle4_0_split_1
I0827 11:13:29.380522 14822 net.cpp:122] Setting up shuffle4_shuffle4_0_split
I0827 11:13:29.380527 14822 net.cpp:129] Top shape: 64 116 14 14 (1455104)
I0827 11:13:29.380532 14822 net.cpp:129] Top shape: 64 116 14 14 (1455104)
I0827 11:13:29.380534 14822 net.cpp:137] Memory required for data: 355110400
I0827 11:13:29.380537 14822 layer_factory.hpp:77] Creating layer branch5_1_conv1
I0827 11:13:29.380543 14822 net.cpp:84] Creating Layer branch5_1_conv1
I0827 11:13:29.380547 14822 net.cpp:406] branch5_1_conv1 <- shuffle4_shuffle4_0_split_0
I0827 11:13:29.380551 14822 net.cpp:380] branch5_1_conv1 -> branch5_1_conv1
I0827 11:13:29.380717 14822 net.cpp:122] Setting up branch5_1_conv1
I0827 11:13:29.380724 14822 net.cpp:129] Top shape: 64 116 8 8 (475136)
I0827 11:13:29.380728 14822 net.cpp:137] Memory required for data: 357010944
I0827 11:13:29.380733 14822 layer_factory.hpp:77] Creating layer branch5_1_conv1_bn
I0827 11:13:29.380738 14822 net.cpp:84] Creating Layer branch5_1_conv1_bn
I0827 11:13:29.380741 14822 net.cpp:406] branch5_1_conv1_bn <- branch5_1_conv1
I0827 11:13:29.380745 14822 net.cpp:367] branch5_1_conv1_bn -> branch5_1_conv1 (in-place)
I0827 11:13:29.380908 14822 net.cpp:122] Setting up branch5_1_conv1_bn
I0827 11:13:29.380916 14822 net.cpp:129] Top shape: 64 116 8 8 (475136)
I0827 11:13:29.380919 14822 net.cpp:137] Memory required for data: 358911488
I0827 11:13:29.380926 14822 layer_factory.hpp:77] Creating layer branch5_1_conv1_scale
I0827 11:13:29.380931 14822 net.cpp:84] Creating Layer branch5_1_conv1_scale
I0827 11:13:29.380935 14822 net.cpp:406] branch5_1_conv1_scale <- branch5_1_conv1
I0827 11:13:29.380939 14822 net.cpp:367] branch5_1_conv1_scale -> branch5_1_conv1 (in-place)
I0827 11:13:29.380971 14822 layer_factory.hpp:77] Creating layer branch5_1_conv1_scale
I0827 11:13:29.381068 14822 net.cpp:122] Setting up branch5_1_conv1_scale
I0827 11:13:29.381075 14822 net.cpp:129] Top shape: 64 116 8 8 (475136)
I0827 11:13:29.381078 14822 net.cpp:137] Memory required for data: 360812032
I0827 11:13:29.381083 14822 layer_factory.hpp:77] Creating layer branch5_1_conv2
I0827 11:13:29.381090 14822 net.cpp:84] Creating Layer branch5_1_conv2
I0827 11:13:29.381094 14822 net.cpp:406] branch5_1_conv2 <- branch5_1_conv1
I0827 11:13:29.381099 14822 net.cpp:380] branch5_1_conv2 -> branch5_1_conv2
I0827 11:13:29.381399 14822 net.cpp:122] Setting up branch5_1_conv2
I0827 11:13:29.381417 14822 net.cpp:129] Top shape: 64 116 8 8 (475136)
I0827 11:13:29.381422 14822 net.cpp:137] Memory required for data: 362712576
I0827 11:13:29.381435 14822 layer_factory.hpp:77] Creating layer branch5_1_conv2_bn
I0827 11:13:29.381441 14822 net.cpp:84] Creating Layer branch5_1_conv2_bn
I0827 11:13:29.381444 14822 net.cpp:406] branch5_1_conv2_bn <- branch5_1_conv2
I0827 11:13:29.381449 14822 net.cpp:367] branch5_1_conv2_bn -> branch5_1_conv2 (in-place)
I0827 11:13:29.381613 14822 net.cpp:122] Setting up branch5_1_conv2_bn
I0827 11:13:29.381620 14822 net.cpp:129] Top shape: 64 116 8 8 (475136)
I0827 11:13:29.381623 14822 net.cpp:137] Memory required for data: 364613120
I0827 11:13:29.381629 14822 layer_factory.hpp:77] Creating layer branch5_1_conv2_scale
I0827 11:13:29.381635 14822 net.cpp:84] Creating Layer branch5_1_conv2_scale
I0827 11:13:29.381639 14822 net.cpp:406] branch5_1_conv2_scale <- branch5_1_conv2
I0827 11:13:29.381644 14822 net.cpp:367] branch5_1_conv2_scale -> branch5_1_conv2 (in-place)
I0827 11:13:29.381675 14822 layer_factory.hpp:77] Creating layer branch5_1_conv2_scale
I0827 11:13:29.381773 14822 net.cpp:122] Setting up branch5_1_conv2_scale
I0827 11:13:29.381780 14822 net.cpp:129] Top shape: 64 116 8 8 (475136)
I0827 11:13:29.381783 14822 net.cpp:137] Memory required for data: 366513664
I0827 11:13:29.381789 14822 layer_factory.hpp:77] Creating layer branch5_1_conv2_relu
I0827 11:13:29.381794 14822 net.cpp:84] Creating Layer branch5_1_conv2_relu
I0827 11:13:29.381798 14822 net.cpp:406] branch5_1_conv2_relu <- branch5_1_conv2
I0827 11:13:29.381803 14822 net.cpp:367] branch5_1_conv2_relu -> branch5_1_conv2 (in-place)
I0827 11:13:29.381806 14822 net.cpp:122] Setting up branch5_1_conv2_relu
I0827 11:13:29.381810 14822 net.cpp:129] Top shape: 64 116 8 8 (475136)
I0827 11:13:29.381814 14822 net.cpp:137] Memory required for data: 368414208
I0827 11:13:29.381816 14822 layer_factory.hpp:77] Creating layer branch5_2_conv1
I0827 11:13:29.381822 14822 net.cpp:84] Creating Layer branch5_2_conv1
I0827 11:13:29.381826 14822 net.cpp:406] branch5_2_conv1 <- shuffle4_shuffle4_0_split_1
I0827 11:13:29.381831 14822 net.cpp:380] branch5_2_conv1 -> branch5_2_conv1
I0827 11:13:29.382128 14822 net.cpp:122] Setting up branch5_2_conv1
I0827 11:13:29.382135 14822 net.cpp:129] Top shape: 64 116 14 14 (1455104)
I0827 11:13:29.382138 14822 net.cpp:137] Memory required for data: 374234624
I0827 11:13:29.382143 14822 layer_factory.hpp:77] Creating layer branch5_2_conv1_bn
I0827 11:13:29.382148 14822 net.cpp:84] Creating Layer branch5_2_conv1_bn
I0827 11:13:29.382153 14822 net.cpp:406] branch5_2_conv1_bn <- branch5_2_conv1
I0827 11:13:29.382156 14822 net.cpp:367] branch5_2_conv1_bn -> branch5_2_conv1 (in-place)
I0827 11:13:29.382323 14822 net.cpp:122] Setting up branch5_2_conv1_bn
I0827 11:13:29.382330 14822 net.cpp:129] Top shape: 64 116 14 14 (1455104)
I0827 11:13:29.382333 14822 net.cpp:137] Memory required for data: 380055040
I0827 11:13:29.382340 14822 layer_factory.hpp:77] Creating layer branch5_2_conv1_scale
I0827 11:13:29.382345 14822 net.cpp:84] Creating Layer branch5_2_conv1_scale
I0827 11:13:29.382349 14822 net.cpp:406] branch5_2_conv1_scale <- branch5_2_conv1
I0827 11:13:29.382354 14822 net.cpp:367] branch5_2_conv1_scale -> branch5_2_conv1 (in-place)
I0827 11:13:29.382385 14822 layer_factory.hpp:77] Creating layer branch5_2_conv1_scale
I0827 11:13:29.382481 14822 net.cpp:122] Setting up branch5_2_conv1_scale
I0827 11:13:29.382489 14822 net.cpp:129] Top shape: 64 116 14 14 (1455104)
I0827 11:13:29.382493 14822 net.cpp:137] Memory required for data: 385875456
I0827 11:13:29.382498 14822 layer_factory.hpp:77] Creating layer branch5_2_conv1_relu
I0827 11:13:29.382503 14822 net.cpp:84] Creating Layer branch5_2_conv1_relu
I0827 11:13:29.382506 14822 net.cpp:406] branch5_2_conv1_relu <- branch5_2_conv1
I0827 11:13:29.382510 14822 net.cpp:367] branch5_2_conv1_relu -> branch5_2_conv1 (in-place)
I0827 11:13:29.382514 14822 net.cpp:122] Setting up branch5_2_conv1_relu
I0827 11:13:29.382519 14822 net.cpp:129] Top shape: 64 116 14 14 (1455104)
I0827 11:13:29.382521 14822 net.cpp:137] Memory required for data: 391695872
I0827 11:13:29.382524 14822 layer_factory.hpp:77] Creating layer branch5_2_conv2
I0827 11:13:29.382530 14822 net.cpp:84] Creating Layer branch5_2_conv2
I0827 11:13:29.382534 14822 net.cpp:406] branch5_2_conv2 <- branch5_2_conv1
I0827 11:13:29.382539 14822 net.cpp:380] branch5_2_conv2 -> branch5_2_conv2
I0827 11:13:29.382707 14822 net.cpp:122] Setting up branch5_2_conv2
I0827 11:13:29.382715 14822 net.cpp:129] Top shape: 64 116 8 8 (475136)
I0827 11:13:29.382719 14822 net.cpp:137] Memory required for data: 393596416
I0827 11:13:29.382724 14822 layer_factory.hpp:77] Creating layer branch5_2_conv2_bn
I0827 11:13:29.382728 14822 net.cpp:84] Creating Layer branch5_2_conv2_bn
I0827 11:13:29.382731 14822 net.cpp:406] branch5_2_conv2_bn <- branch5_2_conv2
I0827 11:13:29.382736 14822 net.cpp:367] branch5_2_conv2_bn -> branch5_2_conv2 (in-place)
I0827 11:13:29.382897 14822 net.cpp:122] Setting up branch5_2_conv2_bn
I0827 11:13:29.382905 14822 net.cpp:129] Top shape: 64 116 8 8 (475136)
I0827 11:13:29.382907 14822 net.cpp:137] Memory required for data: 395496960
I0827 11:13:29.382915 14822 layer_factory.hpp:77] Creating layer branch5_2_conv2_scale
I0827 11:13:29.382920 14822 net.cpp:84] Creating Layer branch5_2_conv2_scale
I0827 11:13:29.382923 14822 net.cpp:406] branch5_2_conv2_scale <- branch5_2_conv2
I0827 11:13:29.382927 14822 net.cpp:367] branch5_2_conv2_scale -> branch5_2_conv2 (in-place)
I0827 11:13:29.382962 14822 layer_factory.hpp:77] Creating layer branch5_2_conv2_scale
I0827 11:13:29.383060 14822 net.cpp:122] Setting up branch5_2_conv2_scale
I0827 11:13:29.383069 14822 net.cpp:129] Top shape: 64 116 8 8 (475136)
I0827 11:13:29.383071 14822 net.cpp:137] Memory required for data: 397397504
I0827 11:13:29.383076 14822 layer_factory.hpp:77] Creating layer branch5_2_conv3
I0827 11:13:29.383085 14822 net.cpp:84] Creating Layer branch5_2_conv3
I0827 11:13:29.383087 14822 net.cpp:406] branch5_2_conv3 <- branch5_2_conv2
I0827 11:13:29.383093 14822 net.cpp:380] branch5_2_conv3 -> branch5_2_conv3
I0827 11:13:29.383401 14822 net.cpp:122] Setting up branch5_2_conv3
I0827 11:13:29.383410 14822 net.cpp:129] Top shape: 64 116 8 8 (475136)
I0827 11:13:29.383414 14822 net.cpp:137] Memory required for data: 399298048
I0827 11:13:29.383419 14822 layer_factory.hpp:77] Creating layer branch5_2_conv3_bn
I0827 11:13:29.383425 14822 net.cpp:84] Creating Layer branch5_2_conv3_bn
I0827 11:13:29.383430 14822 net.cpp:406] branch5_2_conv3_bn <- branch5_2_conv3
I0827 11:13:29.383435 14822 net.cpp:367] branch5_2_conv3_bn -> branch5_2_conv3 (in-place)
I0827 11:13:29.383610 14822 net.cpp:122] Setting up branch5_2_conv3_bn
I0827 11:13:29.383617 14822 net.cpp:129] Top shape: 64 116 8 8 (475136)
I0827 11:13:29.383620 14822 net.cpp:137] Memory required for data: 401198592
I0827 11:13:29.383627 14822 layer_factory.hpp:77] Creating layer branch5_2_conv3_scale
I0827 11:13:29.383635 14822 net.cpp:84] Creating Layer branch5_2_conv3_scale
I0827 11:13:29.383638 14822 net.cpp:406] branch5_2_conv3_scale <- branch5_2_conv3
I0827 11:13:29.383642 14822 net.cpp:367] branch5_2_conv3_scale -> branch5_2_conv3 (in-place)
I0827 11:13:29.383677 14822 layer_factory.hpp:77] Creating layer branch5_2_conv3_scale
I0827 11:13:29.383783 14822 net.cpp:122] Setting up branch5_2_conv3_scale
I0827 11:13:29.383791 14822 net.cpp:129] Top shape: 64 116 8 8 (475136)
I0827 11:13:29.383795 14822 net.cpp:137] Memory required for data: 403099136
I0827 11:13:29.383800 14822 layer_factory.hpp:77] Creating layer branch5_2_conv3_relu
I0827 11:13:29.383805 14822 net.cpp:84] Creating Layer branch5_2_conv3_relu
I0827 11:13:29.383807 14822 net.cpp:406] branch5_2_conv3_relu <- branch5_2_conv3
I0827 11:13:29.383813 14822 net.cpp:367] branch5_2_conv3_relu -> branch5_2_conv3 (in-place)
I0827 11:13:29.383818 14822 net.cpp:122] Setting up branch5_2_conv3_relu
I0827 11:13:29.383822 14822 net.cpp:129] Top shape: 64 116 8 8 (475136)
I0827 11:13:29.383826 14822 net.cpp:137] Memory required for data: 404999680
I0827 11:13:29.383828 14822 layer_factory.hpp:77] Creating layer concat5
I0827 11:13:29.383832 14822 net.cpp:84] Creating Layer concat5
I0827 11:13:29.383836 14822 net.cpp:406] concat5 <- branch5_1_conv2
I0827 11:13:29.383839 14822 net.cpp:406] concat5 <- branch5_2_conv3
I0827 11:13:29.383846 14822 net.cpp:380] concat5 -> concat5
I0827 11:13:29.383865 14822 net.cpp:122] Setting up concat5
I0827 11:13:29.383872 14822 net.cpp:129] Top shape: 64 232 8 8 (950272)
I0827 11:13:29.383874 14822 net.cpp:137] Memory required for data: 408800768
I0827 11:13:29.383877 14822 layer_factory.hpp:77] Creating layer shuffle5
I0827 11:13:29.383882 14822 net.cpp:84] Creating Layer shuffle5
I0827 11:13:29.383886 14822 net.cpp:406] shuffle5 <- concat5
I0827 11:13:29.383893 14822 net.cpp:380] shuffle5 -> shuffle5
I0827 11:13:29.383913 14822 net.cpp:122] Setting up shuffle5
I0827 11:13:29.383919 14822 net.cpp:129] Top shape: 64 232 8 8 (950272)
I0827 11:13:29.383921 14822 net.cpp:137] Memory required for data: 412601856
I0827 11:13:29.383924 14822 layer_factory.hpp:77] Creating layer slice6
I0827 11:13:29.383929 14822 net.cpp:84] Creating Layer slice6
I0827 11:13:29.383934 14822 net.cpp:406] slice6 <- shuffle5
I0827 11:13:29.383939 14822 net.cpp:380] slice6 -> branch6_1
I0827 11:13:29.383945 14822 net.cpp:380] slice6 -> branch6_2
I0827 11:13:29.383975 14822 net.cpp:122] Setting up slice6
I0827 11:13:29.383981 14822 net.cpp:129] Top shape: 64 116 8 8 (475136)
I0827 11:13:29.383985 14822 net.cpp:129] Top shape: 64 116 8 8 (475136)
I0827 11:13:29.383987 14822 net.cpp:137] Memory required for data: 416402944
I0827 11:13:29.383991 14822 layer_factory.hpp:77] Creating layer branch6_2_conv1
I0827 11:13:29.383999 14822 net.cpp:84] Creating Layer branch6_2_conv1
I0827 11:13:29.384002 14822 net.cpp:406] branch6_2_conv1 <- branch6_2
I0827 11:13:29.384007 14822 net.cpp:380] branch6_2_conv1 -> branch6_2_conv1
I0827 11:13:29.384317 14822 net.cpp:122] Setting up branch6_2_conv1
I0827 11:13:29.384327 14822 net.cpp:129] Top shape: 64 116 8 8 (475136)
I0827 11:13:29.384330 14822 net.cpp:137] Memory required for data: 418303488
I0827 11:13:29.384335 14822 layer_factory.hpp:77] Creating layer branch6_2_conv1_bn
I0827 11:13:29.384341 14822 net.cpp:84] Creating Layer branch6_2_conv1_bn
I0827 11:13:29.384346 14822 net.cpp:406] branch6_2_conv1_bn <- branch6_2_conv1
I0827 11:13:29.384349 14822 net.cpp:367] branch6_2_conv1_bn -> branch6_2_conv1 (in-place)
I0827 11:13:29.384549 14822 net.cpp:122] Setting up branch6_2_conv1_bn
I0827 11:13:29.384557 14822 net.cpp:129] Top shape: 64 116 8 8 (475136)
I0827 11:13:29.384559 14822 net.cpp:137] Memory required for data: 420204032
I0827 11:13:29.384567 14822 layer_factory.hpp:77] Creating layer branch6_2_conv1_scale
I0827 11:13:29.384573 14822 net.cpp:84] Creating Layer branch6_2_conv1_scale
I0827 11:13:29.384577 14822 net.cpp:406] branch6_2_conv1_scale <- branch6_2_conv1
I0827 11:13:29.384582 14822 net.cpp:367] branch6_2_conv1_scale -> branch6_2_conv1 (in-place)
I0827 11:13:29.384615 14822 layer_factory.hpp:77] Creating layer branch6_2_conv1_scale
I0827 11:13:29.384730 14822 net.cpp:122] Setting up branch6_2_conv1_scale
I0827 11:13:29.384738 14822 net.cpp:129] Top shape: 64 116 8 8 (475136)
I0827 11:13:29.384742 14822 net.cpp:137] Memory required for data: 422104576
I0827 11:13:29.384747 14822 layer_factory.hpp:77] Creating layer branch6_2_conv1_relu
I0827 11:13:29.384754 14822 net.cpp:84] Creating Layer branch6_2_conv1_relu
I0827 11:13:29.384757 14822 net.cpp:406] branch6_2_conv1_relu <- branch6_2_conv1
I0827 11:13:29.384763 14822 net.cpp:367] branch6_2_conv1_relu -> branch6_2_conv1 (in-place)
I0827 11:13:29.384768 14822 net.cpp:122] Setting up branch6_2_conv1_relu
I0827 11:13:29.384773 14822 net.cpp:129] Top shape: 64 116 8 8 (475136)
I0827 11:13:29.384775 14822 net.cpp:137] Memory required for data: 424005120
I0827 11:13:29.384778 14822 layer_factory.hpp:77] Creating layer branch6_2_conv2
I0827 11:13:29.384784 14822 net.cpp:84] Creating Layer branch6_2_conv2
I0827 11:13:29.384788 14822 net.cpp:406] branch6_2_conv2 <- branch6_2_conv1
I0827 11:13:29.384794 14822 net.cpp:380] branch6_2_conv2 -> branch6_2_conv2
I0827 11:13:29.384979 14822 net.cpp:122] Setting up branch6_2_conv2
I0827 11:13:29.384986 14822 net.cpp:129] Top shape: 64 116 8 8 (475136)
I0827 11:13:29.384989 14822 net.cpp:137] Memory required for data: 425905664
I0827 11:13:29.384994 14822 layer_factory.hpp:77] Creating layer branch6_2_conv2_bn
I0827 11:13:29.384999 14822 net.cpp:84] Creating Layer branch6_2_conv2_bn
I0827 11:13:29.385002 14822 net.cpp:406] branch6_2_conv2_bn <- branch6_2_conv2
I0827 11:13:29.385008 14822 net.cpp:367] branch6_2_conv2_bn -> branch6_2_conv2 (in-place)
I0827 11:13:29.385185 14822 net.cpp:122] Setting up branch6_2_conv2_bn
I0827 11:13:29.385192 14822 net.cpp:129] Top shape: 64 116 8 8 (475136)
I0827 11:13:29.385195 14822 net.cpp:137] Memory required for data: 427806208
I0827 11:13:29.385215 14822 layer_factory.hpp:77] Creating layer branch6_2_conv2_scale
I0827 11:13:29.385221 14822 net.cpp:84] Creating Layer branch6_2_conv2_scale
I0827 11:13:29.385224 14822 net.cpp:406] branch6_2_conv2_scale <- branch6_2_conv2
I0827 11:13:29.385229 14822 net.cpp:367] branch6_2_conv2_scale -> branch6_2_conv2 (in-place)
I0827 11:13:29.385267 14822 layer_factory.hpp:77] Creating layer branch6_2_conv2_scale
I0827 11:13:29.385377 14822 net.cpp:122] Setting up branch6_2_conv2_scale
I0827 11:13:29.385385 14822 net.cpp:129] Top shape: 64 116 8 8 (475136)
I0827 11:13:29.385388 14822 net.cpp:137] Memory required for data: 429706752
I0827 11:13:29.385393 14822 layer_factory.hpp:77] Creating layer branch6_2_conv3
I0827 11:13:29.385402 14822 net.cpp:84] Creating Layer branch6_2_conv3
I0827 11:13:29.385406 14822 net.cpp:406] branch6_2_conv3 <- branch6_2_conv2
I0827 11:13:29.385413 14822 net.cpp:380] branch6_2_conv3 -> branch6_2_conv3
I0827 11:13:29.385728 14822 net.cpp:122] Setting up branch6_2_conv3
I0827 11:13:29.385737 14822 net.cpp:129] Top shape: 64 116 8 8 (475136)
I0827 11:13:29.385740 14822 net.cpp:137] Memory required for data: 431607296
I0827 11:13:29.385744 14822 layer_factory.hpp:77] Creating layer branch6_2_conv3_bn
I0827 11:13:29.385751 14822 net.cpp:84] Creating Layer branch6_2_conv3_bn
I0827 11:13:29.385753 14822 net.cpp:406] branch6_2_conv3_bn <- branch6_2_conv3
I0827 11:13:29.385757 14822 net.cpp:367] branch6_2_conv3_bn -> branch6_2_conv3 (in-place)
I0827 11:13:29.385941 14822 net.cpp:122] Setting up branch6_2_conv3_bn
I0827 11:13:29.385948 14822 net.cpp:129] Top shape: 64 116 8 8 (475136)
I0827 11:13:29.385951 14822 net.cpp:137] Memory required for data: 433507840
I0827 11:13:29.385958 14822 layer_factory.hpp:77] Creating layer branch6_2_conv3_scale
I0827 11:13:29.385965 14822 net.cpp:84] Creating Layer branch6_2_conv3_scale
I0827 11:13:29.385968 14822 net.cpp:406] branch6_2_conv3_scale <- branch6_2_conv3
I0827 11:13:29.385973 14822 net.cpp:367] branch6_2_conv3_scale -> branch6_2_conv3 (in-place)
I0827 11:13:29.386008 14822 layer_factory.hpp:77] Creating layer branch6_2_conv3_scale
I0827 11:13:29.386116 14822 net.cpp:122] Setting up branch6_2_conv3_scale
I0827 11:13:29.386124 14822 net.cpp:129] Top shape: 64 116 8 8 (475136)
I0827 11:13:29.386127 14822 net.cpp:137] Memory required for data: 435408384
I0827 11:13:29.386132 14822 layer_factory.hpp:77] Creating layer branch6_2_conv3_relu
I0827 11:13:29.386138 14822 net.cpp:84] Creating Layer branch6_2_conv3_relu
I0827 11:13:29.386142 14822 net.cpp:406] branch6_2_conv3_relu <- branch6_2_conv3
I0827 11:13:29.386147 14822 net.cpp:367] branch6_2_conv3_relu -> branch6_2_conv3 (in-place)
I0827 11:13:29.386152 14822 net.cpp:122] Setting up branch6_2_conv3_relu
I0827 11:13:29.386155 14822 net.cpp:129] Top shape: 64 116 8 8 (475136)
I0827 11:13:29.386157 14822 net.cpp:137] Memory required for data: 437308928
I0827 11:13:29.386160 14822 layer_factory.hpp:77] Creating layer concat6
I0827 11:13:29.386164 14822 net.cpp:84] Creating Layer concat6
I0827 11:13:29.386168 14822 net.cpp:406] concat6 <- branch6_1
I0827 11:13:29.386171 14822 net.cpp:406] concat6 <- branch6_2_conv3
I0827 11:13:29.386179 14822 net.cpp:380] concat6 -> concat6
I0827 11:13:29.386199 14822 net.cpp:122] Setting up concat6
I0827 11:13:29.386205 14822 net.cpp:129] Top shape: 64 232 8 8 (950272)
I0827 11:13:29.386209 14822 net.cpp:137] Memory required for data: 441110016
I0827 11:13:29.386211 14822 layer_factory.hpp:77] Creating layer shuffle6
I0827 11:13:29.386219 14822 net.cpp:84] Creating Layer shuffle6
I0827 11:13:29.386221 14822 net.cpp:406] shuffle6 <- concat6
I0827 11:13:29.386226 14822 net.cpp:380] shuffle6 -> shuffle6
I0827 11:13:29.386245 14822 net.cpp:122] Setting up shuffle6
I0827 11:13:29.386252 14822 net.cpp:129] Top shape: 64 232 8 8 (950272)
I0827 11:13:29.386255 14822 net.cpp:137] Memory required for data: 444911104
I0827 11:13:29.386258 14822 layer_factory.hpp:77] Creating layer slice7
I0827 11:13:29.386263 14822 net.cpp:84] Creating Layer slice7
I0827 11:13:29.386266 14822 net.cpp:406] slice7 <- shuffle6
I0827 11:13:29.386273 14822 net.cpp:380] slice7 -> branch7_1
I0827 11:13:29.386279 14822 net.cpp:380] slice7 -> branch7_2
I0827 11:13:29.386310 14822 net.cpp:122] Setting up slice7
I0827 11:13:29.386317 14822 net.cpp:129] Top shape: 64 116 8 8 (475136)
I0827 11:13:29.386322 14822 net.cpp:129] Top shape: 64 116 8 8 (475136)
I0827 11:13:29.386324 14822 net.cpp:137] Memory required for data: 448712192
I0827 11:13:29.386327 14822 layer_factory.hpp:77] Creating layer branch7_2_conv1
I0827 11:13:29.386334 14822 net.cpp:84] Creating Layer branch7_2_conv1
I0827 11:13:29.386337 14822 net.cpp:406] branch7_2_conv1 <- branch7_2
I0827 11:13:29.386343 14822 net.cpp:380] branch7_2_conv1 -> branch7_2_conv1
I0827 11:13:29.386647 14822 net.cpp:122] Setting up branch7_2_conv1
I0827 11:13:29.386656 14822 net.cpp:129] Top shape: 64 116 8 8 (475136)
I0827 11:13:29.386659 14822 net.cpp:137] Memory required for data: 450612736
I0827 11:13:29.386663 14822 layer_factory.hpp:77] Creating layer branch7_2_conv1_bn
I0827 11:13:29.386669 14822 net.cpp:84] Creating Layer branch7_2_conv1_bn
I0827 11:13:29.386672 14822 net.cpp:406] branch7_2_conv1_bn <- branch7_2_conv1
I0827 11:13:29.386678 14822 net.cpp:367] branch7_2_conv1_bn -> branch7_2_conv1 (in-place)
I0827 11:13:29.386854 14822 net.cpp:122] Setting up branch7_2_conv1_bn
I0827 11:13:29.386862 14822 net.cpp:129] Top shape: 64 116 8 8 (475136)
I0827 11:13:29.386865 14822 net.cpp:137] Memory required for data: 452513280
I0827 11:13:29.386871 14822 layer_factory.hpp:77] Creating layer branch7_2_conv1_scale
I0827 11:13:29.386878 14822 net.cpp:84] Creating Layer branch7_2_conv1_scale
I0827 11:13:29.386880 14822 net.cpp:406] branch7_2_conv1_scale <- branch7_2_conv1
I0827 11:13:29.386884 14822 net.cpp:367] branch7_2_conv1_scale -> branch7_2_conv1 (in-place)
I0827 11:13:29.386922 14822 layer_factory.hpp:77] Creating layer branch7_2_conv1_scale
I0827 11:13:29.387032 14822 net.cpp:122] Setting up branch7_2_conv1_scale
I0827 11:13:29.387038 14822 net.cpp:129] Top shape: 64 116 8 8 (475136)
I0827 11:13:29.387042 14822 net.cpp:137] Memory required for data: 454413824
I0827 11:13:29.387048 14822 layer_factory.hpp:77] Creating layer branch7_2_conv1_relu
I0827 11:13:29.387051 14822 net.cpp:84] Creating Layer branch7_2_conv1_relu
I0827 11:13:29.387055 14822 net.cpp:406] branch7_2_conv1_relu <- branch7_2_conv1
I0827 11:13:29.387061 14822 net.cpp:367] branch7_2_conv1_relu -> branch7_2_conv1 (in-place)
I0827 11:13:29.387065 14822 net.cpp:122] Setting up branch7_2_conv1_relu
I0827 11:13:29.387070 14822 net.cpp:129] Top shape: 64 116 8 8 (475136)
I0827 11:13:29.387073 14822 net.cpp:137] Memory required for data: 456314368
I0827 11:13:29.387075 14822 layer_factory.hpp:77] Creating layer branch7_2_conv2
I0827 11:13:29.387080 14822 net.cpp:84] Creating Layer branch7_2_conv2
I0827 11:13:29.387084 14822 net.cpp:406] branch7_2_conv2 <- branch7_2_conv1
I0827 11:13:29.387090 14822 net.cpp:380] branch7_2_conv2 -> branch7_2_conv2
I0827 11:13:29.387274 14822 net.cpp:122] Setting up branch7_2_conv2
I0827 11:13:29.387284 14822 net.cpp:129] Top shape: 64 116 8 8 (475136)
I0827 11:13:29.387286 14822 net.cpp:137] Memory required for data: 458214912
I0827 11:13:29.387290 14822 layer_factory.hpp:77] Creating layer branch7_2_conv2_bn
I0827 11:13:29.387298 14822 net.cpp:84] Creating Layer branch7_2_conv2_bn
I0827 11:13:29.387301 14822 net.cpp:406] branch7_2_conv2_bn <- branch7_2_conv2
I0827 11:13:29.387306 14822 net.cpp:367] branch7_2_conv2_bn -> branch7_2_conv2 (in-place)
I0827 11:13:29.387485 14822 net.cpp:122] Setting up branch7_2_conv2_bn
I0827 11:13:29.387493 14822 net.cpp:129] Top shape: 64 116 8 8 (475136)
I0827 11:13:29.387495 14822 net.cpp:137] Memory required for data: 460115456
I0827 11:13:29.387502 14822 layer_factory.hpp:77] Creating layer branch7_2_conv2_scale
I0827 11:13:29.387507 14822 net.cpp:84] Creating Layer branch7_2_conv2_scale
I0827 11:13:29.387511 14822 net.cpp:406] branch7_2_conv2_scale <- branch7_2_conv2
I0827 11:13:29.387517 14822 net.cpp:367] branch7_2_conv2_scale -> branch7_2_conv2 (in-place)
I0827 11:13:29.387550 14822 layer_factory.hpp:77] Creating layer branch7_2_conv2_scale
I0827 11:13:29.387660 14822 net.cpp:122] Setting up branch7_2_conv2_scale
I0827 11:13:29.387666 14822 net.cpp:129] Top shape: 64 116 8 8 (475136)
I0827 11:13:29.387670 14822 net.cpp:137] Memory required for data: 462016000
I0827 11:13:29.387675 14822 layer_factory.hpp:77] Creating layer branch7_2_conv3
I0827 11:13:29.387683 14822 net.cpp:84] Creating Layer branch7_2_conv3
I0827 11:13:29.387686 14822 net.cpp:406] branch7_2_conv3 <- branch7_2_conv2
I0827 11:13:29.387691 14822 net.cpp:380] branch7_2_conv3 -> branch7_2_conv3
I0827 11:13:29.388000 14822 net.cpp:122] Setting up branch7_2_conv3
I0827 11:13:29.388008 14822 net.cpp:129] Top shape: 64 116 8 8 (475136)
I0827 11:13:29.388011 14822 net.cpp:137] Memory required for data: 463916544
I0827 11:13:29.388015 14822 layer_factory.hpp:77] Creating layer branch7_2_conv3_bn
I0827 11:13:29.388022 14822 net.cpp:84] Creating Layer branch7_2_conv3_bn
I0827 11:13:29.388026 14822 net.cpp:406] branch7_2_conv3_bn <- branch7_2_conv3
I0827 11:13:29.388031 14822 net.cpp:367] branch7_2_conv3_bn -> branch7_2_conv3 (in-place)
I0827 11:13:29.388217 14822 net.cpp:122] Setting up branch7_2_conv3_bn
I0827 11:13:29.388226 14822 net.cpp:129] Top shape: 64 116 8 8 (475136)
I0827 11:13:29.388229 14822 net.cpp:137] Memory required for data: 465817088
I0827 11:13:29.388236 14822 layer_factory.hpp:77] Creating layer branch7_2_conv3_scale
I0827 11:13:29.388242 14822 net.cpp:84] Creating Layer branch7_2_conv3_scale
I0827 11:13:29.388245 14822 net.cpp:406] branch7_2_conv3_scale <- branch7_2_conv3
I0827 11:13:29.388252 14822 net.cpp:367] branch7_2_conv3_scale -> branch7_2_conv3 (in-place)
I0827 11:13:29.388284 14822 layer_factory.hpp:77] Creating layer branch7_2_conv3_scale
I0827 11:13:29.388392 14822 net.cpp:122] Setting up branch7_2_conv3_scale
I0827 11:13:29.388399 14822 net.cpp:129] Top shape: 64 116 8 8 (475136)
I0827 11:13:29.388402 14822 net.cpp:137] Memory required for data: 467717632
I0827 11:13:29.388407 14822 layer_factory.hpp:77] Creating layer branch7_2_conv3_relu
I0827 11:13:29.388412 14822 net.cpp:84] Creating Layer branch7_2_conv3_relu
I0827 11:13:29.388415 14822 net.cpp:406] branch7_2_conv3_relu <- branch7_2_conv3
I0827 11:13:29.388422 14822 net.cpp:367] branch7_2_conv3_relu -> branch7_2_conv3 (in-place)
I0827 11:13:29.388427 14822 net.cpp:122] Setting up branch7_2_conv3_relu
I0827 11:13:29.388432 14822 net.cpp:129] Top shape: 64 116 8 8 (475136)
I0827 11:13:29.388434 14822 net.cpp:137] Memory required for data: 469618176
I0827 11:13:29.388437 14822 layer_factory.hpp:77] Creating layer concat7
I0827 11:13:29.388442 14822 net.cpp:84] Creating Layer concat7
I0827 11:13:29.388444 14822 net.cpp:406] concat7 <- branch7_1
I0827 11:13:29.388448 14822 net.cpp:406] concat7 <- branch7_2_conv3
I0827 11:13:29.388453 14822 net.cpp:380] concat7 -> concat7
I0827 11:13:29.388474 14822 net.cpp:122] Setting up concat7
I0827 11:13:29.388481 14822 net.cpp:129] Top shape: 64 232 8 8 (950272)
I0827 11:13:29.388484 14822 net.cpp:137] Memory required for data: 473419264
I0827 11:13:29.388486 14822 layer_factory.hpp:77] Creating layer shuffle7
I0827 11:13:29.388491 14822 net.cpp:84] Creating Layer shuffle7
I0827 11:13:29.388495 14822 net.cpp:406] shuffle7 <- concat7
I0827 11:13:29.388501 14822 net.cpp:380] shuffle7 -> shuffle7
I0827 11:13:29.388520 14822 net.cpp:122] Setting up shuffle7
I0827 11:13:29.388527 14822 net.cpp:129] Top shape: 64 232 8 8 (950272)
I0827 11:13:29.388530 14822 net.cpp:137] Memory required for data: 477220352
I0827 11:13:29.388533 14822 layer_factory.hpp:77] Creating layer slice8
I0827 11:13:29.388538 14822 net.cpp:84] Creating Layer slice8
I0827 11:13:29.388541 14822 net.cpp:406] slice8 <- shuffle7
I0827 11:13:29.388546 14822 net.cpp:380] slice8 -> branch8_1
I0827 11:13:29.388556 14822 net.cpp:380] slice8 -> branch8_2
I0827 11:13:29.388587 14822 net.cpp:122] Setting up slice8
I0827 11:13:29.388594 14822 net.cpp:129] Top shape: 64 116 8 8 (475136)
I0827 11:13:29.388598 14822 net.cpp:129] Top shape: 64 116 8 8 (475136)
I0827 11:13:29.388602 14822 net.cpp:137] Memory required for data: 481021440
I0827 11:13:29.388604 14822 layer_factory.hpp:77] Creating layer branch8_2_conv1
I0827 11:13:29.388613 14822 net.cpp:84] Creating Layer branch8_2_conv1
I0827 11:13:29.388617 14822 net.cpp:406] branch8_2_conv1 <- branch8_2
I0827 11:13:29.388623 14822 net.cpp:380] branch8_2_conv1 -> branch8_2_conv1
I0827 11:13:29.388933 14822 net.cpp:122] Setting up branch8_2_conv1
I0827 11:13:29.388942 14822 net.cpp:129] Top shape: 64 116 8 8 (475136)
I0827 11:13:29.388944 14822 net.cpp:137] Memory required for data: 482921984
I0827 11:13:29.388949 14822 layer_factory.hpp:77] Creating layer branch8_2_conv1_bn
I0827 11:13:29.388955 14822 net.cpp:84] Creating Layer branch8_2_conv1_bn
I0827 11:13:29.388958 14822 net.cpp:406] branch8_2_conv1_bn <- branch8_2_conv1
I0827 11:13:29.388962 14822 net.cpp:367] branch8_2_conv1_bn -> branch8_2_conv1 (in-place)
I0827 11:13:29.389137 14822 net.cpp:122] Setting up branch8_2_conv1_bn
I0827 11:13:29.389145 14822 net.cpp:129] Top shape: 64 116 8 8 (475136)
I0827 11:13:29.389147 14822 net.cpp:137] Memory required for data: 484822528
I0827 11:13:29.389154 14822 layer_factory.hpp:77] Creating layer branch8_2_conv1_scale
I0827 11:13:29.389161 14822 net.cpp:84] Creating Layer branch8_2_conv1_scale
I0827 11:13:29.389165 14822 net.cpp:406] branch8_2_conv1_scale <- branch8_2_conv1
I0827 11:13:29.389169 14822 net.cpp:367] branch8_2_conv1_scale -> branch8_2_conv1 (in-place)
I0827 11:13:29.389204 14822 layer_factory.hpp:77] Creating layer branch8_2_conv1_scale
I0827 11:13:29.389317 14822 net.cpp:122] Setting up branch8_2_conv1_scale
I0827 11:13:29.389325 14822 net.cpp:129] Top shape: 64 116 8 8 (475136)
I0827 11:13:29.389328 14822 net.cpp:137] Memory required for data: 486723072
I0827 11:13:29.389333 14822 layer_factory.hpp:77] Creating layer branch8_2_conv1_relu
I0827 11:13:29.389340 14822 net.cpp:84] Creating Layer branch8_2_conv1_relu
I0827 11:13:29.389343 14822 net.cpp:406] branch8_2_conv1_relu <- branch8_2_conv1
I0827 11:13:29.389348 14822 net.cpp:367] branch8_2_conv1_relu -> branch8_2_conv1 (in-place)
I0827 11:13:29.389353 14822 net.cpp:122] Setting up branch8_2_conv1_relu
I0827 11:13:29.389358 14822 net.cpp:129] Top shape: 64 116 8 8 (475136)
I0827 11:13:29.389359 14822 net.cpp:137] Memory required for data: 488623616
I0827 11:13:29.389362 14822 layer_factory.hpp:77] Creating layer branch8_2_conv2
I0827 11:13:29.389369 14822 net.cpp:84] Creating Layer branch8_2_conv2
I0827 11:13:29.389372 14822 net.cpp:406] branch8_2_conv2 <- branch8_2_conv1
I0827 11:13:29.389377 14822 net.cpp:380] branch8_2_conv2 -> branch8_2_conv2
I0827 11:13:29.389556 14822 net.cpp:122] Setting up branch8_2_conv2
I0827 11:13:29.389564 14822 net.cpp:129] Top shape: 64 116 8 8 (475136)
I0827 11:13:29.389567 14822 net.cpp:137] Memory required for data: 490524160
I0827 11:13:29.389572 14822 layer_factory.hpp:77] Creating layer branch8_2_conv2_bn
I0827 11:13:29.389577 14822 net.cpp:84] Creating Layer branch8_2_conv2_bn
I0827 11:13:29.389580 14822 net.cpp:406] branch8_2_conv2_bn <- branch8_2_conv2
I0827 11:13:29.389586 14822 net.cpp:367] branch8_2_conv2_bn -> branch8_2_conv2 (in-place)
I0827 11:13:29.389765 14822 net.cpp:122] Setting up branch8_2_conv2_bn
I0827 11:13:29.389772 14822 net.cpp:129] Top shape: 64 116 8 8 (475136)
I0827 11:13:29.389775 14822 net.cpp:137] Memory required for data: 492424704
I0827 11:13:29.389782 14822 layer_factory.hpp:77] Creating layer branch8_2_conv2_scale
I0827 11:13:29.389787 14822 net.cpp:84] Creating Layer branch8_2_conv2_scale
I0827 11:13:29.389791 14822 net.cpp:406] branch8_2_conv2_scale <- branch8_2_conv2
I0827 11:13:29.389796 14822 net.cpp:367] branch8_2_conv2_scale -> branch8_2_conv2 (in-place)
I0827 11:13:29.389832 14822 layer_factory.hpp:77] Creating layer branch8_2_conv2_scale
I0827 11:13:29.389942 14822 net.cpp:122] Setting up branch8_2_conv2_scale
I0827 11:13:29.389951 14822 net.cpp:129] Top shape: 64 116 8 8 (475136)
I0827 11:13:29.389955 14822 net.cpp:137] Memory required for data: 494325248
I0827 11:13:29.389959 14822 layer_factory.hpp:77] Creating layer branch8_2_conv3
I0827 11:13:29.389968 14822 net.cpp:84] Creating Layer branch8_2_conv3
I0827 11:13:29.389971 14822 net.cpp:406] branch8_2_conv3 <- branch8_2_conv2
I0827 11:13:29.389977 14822 net.cpp:380] branch8_2_conv3 -> branch8_2_conv3
I0827 11:13:29.390288 14822 net.cpp:122] Setting up branch8_2_conv3
I0827 11:13:29.390296 14822 net.cpp:129] Top shape: 64 116 8 8 (475136)
I0827 11:13:29.390300 14822 net.cpp:137] Memory required for data: 496225792
I0827 11:13:29.390305 14822 layer_factory.hpp:77] Creating layer branch8_2_conv3_bn
I0827 11:13:29.390309 14822 net.cpp:84] Creating Layer branch8_2_conv3_bn
I0827 11:13:29.390313 14822 net.cpp:406] branch8_2_conv3_bn <- branch8_2_conv3
I0827 11:13:29.390319 14822 net.cpp:367] branch8_2_conv3_bn -> branch8_2_conv3 (in-place)
I0827 11:13:29.390496 14822 net.cpp:122] Setting up branch8_2_conv3_bn
I0827 11:13:29.390504 14822 net.cpp:129] Top shape: 64 116 8 8 (475136)
I0827 11:13:29.390507 14822 net.cpp:137] Memory required for data: 498126336
I0827 11:13:29.390514 14822 layer_factory.hpp:77] Creating layer branch8_2_conv3_scale
I0827 11:13:29.390537 14822 net.cpp:84] Creating Layer branch8_2_conv3_scale
I0827 11:13:29.390542 14822 net.cpp:406] branch8_2_conv3_scale <- branch8_2_conv3
I0827 11:13:29.390547 14822 net.cpp:367] branch8_2_conv3_scale -> branch8_2_conv3 (in-place)
I0827 11:13:29.390580 14822 layer_factory.hpp:77] Creating layer branch8_2_conv3_scale
I0827 11:13:29.390691 14822 net.cpp:122] Setting up branch8_2_conv3_scale
I0827 11:13:29.390699 14822 net.cpp:129] Top shape: 64 116 8 8 (475136)
I0827 11:13:29.390702 14822 net.cpp:137] Memory required for data: 500026880
I0827 11:13:29.390708 14822 layer_factory.hpp:77] Creating layer branch8_2_conv3_relu
I0827 11:13:29.390713 14822 net.cpp:84] Creating Layer branch8_2_conv3_relu
I0827 11:13:29.390717 14822 net.cpp:406] branch8_2_conv3_relu <- branch8_2_conv3
I0827 11:13:29.390722 14822 net.cpp:367] branch8_2_conv3_relu -> branch8_2_conv3 (in-place)
I0827 11:13:29.390727 14822 net.cpp:122] Setting up branch8_2_conv3_relu
I0827 11:13:29.390733 14822 net.cpp:129] Top shape: 64 116 8 8 (475136)
I0827 11:13:29.390734 14822 net.cpp:137] Memory required for data: 501927424
I0827 11:13:29.390738 14822 layer_factory.hpp:77] Creating layer concat8
I0827 11:13:29.390743 14822 net.cpp:84] Creating Layer concat8
I0827 11:13:29.390745 14822 net.cpp:406] concat8 <- branch8_1
I0827 11:13:29.390748 14822 net.cpp:406] concat8 <- branch8_2_conv3
I0827 11:13:29.390753 14822 net.cpp:380] concat8 -> concat8
I0827 11:13:29.390774 14822 net.cpp:122] Setting up concat8
I0827 11:13:29.390779 14822 net.cpp:129] Top shape: 64 232 8 8 (950272)
I0827 11:13:29.390782 14822 net.cpp:137] Memory required for data: 505728512
I0827 11:13:29.390785 14822 layer_factory.hpp:77] Creating layer shuffle8
I0827 11:13:29.390792 14822 net.cpp:84] Creating Layer shuffle8
I0827 11:13:29.390795 14822 net.cpp:406] shuffle8 <- concat8
I0827 11:13:29.390800 14822 net.cpp:380] shuffle8 -> shuffle8
I0827 11:13:29.390821 14822 net.cpp:122] Setting up shuffle8
I0827 11:13:29.390828 14822 net.cpp:129] Top shape: 64 232 8 8 (950272)
I0827 11:13:29.390831 14822 net.cpp:137] Memory required for data: 509529600
I0827 11:13:29.390835 14822 layer_factory.hpp:77] Creating layer slice9
I0827 11:13:29.390839 14822 net.cpp:84] Creating Layer slice9
I0827 11:13:29.390842 14822 net.cpp:406] slice9 <- shuffle8
I0827 11:13:29.390848 14822 net.cpp:380] slice9 -> branch9_1
I0827 11:13:29.390862 14822 net.cpp:380] slice9 -> branch9_2
I0827 11:13:29.390893 14822 net.cpp:122] Setting up slice9
I0827 11:13:29.390902 14822 net.cpp:129] Top shape: 64 116 8 8 (475136)
I0827 11:13:29.390905 14822 net.cpp:129] Top shape: 64 116 8 8 (475136)
I0827 11:13:29.390908 14822 net.cpp:137] Memory required for data: 513330688
I0827 11:13:29.390910 14822 layer_factory.hpp:77] Creating layer branch9_2_conv1
I0827 11:13:29.390919 14822 net.cpp:84] Creating Layer branch9_2_conv1
I0827 11:13:29.390923 14822 net.cpp:406] branch9_2_conv1 <- branch9_2
I0827 11:13:29.390929 14822 net.cpp:380] branch9_2_conv1 -> branch9_2_conv1
I0827 11:13:29.391238 14822 net.cpp:122] Setting up branch9_2_conv1
I0827 11:13:29.391247 14822 net.cpp:129] Top shape: 64 116 8 8 (475136)
I0827 11:13:29.391250 14822 net.cpp:137] Memory required for data: 515231232
I0827 11:13:29.391254 14822 layer_factory.hpp:77] Creating layer branch9_2_conv1_bn
I0827 11:13:29.391260 14822 net.cpp:84] Creating Layer branch9_2_conv1_bn
I0827 11:13:29.391264 14822 net.cpp:406] branch9_2_conv1_bn <- branch9_2_conv1
I0827 11:13:29.391268 14822 net.cpp:367] branch9_2_conv1_bn -> branch9_2_conv1 (in-place)
I0827 11:13:29.391446 14822 net.cpp:122] Setting up branch9_2_conv1_bn
I0827 11:13:29.391454 14822 net.cpp:129] Top shape: 64 116 8 8 (475136)
I0827 11:13:29.391458 14822 net.cpp:137] Memory required for data: 517131776
I0827 11:13:29.391464 14822 layer_factory.hpp:77] Creating layer branch9_2_conv1_scale
I0827 11:13:29.391471 14822 net.cpp:84] Creating Layer branch9_2_conv1_scale
I0827 11:13:29.391474 14822 net.cpp:406] branch9_2_conv1_scale <- branch9_2_conv1
I0827 11:13:29.391479 14822 net.cpp:367] branch9_2_conv1_scale -> branch9_2_conv1 (in-place)
I0827 11:13:29.391515 14822 layer_factory.hpp:77] Creating layer branch9_2_conv1_scale
I0827 11:13:29.391623 14822 net.cpp:122] Setting up branch9_2_conv1_scale
I0827 11:13:29.391630 14822 net.cpp:129] Top shape: 64 116 8 8 (475136)
I0827 11:13:29.391633 14822 net.cpp:137] Memory required for data: 519032320
I0827 11:13:29.391638 14822 layer_factory.hpp:77] Creating layer branch9_2_conv1_relu
I0827 11:13:29.391649 14822 net.cpp:84] Creating Layer branch9_2_conv1_relu
I0827 11:13:29.391651 14822 net.cpp:406] branch9_2_conv1_relu <- branch9_2_conv1
I0827 11:13:29.391655 14822 net.cpp:367] branch9_2_conv1_relu -> branch9_2_conv1 (in-place)
I0827 11:13:29.391660 14822 net.cpp:122] Setting up branch9_2_conv1_relu
I0827 11:13:29.391664 14822 net.cpp:129] Top shape: 64 116 8 8 (475136)
I0827 11:13:29.391667 14822 net.cpp:137] Memory required for data: 520932864
I0827 11:13:29.391669 14822 layer_factory.hpp:77] Creating layer branch9_2_conv2
I0827 11:13:29.391677 14822 net.cpp:84] Creating Layer branch9_2_conv2
I0827 11:13:29.391681 14822 net.cpp:406] branch9_2_conv2 <- branch9_2_conv1
I0827 11:13:29.391686 14822 net.cpp:380] branch9_2_conv2 -> branch9_2_conv2
I0827 11:13:29.391865 14822 net.cpp:122] Setting up branch9_2_conv2
I0827 11:13:29.391872 14822 net.cpp:129] Top shape: 64 116 8 8 (475136)
I0827 11:13:29.391875 14822 net.cpp:137] Memory required for data: 522833408
I0827 11:13:29.391880 14822 layer_factory.hpp:77] Creating layer branch9_2_conv2_bn
I0827 11:13:29.391885 14822 net.cpp:84] Creating Layer branch9_2_conv2_bn
I0827 11:13:29.391889 14822 net.cpp:406] branch9_2_conv2_bn <- branch9_2_conv2
I0827 11:13:29.391896 14822 net.cpp:367] branch9_2_conv2_bn -> branch9_2_conv2 (in-place)
I0827 11:13:29.392071 14822 net.cpp:122] Setting up branch9_2_conv2_bn
I0827 11:13:29.392078 14822 net.cpp:129] Top shape: 64 116 8 8 (475136)
I0827 11:13:29.392081 14822 net.cpp:137] Memory required for data: 524733952
I0827 11:13:29.392088 14822 layer_factory.hpp:77] Creating layer branch9_2_conv2_scale
I0827 11:13:29.392093 14822 net.cpp:84] Creating Layer branch9_2_conv2_scale
I0827 11:13:29.392096 14822 net.cpp:406] branch9_2_conv2_scale <- branch9_2_conv2
I0827 11:13:29.392102 14822 net.cpp:367] branch9_2_conv2_scale -> branch9_2_conv2 (in-place)
I0827 11:13:29.392141 14822 layer_factory.hpp:77] Creating layer branch9_2_conv2_scale
I0827 11:13:29.392256 14822 net.cpp:122] Setting up branch9_2_conv2_scale
I0827 11:13:29.392263 14822 net.cpp:129] Top shape: 64 116 8 8 (475136)
I0827 11:13:29.392266 14822 net.cpp:137] Memory required for data: 526634496
I0827 11:13:29.392271 14822 layer_factory.hpp:77] Creating layer branch9_2_conv3
I0827 11:13:29.392280 14822 net.cpp:84] Creating Layer branch9_2_conv3
I0827 11:13:29.392284 14822 net.cpp:406] branch9_2_conv3 <- branch9_2_conv2
I0827 11:13:29.392289 14822 net.cpp:380] branch9_2_conv3 -> branch9_2_conv3
I0827 11:13:29.392603 14822 net.cpp:122] Setting up branch9_2_conv3
I0827 11:13:29.392612 14822 net.cpp:129] Top shape: 64 116 8 8 (475136)
I0827 11:13:29.392616 14822 net.cpp:137] Memory required for data: 528535040
I0827 11:13:29.392619 14822 layer_factory.hpp:77] Creating layer branch9_2_conv3_bn
I0827 11:13:29.392624 14822 net.cpp:84] Creating Layer branch9_2_conv3_bn
I0827 11:13:29.392628 14822 net.cpp:406] branch9_2_conv3_bn <- branch9_2_conv3
I0827 11:13:29.392634 14822 net.cpp:367] branch9_2_conv3_bn -> branch9_2_conv3 (in-place)
I0827 11:13:29.392814 14822 net.cpp:122] Setting up branch9_2_conv3_bn
I0827 11:13:29.392822 14822 net.cpp:129] Top shape: 64 116 8 8 (475136)
I0827 11:13:29.392825 14822 net.cpp:137] Memory required for data: 530435584
I0827 11:13:29.392832 14822 layer_factory.hpp:77] Creating layer branch9_2_conv3_scale
I0827 11:13:29.392838 14822 net.cpp:84] Creating Layer branch9_2_conv3_scale
I0827 11:13:29.392840 14822 net.cpp:406] branch9_2_conv3_scale <- branch9_2_conv3
I0827 11:13:29.392845 14822 net.cpp:367] branch9_2_conv3_scale -> branch9_2_conv3 (in-place)
I0827 11:13:29.392880 14822 layer_factory.hpp:77] Creating layer branch9_2_conv3_scale
I0827 11:13:29.392994 14822 net.cpp:122] Setting up branch9_2_conv3_scale
I0827 11:13:29.393002 14822 net.cpp:129] Top shape: 64 116 8 8 (475136)
I0827 11:13:29.393005 14822 net.cpp:137] Memory required for data: 532336128
I0827 11:13:29.393010 14822 layer_factory.hpp:77] Creating layer branch9_2_conv3_relu
I0827 11:13:29.393015 14822 net.cpp:84] Creating Layer branch9_2_conv3_relu
I0827 11:13:29.393020 14822 net.cpp:406] branch9_2_conv3_relu <- branch9_2_conv3
I0827 11:13:29.393024 14822 net.cpp:367] branch9_2_conv3_relu -> branch9_2_conv3 (in-place)
I0827 11:13:29.393029 14822 net.cpp:122] Setting up branch9_2_conv3_relu
I0827 11:13:29.393033 14822 net.cpp:129] Top shape: 64 116 8 8 (475136)
I0827 11:13:29.393036 14822 net.cpp:137] Memory required for data: 534236672
I0827 11:13:29.393039 14822 layer_factory.hpp:77] Creating layer concat9
I0827 11:13:29.393043 14822 net.cpp:84] Creating Layer concat9
I0827 11:13:29.393046 14822 net.cpp:406] concat9 <- branch9_1
I0827 11:13:29.393050 14822 net.cpp:406] concat9 <- branch9_2_conv3
I0827 11:13:29.393054 14822 net.cpp:380] concat9 -> concat9
I0827 11:13:29.393075 14822 net.cpp:122] Setting up concat9
I0827 11:13:29.393085 14822 net.cpp:129] Top shape: 64 232 8 8 (950272)
I0827 11:13:29.393087 14822 net.cpp:137] Memory required for data: 538037760
I0827 11:13:29.393090 14822 layer_factory.hpp:77] Creating layer shuffle9
I0827 11:13:29.393095 14822 net.cpp:84] Creating Layer shuffle9
I0827 11:13:29.393098 14822 net.cpp:406] shuffle9 <- concat9
I0827 11:13:29.393103 14822 net.cpp:380] shuffle9 -> shuffle9
I0827 11:13:29.393124 14822 net.cpp:122] Setting up shuffle9
I0827 11:13:29.393131 14822 net.cpp:129] Top shape: 64 232 8 8 (950272)
I0827 11:13:29.393134 14822 net.cpp:137] Memory required for data: 541838848
I0827 11:13:29.393137 14822 layer_factory.hpp:77] Creating layer slice10
I0827 11:13:29.393142 14822 net.cpp:84] Creating Layer slice10
I0827 11:13:29.393146 14822 net.cpp:406] slice10 <- shuffle9
I0827 11:13:29.393151 14822 net.cpp:380] slice10 -> branch10_1
I0827 11:13:29.393157 14822 net.cpp:380] slice10 -> branch10_2
I0827 11:13:29.393188 14822 net.cpp:122] Setting up slice10
I0827 11:13:29.393195 14822 net.cpp:129] Top shape: 64 116 8 8 (475136)
I0827 11:13:29.393199 14822 net.cpp:129] Top shape: 64 116 8 8 (475136)
I0827 11:13:29.393203 14822 net.cpp:137] Memory required for data: 545639936
I0827 11:13:29.393205 14822 layer_factory.hpp:77] Creating layer branch10_2_conv1
I0827 11:13:29.393211 14822 net.cpp:84] Creating Layer branch10_2_conv1
I0827 11:13:29.393215 14822 net.cpp:406] branch10_2_conv1 <- branch10_2
I0827 11:13:29.393221 14822 net.cpp:380] branch10_2_conv1 -> branch10_2_conv1
I0827 11:13:29.393529 14822 net.cpp:122] Setting up branch10_2_conv1
I0827 11:13:29.393537 14822 net.cpp:129] Top shape: 64 116 8 8 (475136)
I0827 11:13:29.393540 14822 net.cpp:137] Memory required for data: 547540480
I0827 11:13:29.393544 14822 layer_factory.hpp:77] Creating layer branch10_2_conv1_bn
I0827 11:13:29.393553 14822 net.cpp:84] Creating Layer branch10_2_conv1_bn
I0827 11:13:29.393555 14822 net.cpp:406] branch10_2_conv1_bn <- branch10_2_conv1
I0827 11:13:29.393560 14822 net.cpp:367] branch10_2_conv1_bn -> branch10_2_conv1 (in-place)
I0827 11:13:29.393735 14822 net.cpp:122] Setting up branch10_2_conv1_bn
I0827 11:13:29.393743 14822 net.cpp:129] Top shape: 64 116 8 8 (475136)
I0827 11:13:29.393746 14822 net.cpp:137] Memory required for data: 549441024
I0827 11:13:29.393752 14822 layer_factory.hpp:77] Creating layer branch10_2_conv1_scale
I0827 11:13:29.393759 14822 net.cpp:84] Creating Layer branch10_2_conv1_scale
I0827 11:13:29.393761 14822 net.cpp:406] branch10_2_conv1_scale <- branch10_2_conv1
I0827 11:13:29.393769 14822 net.cpp:367] branch10_2_conv1_scale -> branch10_2_conv1 (in-place)
I0827 11:13:29.393802 14822 layer_factory.hpp:77] Creating layer branch10_2_conv1_scale
I0827 11:13:29.393916 14822 net.cpp:122] Setting up branch10_2_conv1_scale
I0827 11:13:29.393924 14822 net.cpp:129] Top shape: 64 116 8 8 (475136)
I0827 11:13:29.393927 14822 net.cpp:137] Memory required for data: 551341568
I0827 11:13:29.393934 14822 layer_factory.hpp:77] Creating layer branch10_2_conv1_relu
I0827 11:13:29.393939 14822 net.cpp:84] Creating Layer branch10_2_conv1_relu
I0827 11:13:29.393941 14822 net.cpp:406] branch10_2_conv1_relu <- branch10_2_conv1
I0827 11:13:29.393949 14822 net.cpp:367] branch10_2_conv1_relu -> branch10_2_conv1 (in-place)
I0827 11:13:29.393954 14822 net.cpp:122] Setting up branch10_2_conv1_relu
I0827 11:13:29.393959 14822 net.cpp:129] Top shape: 64 116 8 8 (475136)
I0827 11:13:29.393961 14822 net.cpp:137] Memory required for data: 553242112
I0827 11:13:29.393965 14822 layer_factory.hpp:77] Creating layer branch10_2_conv2
I0827 11:13:29.393971 14822 net.cpp:84] Creating Layer branch10_2_conv2
I0827 11:13:29.393975 14822 net.cpp:406] branch10_2_conv2 <- branch10_2_conv1
I0827 11:13:29.393980 14822 net.cpp:380] branch10_2_conv2 -> branch10_2_conv2
I0827 11:13:29.394160 14822 net.cpp:122] Setting up branch10_2_conv2
I0827 11:13:29.394167 14822 net.cpp:129] Top shape: 64 116 8 8 (475136)
I0827 11:13:29.394170 14822 net.cpp:137] Memory required for data: 555142656
I0827 11:13:29.394176 14822 layer_factory.hpp:77] Creating layer branch10_2_conv2_bn
I0827 11:13:29.394181 14822 net.cpp:84] Creating Layer branch10_2_conv2_bn
I0827 11:13:29.394184 14822 net.cpp:406] branch10_2_conv2_bn <- branch10_2_conv2
I0827 11:13:29.394191 14822 net.cpp:367] branch10_2_conv2_bn -> branch10_2_conv2 (in-place)
I0827 11:13:29.394367 14822 net.cpp:122] Setting up branch10_2_conv2_bn
I0827 11:13:29.394374 14822 net.cpp:129] Top shape: 64 116 8 8 (475136)
I0827 11:13:29.394377 14822 net.cpp:137] Memory required for data: 557043200
I0827 11:13:29.394384 14822 layer_factory.hpp:77] Creating layer branch10_2_conv2_scale
I0827 11:13:29.394389 14822 net.cpp:84] Creating Layer branch10_2_conv2_scale
I0827 11:13:29.394392 14822 net.cpp:406] branch10_2_conv2_scale <- branch10_2_conv2
I0827 11:13:29.394397 14822 net.cpp:367] branch10_2_conv2_scale -> branch10_2_conv2 (in-place)
I0827 11:13:29.394433 14822 layer_factory.hpp:77] Creating layer branch10_2_conv2_scale
I0827 11:13:29.394541 14822 net.cpp:122] Setting up branch10_2_conv2_scale
I0827 11:13:29.394548 14822 net.cpp:129] Top shape: 64 116 8 8 (475136)
I0827 11:13:29.394551 14822 net.cpp:137] Memory required for data: 558943744
I0827 11:13:29.394556 14822 layer_factory.hpp:77] Creating layer branch10_2_conv3
I0827 11:13:29.394565 14822 net.cpp:84] Creating Layer branch10_2_conv3
I0827 11:13:29.394568 14822 net.cpp:406] branch10_2_conv3 <- branch10_2_conv2
I0827 11:13:29.394573 14822 net.cpp:380] branch10_2_conv3 -> branch10_2_conv3
I0827 11:13:29.394877 14822 net.cpp:122] Setting up branch10_2_conv3
I0827 11:13:29.394886 14822 net.cpp:129] Top shape: 64 116 8 8 (475136)
I0827 11:13:29.394888 14822 net.cpp:137] Memory required for data: 560844288
I0827 11:13:29.394892 14822 layer_factory.hpp:77] Creating layer branch10_2_conv3_bn
I0827 11:13:29.394898 14822 net.cpp:84] Creating Layer branch10_2_conv3_bn
I0827 11:13:29.394902 14822 net.cpp:406] branch10_2_conv3_bn <- branch10_2_conv3
I0827 11:13:29.394914 14822 net.cpp:367] branch10_2_conv3_bn -> branch10_2_conv3 (in-place)
I0827 11:13:29.395090 14822 net.cpp:122] Setting up branch10_2_conv3_bn
I0827 11:13:29.395098 14822 net.cpp:129] Top shape: 64 116 8 8 (475136)
I0827 11:13:29.395102 14822 net.cpp:137] Memory required for data: 562744832
I0827 11:13:29.395107 14822 layer_factory.hpp:77] Creating layer branch10_2_conv3_scale
I0827 11:13:29.395113 14822 net.cpp:84] Creating Layer branch10_2_conv3_scale
I0827 11:13:29.395117 14822 net.cpp:406] branch10_2_conv3_scale <- branch10_2_conv3
I0827 11:13:29.395121 14822 net.cpp:367] branch10_2_conv3_scale -> branch10_2_conv3 (in-place)
I0827 11:13:29.395157 14822 layer_factory.hpp:77] Creating layer branch10_2_conv3_scale
I0827 11:13:29.395264 14822 net.cpp:122] Setting up branch10_2_conv3_scale
I0827 11:13:29.395277 14822 net.cpp:129] Top shape: 64 116 8 8 (475136)
I0827 11:13:29.395280 14822 net.cpp:137] Memory required for data: 564645376
I0827 11:13:29.395285 14822 layer_factory.hpp:77] Creating layer branch10_2_conv3_relu
I0827 11:13:29.395290 14822 net.cpp:84] Creating Layer branch10_2_conv3_relu
I0827 11:13:29.395294 14822 net.cpp:406] branch10_2_conv3_relu <- branch10_2_conv3
I0827 11:13:29.395298 14822 net.cpp:367] branch10_2_conv3_relu -> branch10_2_conv3 (in-place)
I0827 11:13:29.395303 14822 net.cpp:122] Setting up branch10_2_conv3_relu
I0827 11:13:29.395308 14822 net.cpp:129] Top shape: 64 116 8 8 (475136)
I0827 11:13:29.395310 14822 net.cpp:137] Memory required for data: 566545920
I0827 11:13:29.395313 14822 layer_factory.hpp:77] Creating layer concat10
I0827 11:13:29.395318 14822 net.cpp:84] Creating Layer concat10
I0827 11:13:29.395320 14822 net.cpp:406] concat10 <- branch10_1
I0827 11:13:29.395324 14822 net.cpp:406] concat10 <- branch10_2_conv3
I0827 11:13:29.395330 14822 net.cpp:380] concat10 -> concat10
I0827 11:13:29.395351 14822 net.cpp:122] Setting up concat10
I0827 11:13:29.395359 14822 net.cpp:129] Top shape: 64 232 8 8 (950272)
I0827 11:13:29.395362 14822 net.cpp:137] Memory required for data: 570347008
I0827 11:13:29.395365 14822 layer_factory.hpp:77] Creating layer shuffle10
I0827 11:13:29.395370 14822 net.cpp:84] Creating Layer shuffle10
I0827 11:13:29.395375 14822 net.cpp:406] shuffle10 <- concat10
I0827 11:13:29.395378 14822 net.cpp:380] shuffle10 -> shuffle10
I0827 11:13:29.395400 14822 net.cpp:122] Setting up shuffle10
I0827 11:13:29.395413 14822 net.cpp:129] Top shape: 64 232 8 8 (950272)
I0827 11:13:29.395416 14822 net.cpp:137] Memory required for data: 574148096
I0827 11:13:29.395419 14822 layer_factory.hpp:77] Creating layer slice11
I0827 11:13:29.395424 14822 net.cpp:84] Creating Layer slice11
I0827 11:13:29.395427 14822 net.cpp:406] slice11 <- shuffle10
I0827 11:13:29.395432 14822 net.cpp:380] slice11 -> branch11_1
I0827 11:13:29.395439 14822 net.cpp:380] slice11 -> branch11_2
I0827 11:13:29.395470 14822 net.cpp:122] Setting up slice11
I0827 11:13:29.395478 14822 net.cpp:129] Top shape: 64 116 8 8 (475136)
I0827 11:13:29.395481 14822 net.cpp:129] Top shape: 64 116 8 8 (475136)
I0827 11:13:29.395483 14822 net.cpp:137] Memory required for data: 577949184
I0827 11:13:29.395488 14822 layer_factory.hpp:77] Creating layer branch11_2_conv1
I0827 11:13:29.395495 14822 net.cpp:84] Creating Layer branch11_2_conv1
I0827 11:13:29.395499 14822 net.cpp:406] branch11_2_conv1 <- branch11_2
I0827 11:13:29.395504 14822 net.cpp:380] branch11_2_conv1 -> branch11_2_conv1
I0827 11:13:29.395807 14822 net.cpp:122] Setting up branch11_2_conv1
I0827 11:13:29.395815 14822 net.cpp:129] Top shape: 64 116 8 8 (475136)
I0827 11:13:29.395818 14822 net.cpp:137] Memory required for data: 579849728
I0827 11:13:29.395823 14822 layer_factory.hpp:77] Creating layer branch11_2_conv1_bn
I0827 11:13:29.395831 14822 net.cpp:84] Creating Layer branch11_2_conv1_bn
I0827 11:13:29.395834 14822 net.cpp:406] branch11_2_conv1_bn <- branch11_2_conv1
I0827 11:13:29.395840 14822 net.cpp:367] branch11_2_conv1_bn -> branch11_2_conv1 (in-place)
I0827 11:13:29.396014 14822 net.cpp:122] Setting up branch11_2_conv1_bn
I0827 11:13:29.396021 14822 net.cpp:129] Top shape: 64 116 8 8 (475136)
I0827 11:13:29.396024 14822 net.cpp:137] Memory required for data: 581750272
I0827 11:13:29.396031 14822 layer_factory.hpp:77] Creating layer branch11_2_conv1_scale
I0827 11:13:29.396039 14822 net.cpp:84] Creating Layer branch11_2_conv1_scale
I0827 11:13:29.396042 14822 net.cpp:406] branch11_2_conv1_scale <- branch11_2_conv1
I0827 11:13:29.396046 14822 net.cpp:367] branch11_2_conv1_scale -> branch11_2_conv1 (in-place)
I0827 11:13:29.396081 14822 layer_factory.hpp:77] Creating layer branch11_2_conv1_scale
I0827 11:13:29.396195 14822 net.cpp:122] Setting up branch11_2_conv1_scale
I0827 11:13:29.396204 14822 net.cpp:129] Top shape: 64 116 8 8 (475136)
I0827 11:13:29.396208 14822 net.cpp:137] Memory required for data: 583650816
I0827 11:13:29.396212 14822 layer_factory.hpp:77] Creating layer branch11_2_conv1_relu
I0827 11:13:29.396217 14822 net.cpp:84] Creating Layer branch11_2_conv1_relu
I0827 11:13:29.396221 14822 net.cpp:406] branch11_2_conv1_relu <- branch11_2_conv1
I0827 11:13:29.396229 14822 net.cpp:367] branch11_2_conv1_relu -> branch11_2_conv1 (in-place)
I0827 11:13:29.396234 14822 net.cpp:122] Setting up branch11_2_conv1_relu
I0827 11:13:29.396237 14822 net.cpp:129] Top shape: 64 116 8 8 (475136)
I0827 11:13:29.396240 14822 net.cpp:137] Memory required for data: 585551360
I0827 11:13:29.396243 14822 layer_factory.hpp:77] Creating layer branch11_2_conv2
I0827 11:13:29.396251 14822 net.cpp:84] Creating Layer branch11_2_conv2
I0827 11:13:29.396255 14822 net.cpp:406] branch11_2_conv2 <- branch11_2_conv1
I0827 11:13:29.396260 14822 net.cpp:380] branch11_2_conv2 -> branch11_2_conv2
I0827 11:13:29.396433 14822 net.cpp:122] Setting up branch11_2_conv2
I0827 11:13:29.396441 14822 net.cpp:129] Top shape: 64 116 8 8 (475136)
I0827 11:13:29.396445 14822 net.cpp:137] Memory required for data: 587451904
I0827 11:13:29.396450 14822 layer_factory.hpp:77] Creating layer branch11_2_conv2_bn
I0827 11:13:29.396454 14822 net.cpp:84] Creating Layer branch11_2_conv2_bn
I0827 11:13:29.396457 14822 net.cpp:406] branch11_2_conv2_bn <- branch11_2_conv2
I0827 11:13:29.396466 14822 net.cpp:367] branch11_2_conv2_bn -> branch11_2_conv2 (in-place)
I0827 11:13:29.396646 14822 net.cpp:122] Setting up branch11_2_conv2_bn
I0827 11:13:29.396654 14822 net.cpp:129] Top shape: 64 116 8 8 (475136)
I0827 11:13:29.396657 14822 net.cpp:137] Memory required for data: 589352448
I0827 11:13:29.396663 14822 layer_factory.hpp:77] Creating layer branch11_2_conv2_scale
I0827 11:13:29.396669 14822 net.cpp:84] Creating Layer branch11_2_conv2_scale
I0827 11:13:29.396672 14822 net.cpp:406] branch11_2_conv2_scale <- branch11_2_conv2
I0827 11:13:29.396677 14822 net.cpp:367] branch11_2_conv2_scale -> branch11_2_conv2 (in-place)
I0827 11:13:29.396713 14822 layer_factory.hpp:77] Creating layer branch11_2_conv2_scale
I0827 11:13:29.396821 14822 net.cpp:122] Setting up branch11_2_conv2_scale
I0827 11:13:29.396828 14822 net.cpp:129] Top shape: 64 116 8 8 (475136)
I0827 11:13:29.396831 14822 net.cpp:137] Memory required for data: 591252992
I0827 11:13:29.396836 14822 layer_factory.hpp:77] Creating layer branch11_2_conv3
I0827 11:13:29.396844 14822 net.cpp:84] Creating Layer branch11_2_conv3
I0827 11:13:29.396848 14822 net.cpp:406] branch11_2_conv3 <- branch11_2_conv2
I0827 11:13:29.396855 14822 net.cpp:380] branch11_2_conv3 -> branch11_2_conv3
I0827 11:13:29.397163 14822 net.cpp:122] Setting up branch11_2_conv3
I0827 11:13:29.397171 14822 net.cpp:129] Top shape: 64 116 8 8 (475136)
I0827 11:13:29.397174 14822 net.cpp:137] Memory required for data: 593153536
I0827 11:13:29.397179 14822 layer_factory.hpp:77] Creating layer branch11_2_conv3_bn
I0827 11:13:29.397186 14822 net.cpp:84] Creating Layer branch11_2_conv3_bn
I0827 11:13:29.397191 14822 net.cpp:406] branch11_2_conv3_bn <- branch11_2_conv3
I0827 11:13:29.397194 14822 net.cpp:367] branch11_2_conv3_bn -> branch11_2_conv3 (in-place)
I0827 11:13:29.397372 14822 net.cpp:122] Setting up branch11_2_conv3_bn
I0827 11:13:29.397378 14822 net.cpp:129] Top shape: 64 116 8 8 (475136)
I0827 11:13:29.397382 14822 net.cpp:137] Memory required for data: 595054080
I0827 11:13:29.397387 14822 layer_factory.hpp:77] Creating layer branch11_2_conv3_scale
I0827 11:13:29.397394 14822 net.cpp:84] Creating Layer branch11_2_conv3_scale
I0827 11:13:29.397397 14822 net.cpp:406] branch11_2_conv3_scale <- branch11_2_conv3
I0827 11:13:29.397403 14822 net.cpp:367] branch11_2_conv3_scale -> branch11_2_conv3 (in-place)
I0827 11:13:29.397436 14822 layer_factory.hpp:77] Creating layer branch11_2_conv3_scale
I0827 11:13:29.397544 14822 net.cpp:122] Setting up branch11_2_conv3_scale
I0827 11:13:29.397552 14822 net.cpp:129] Top shape: 64 116 8 8 (475136)
I0827 11:13:29.397555 14822 net.cpp:137] Memory required for data: 596954624
I0827 11:13:29.397560 14822 layer_factory.hpp:77] Creating layer branch11_2_conv3_relu
I0827 11:13:29.397565 14822 net.cpp:84] Creating Layer branch11_2_conv3_relu
I0827 11:13:29.397568 14822 net.cpp:406] branch11_2_conv3_relu <- branch11_2_conv3
I0827 11:13:29.397573 14822 net.cpp:367] branch11_2_conv3_relu -> branch11_2_conv3 (in-place)
I0827 11:13:29.397578 14822 net.cpp:122] Setting up branch11_2_conv3_relu
I0827 11:13:29.397583 14822 net.cpp:129] Top shape: 64 116 8 8 (475136)
I0827 11:13:29.397584 14822 net.cpp:137] Memory required for data: 598855168
I0827 11:13:29.397588 14822 layer_factory.hpp:77] Creating layer concat11
I0827 11:13:29.397593 14822 net.cpp:84] Creating Layer concat11
I0827 11:13:29.397595 14822 net.cpp:406] concat11 <- branch11_1
I0827 11:13:29.397598 14822 net.cpp:406] concat11 <- branch11_2_conv3
I0827 11:13:29.397605 14822 net.cpp:380] concat11 -> concat11
I0827 11:13:29.397629 14822 net.cpp:122] Setting up concat11
I0827 11:13:29.397635 14822 net.cpp:129] Top shape: 64 232 8 8 (950272)
I0827 11:13:29.397637 14822 net.cpp:137] Memory required for data: 602656256
I0827 11:13:29.397640 14822 layer_factory.hpp:77] Creating layer shuffle11
I0827 11:13:29.397645 14822 net.cpp:84] Creating Layer shuffle11
I0827 11:13:29.397650 14822 net.cpp:406] shuffle11 <- concat11
I0827 11:13:29.397655 14822 net.cpp:380] shuffle11 -> shuffle11
I0827 11:13:29.397675 14822 net.cpp:122] Setting up shuffle11
I0827 11:13:29.397682 14822 net.cpp:129] Top shape: 64 232 8 8 (950272)
I0827 11:13:29.397686 14822 net.cpp:137] Memory required for data: 606457344
I0827 11:13:29.397688 14822 layer_factory.hpp:77] Creating layer slice12
I0827 11:13:29.397693 14822 net.cpp:84] Creating Layer slice12
I0827 11:13:29.397696 14822 net.cpp:406] slice12 <- shuffle11
I0827 11:13:29.397701 14822 net.cpp:380] slice12 -> branch12_1
I0827 11:13:29.397707 14822 net.cpp:380] slice12 -> branch12_2
I0827 11:13:29.397742 14822 net.cpp:122] Setting up slice12
I0827 11:13:29.397748 14822 net.cpp:129] Top shape: 64 116 8 8 (475136)
I0827 11:13:29.397753 14822 net.cpp:129] Top shape: 64 116 8 8 (475136)
I0827 11:13:29.397755 14822 net.cpp:137] Memory required for data: 610258432
I0827 11:13:29.397758 14822 layer_factory.hpp:77] Creating layer branch12_2_conv1
I0827 11:13:29.397769 14822 net.cpp:84] Creating Layer branch12_2_conv1
I0827 11:13:29.397773 14822 net.cpp:406] branch12_2_conv1 <- branch12_2
I0827 11:13:29.397780 14822 net.cpp:380] branch12_2_conv1 -> branch12_2_conv1
I0827 11:13:29.398089 14822 net.cpp:122] Setting up branch12_2_conv1
I0827 11:13:29.398097 14822 net.cpp:129] Top shape: 64 116 8 8 (475136)
I0827 11:13:29.398100 14822 net.cpp:137] Memory required for data: 612158976
I0827 11:13:29.398105 14822 layer_factory.hpp:77] Creating layer branch12_2_conv1_bn
I0827 11:13:29.398110 14822 net.cpp:84] Creating Layer branch12_2_conv1_bn
I0827 11:13:29.398114 14822 net.cpp:406] branch12_2_conv1_bn <- branch12_2_conv1
I0827 11:13:29.398119 14822 net.cpp:367] branch12_2_conv1_bn -> branch12_2_conv1 (in-place)
I0827 11:13:29.398295 14822 net.cpp:122] Setting up branch12_2_conv1_bn
I0827 11:13:29.398303 14822 net.cpp:129] Top shape: 64 116 8 8 (475136)
I0827 11:13:29.398306 14822 net.cpp:137] Memory required for data: 614059520
I0827 11:13:29.398313 14822 layer_factory.hpp:77] Creating layer branch12_2_conv1_scale
I0827 11:13:29.398319 14822 net.cpp:84] Creating Layer branch12_2_conv1_scale
I0827 11:13:29.398324 14822 net.cpp:406] branch12_2_conv1_scale <- branch12_2_conv1
I0827 11:13:29.398327 14822 net.cpp:367] branch12_2_conv1_scale -> branch12_2_conv1 (in-place)
I0827 11:13:29.398362 14822 layer_factory.hpp:77] Creating layer branch12_2_conv1_scale
I0827 11:13:29.398471 14822 net.cpp:122] Setting up branch12_2_conv1_scale
I0827 11:13:29.398478 14822 net.cpp:129] Top shape: 64 116 8 8 (475136)
I0827 11:13:29.398481 14822 net.cpp:137] Memory required for data: 615960064
I0827 11:13:29.398488 14822 layer_factory.hpp:77] Creating layer branch12_2_conv1_relu
I0827 11:13:29.398494 14822 net.cpp:84] Creating Layer branch12_2_conv1_relu
I0827 11:13:29.398497 14822 net.cpp:406] branch12_2_conv1_relu <- branch12_2_conv1
I0827 11:13:29.398502 14822 net.cpp:367] branch12_2_conv1_relu -> branch12_2_conv1 (in-place)
I0827 11:13:29.398507 14822 net.cpp:122] Setting up branch12_2_conv1_relu
I0827 11:13:29.398511 14822 net.cpp:129] Top shape: 64 116 8 8 (475136)
I0827 11:13:29.398514 14822 net.cpp:137] Memory required for data: 617860608
I0827 11:13:29.398516 14822 layer_factory.hpp:77] Creating layer branch12_2_conv2
I0827 11:13:29.398524 14822 net.cpp:84] Creating Layer branch12_2_conv2
I0827 11:13:29.398527 14822 net.cpp:406] branch12_2_conv2 <- branch12_2_conv1
I0827 11:13:29.398533 14822 net.cpp:380] branch12_2_conv2 -> branch12_2_conv2
I0827 11:13:29.398712 14822 net.cpp:122] Setting up branch12_2_conv2
I0827 11:13:29.398720 14822 net.cpp:129] Top shape: 64 116 8 8 (475136)
I0827 11:13:29.398723 14822 net.cpp:137] Memory required for data: 619761152
I0827 11:13:29.398727 14822 layer_factory.hpp:77] Creating layer branch12_2_conv2_bn
I0827 11:13:29.398733 14822 net.cpp:84] Creating Layer branch12_2_conv2_bn
I0827 11:13:29.398736 14822 net.cpp:406] branch12_2_conv2_bn <- branch12_2_conv2
I0827 11:13:29.398742 14822 net.cpp:367] branch12_2_conv2_bn -> branch12_2_conv2 (in-place)
I0827 11:13:29.398921 14822 net.cpp:122] Setting up branch12_2_conv2_bn
I0827 11:13:29.398928 14822 net.cpp:129] Top shape: 64 116 8 8 (475136)
I0827 11:13:29.398931 14822 net.cpp:137] Memory required for data: 621661696
I0827 11:13:29.398937 14822 layer_factory.hpp:77] Creating layer branch12_2_conv2_scale
I0827 11:13:29.398943 14822 net.cpp:84] Creating Layer branch12_2_conv2_scale
I0827 11:13:29.398947 14822 net.cpp:406] branch12_2_conv2_scale <- branch12_2_conv2
I0827 11:13:29.398950 14822 net.cpp:367] branch12_2_conv2_scale -> branch12_2_conv2 (in-place)
I0827 11:13:29.398989 14822 layer_factory.hpp:77] Creating layer branch12_2_conv2_scale
I0827 11:13:29.399098 14822 net.cpp:122] Setting up branch12_2_conv2_scale
I0827 11:13:29.399108 14822 net.cpp:129] Top shape: 64 116 8 8 (475136)
I0827 11:13:29.399111 14822 net.cpp:137] Memory required for data: 623562240
I0827 11:13:29.399117 14822 layer_factory.hpp:77] Creating layer branch12_2_conv3
I0827 11:13:29.399124 14822 net.cpp:84] Creating Layer branch12_2_conv3
I0827 11:13:29.399128 14822 net.cpp:406] branch12_2_conv3 <- branch12_2_conv2
I0827 11:13:29.399134 14822 net.cpp:380] branch12_2_conv3 -> branch12_2_conv3
I0827 11:13:29.399446 14822 net.cpp:122] Setting up branch12_2_conv3
I0827 11:13:29.399454 14822 net.cpp:129] Top shape: 64 116 8 8 (475136)
I0827 11:13:29.399457 14822 net.cpp:137] Memory required for data: 625462784
I0827 11:13:29.399461 14822 layer_factory.hpp:77] Creating layer branch12_2_conv3_bn
I0827 11:13:29.399469 14822 net.cpp:84] Creating Layer branch12_2_conv3_bn
I0827 11:13:29.399473 14822 net.cpp:406] branch12_2_conv3_bn <- branch12_2_conv3
I0827 11:13:29.399477 14822 net.cpp:367] branch12_2_conv3_bn -> branch12_2_conv3 (in-place)
I0827 11:13:29.399652 14822 net.cpp:122] Setting up branch12_2_conv3_bn
I0827 11:13:29.399660 14822 net.cpp:129] Top shape: 64 116 8 8 (475136)
I0827 11:13:29.399663 14822 net.cpp:137] Memory required for data: 627363328
I0827 11:13:29.399669 14822 layer_factory.hpp:77] Creating layer branch12_2_conv3_scale
I0827 11:13:29.399674 14822 net.cpp:84] Creating Layer branch12_2_conv3_scale
I0827 11:13:29.399678 14822 net.cpp:406] branch12_2_conv3_scale <- branch12_2_conv3
I0827 11:13:29.399684 14822 net.cpp:367] branch12_2_conv3_scale -> branch12_2_conv3 (in-place)
I0827 11:13:29.399716 14822 layer_factory.hpp:77] Creating layer branch12_2_conv3_scale
I0827 11:13:29.399823 14822 net.cpp:122] Setting up branch12_2_conv3_scale
I0827 11:13:29.399830 14822 net.cpp:129] Top shape: 64 116 8 8 (475136)
I0827 11:13:29.399833 14822 net.cpp:137] Memory required for data: 629263872
I0827 11:13:29.399839 14822 layer_factory.hpp:77] Creating layer branch12_2_conv3_relu
I0827 11:13:29.399844 14822 net.cpp:84] Creating Layer branch12_2_conv3_relu
I0827 11:13:29.399847 14822 net.cpp:406] branch12_2_conv3_relu <- branch12_2_conv3
I0827 11:13:29.399853 14822 net.cpp:367] branch12_2_conv3_relu -> branch12_2_conv3 (in-place)
I0827 11:13:29.399858 14822 net.cpp:122] Setting up branch12_2_conv3_relu
I0827 11:13:29.399863 14822 net.cpp:129] Top shape: 64 116 8 8 (475136)
I0827 11:13:29.399865 14822 net.cpp:137] Memory required for data: 631164416
I0827 11:13:29.399868 14822 layer_factory.hpp:77] Creating layer concat12
I0827 11:13:29.399873 14822 net.cpp:84] Creating Layer concat12
I0827 11:13:29.399876 14822 net.cpp:406] concat12 <- branch12_1
I0827 11:13:29.399879 14822 net.cpp:406] concat12 <- branch12_2_conv3
I0827 11:13:29.399884 14822 net.cpp:380] concat12 -> concat12
I0827 11:13:29.399906 14822 net.cpp:122] Setting up concat12
I0827 11:13:29.399914 14822 net.cpp:129] Top shape: 64 232 8 8 (950272)
I0827 11:13:29.399916 14822 net.cpp:137] Memory required for data: 634965504
I0827 11:13:29.399919 14822 layer_factory.hpp:77] Creating layer shuffle12
I0827 11:13:29.399924 14822 net.cpp:84] Creating Layer shuffle12
I0827 11:13:29.399929 14822 net.cpp:406] shuffle12 <- concat12
I0827 11:13:29.399935 14822 net.cpp:380] shuffle12 -> shuffle12
I0827 11:13:29.399955 14822 net.cpp:122] Setting up shuffle12
I0827 11:13:29.399961 14822 net.cpp:129] Top shape: 64 232 8 8 (950272)
I0827 11:13:29.399965 14822 net.cpp:137] Memory required for data: 638766592
I0827 11:13:29.399967 14822 layer_factory.hpp:77] Creating layer shuffle12_shuffle12_0_split
I0827 11:13:29.399972 14822 net.cpp:84] Creating Layer shuffle12_shuffle12_0_split
I0827 11:13:29.399976 14822 net.cpp:406] shuffle12_shuffle12_0_split <- shuffle12
I0827 11:13:29.399981 14822 net.cpp:380] shuffle12_shuffle12_0_split -> shuffle12_shuffle12_0_split_0
I0827 11:13:29.399988 14822 net.cpp:380] shuffle12_shuffle12_0_split -> shuffle12_shuffle12_0_split_1
I0827 11:13:29.400017 14822 net.cpp:122] Setting up shuffle12_shuffle12_0_split
I0827 11:13:29.400023 14822 net.cpp:129] Top shape: 64 232 8 8 (950272)
I0827 11:13:29.400027 14822 net.cpp:129] Top shape: 64 232 8 8 (950272)
I0827 11:13:29.400030 14822 net.cpp:137] Memory required for data: 646368768
I0827 11:13:29.400033 14822 layer_factory.hpp:77] Creating layer branch13_1_conv1
I0827 11:13:29.400040 14822 net.cpp:84] Creating Layer branch13_1_conv1
I0827 11:13:29.400044 14822 net.cpp:406] branch13_1_conv1 <- shuffle12_shuffle12_0_split_0
I0827 11:13:29.400051 14822 net.cpp:380] branch13_1_conv1 -> branch13_1_conv1
I0827 11:13:29.400249 14822 net.cpp:122] Setting up branch13_1_conv1
I0827 11:13:29.400259 14822 net.cpp:129] Top shape: 64 232 4 4 (237568)
I0827 11:13:29.400261 14822 net.cpp:137] Memory required for data: 647319040
I0827 11:13:29.400266 14822 layer_factory.hpp:77] Creating layer branch13_1_conv1_bn
I0827 11:13:29.400271 14822 net.cpp:84] Creating Layer branch13_1_conv1_bn
I0827 11:13:29.400275 14822 net.cpp:406] branch13_1_conv1_bn <- branch13_1_conv1
I0827 11:13:29.400279 14822 net.cpp:367] branch13_1_conv1_bn -> branch13_1_conv1 (in-place)
I0827 11:13:29.400458 14822 net.cpp:122] Setting up branch13_1_conv1_bn
I0827 11:13:29.400466 14822 net.cpp:129] Top shape: 64 232 4 4 (237568)
I0827 11:13:29.400470 14822 net.cpp:137] Memory required for data: 648269312
I0827 11:13:29.400475 14822 layer_factory.hpp:77] Creating layer branch13_1_conv1_scale
I0827 11:13:29.400483 14822 net.cpp:84] Creating Layer branch13_1_conv1_scale
I0827 11:13:29.400487 14822 net.cpp:406] branch13_1_conv1_scale <- branch13_1_conv1
I0827 11:13:29.400491 14822 net.cpp:367] branch13_1_conv1_scale -> branch13_1_conv1 (in-place)
I0827 11:13:29.400530 14822 layer_factory.hpp:77] Creating layer branch13_1_conv1_scale
I0827 11:13:29.400642 14822 net.cpp:122] Setting up branch13_1_conv1_scale
I0827 11:13:29.400650 14822 net.cpp:129] Top shape: 64 232 4 4 (237568)
I0827 11:13:29.400653 14822 net.cpp:137] Memory required for data: 649219584
I0827 11:13:29.400660 14822 layer_factory.hpp:77] Creating layer branch13_1_conv2
I0827 11:13:29.400667 14822 net.cpp:84] Creating Layer branch13_1_conv2
I0827 11:13:29.400671 14822 net.cpp:406] branch13_1_conv2 <- branch13_1_conv1
I0827 11:13:29.400676 14822 net.cpp:380] branch13_1_conv2 -> branch13_1_conv2
I0827 11:13:29.402196 14822 net.cpp:122] Setting up branch13_1_conv2
I0827 11:13:29.402210 14822 net.cpp:129] Top shape: 64 232 4 4 (237568)
I0827 11:13:29.402213 14822 net.cpp:137] Memory required for data: 650169856
I0827 11:13:29.402218 14822 layer_factory.hpp:77] Creating layer branch13_1_conv2_bn
I0827 11:13:29.402226 14822 net.cpp:84] Creating Layer branch13_1_conv2_bn
I0827 11:13:29.402231 14822 net.cpp:406] branch13_1_conv2_bn <- branch13_1_conv2
I0827 11:13:29.402236 14822 net.cpp:367] branch13_1_conv2_bn -> branch13_1_conv2 (in-place)
I0827 11:13:29.402415 14822 net.cpp:122] Setting up branch13_1_conv2_bn
I0827 11:13:29.402423 14822 net.cpp:129] Top shape: 64 232 4 4 (237568)
I0827 11:13:29.402426 14822 net.cpp:137] Memory required for data: 651120128
I0827 11:13:29.402433 14822 layer_factory.hpp:77] Creating layer branch13_1_conv2_scale
I0827 11:13:29.402439 14822 net.cpp:84] Creating Layer branch13_1_conv2_scale
I0827 11:13:29.402443 14822 net.cpp:406] branch13_1_conv2_scale <- branch13_1_conv2
I0827 11:13:29.402449 14822 net.cpp:367] branch13_1_conv2_scale -> branch13_1_conv2 (in-place)
I0827 11:13:29.402484 14822 layer_factory.hpp:77] Creating layer branch13_1_conv2_scale
I0827 11:13:29.402603 14822 net.cpp:122] Setting up branch13_1_conv2_scale
I0827 11:13:29.402611 14822 net.cpp:129] Top shape: 64 232 4 4 (237568)
I0827 11:13:29.402614 14822 net.cpp:137] Memory required for data: 652070400
I0827 11:13:29.402639 14822 layer_factory.hpp:77] Creating layer branch13_1_conv2_relu
I0827 11:13:29.402647 14822 net.cpp:84] Creating Layer branch13_1_conv2_relu
I0827 11:13:29.402650 14822 net.cpp:406] branch13_1_conv2_relu <- branch13_1_conv2
I0827 11:13:29.402655 14822 net.cpp:367] branch13_1_conv2_relu -> branch13_1_conv2 (in-place)
I0827 11:13:29.402660 14822 net.cpp:122] Setting up branch13_1_conv2_relu
I0827 11:13:29.402664 14822 net.cpp:129] Top shape: 64 232 4 4 (237568)
I0827 11:13:29.402667 14822 net.cpp:137] Memory required for data: 653020672
I0827 11:13:29.402670 14822 layer_factory.hpp:77] Creating layer branch13_2_conv1
I0827 11:13:29.402678 14822 net.cpp:84] Creating Layer branch13_2_conv1
I0827 11:13:29.402681 14822 net.cpp:406] branch13_2_conv1 <- shuffle12_shuffle12_0_split_1
I0827 11:13:29.402686 14822 net.cpp:380] branch13_2_conv1 -> branch13_2_conv1
I0827 11:13:29.403426 14822 net.cpp:122] Setting up branch13_2_conv1
I0827 11:13:29.403437 14822 net.cpp:129] Top shape: 64 232 8 8 (950272)
I0827 11:13:29.403440 14822 net.cpp:137] Memory required for data: 656821760
I0827 11:13:29.403445 14822 layer_factory.hpp:77] Creating layer branch13_2_conv1_bn
I0827 11:13:29.403451 14822 net.cpp:84] Creating Layer branch13_2_conv1_bn
I0827 11:13:29.403455 14822 net.cpp:406] branch13_2_conv1_bn <- branch13_2_conv1
I0827 11:13:29.403461 14822 net.cpp:367] branch13_2_conv1_bn -> branch13_2_conv1 (in-place)
I0827 11:13:29.403650 14822 net.cpp:122] Setting up branch13_2_conv1_bn
I0827 11:13:29.403657 14822 net.cpp:129] Top shape: 64 232 8 8 (950272)
I0827 11:13:29.403661 14822 net.cpp:137] Memory required for data: 660622848
I0827 11:13:29.403667 14822 layer_factory.hpp:77] Creating layer branch13_2_conv1_scale
I0827 11:13:29.403672 14822 net.cpp:84] Creating Layer branch13_2_conv1_scale
I0827 11:13:29.403676 14822 net.cpp:406] branch13_2_conv1_scale <- branch13_2_conv1
I0827 11:13:29.403681 14822 net.cpp:367] branch13_2_conv1_scale -> branch13_2_conv1 (in-place)
I0827 11:13:29.403717 14822 layer_factory.hpp:77] Creating layer branch13_2_conv1_scale
I0827 11:13:29.403825 14822 net.cpp:122] Setting up branch13_2_conv1_scale
I0827 11:13:29.403832 14822 net.cpp:129] Top shape: 64 232 8 8 (950272)
I0827 11:13:29.403836 14822 net.cpp:137] Memory required for data: 664423936
I0827 11:13:29.403841 14822 layer_factory.hpp:77] Creating layer branch13_2_conv1_relu
I0827 11:13:29.403846 14822 net.cpp:84] Creating Layer branch13_2_conv1_relu
I0827 11:13:29.403851 14822 net.cpp:406] branch13_2_conv1_relu <- branch13_2_conv1
I0827 11:13:29.403856 14822 net.cpp:367] branch13_2_conv1_relu -> branch13_2_conv1 (in-place)
I0827 11:13:29.403861 14822 net.cpp:122] Setting up branch13_2_conv1_relu
I0827 11:13:29.403867 14822 net.cpp:129] Top shape: 64 232 8 8 (950272)
I0827 11:13:29.403868 14822 net.cpp:137] Memory required for data: 668225024
I0827 11:13:29.403872 14822 layer_factory.hpp:77] Creating layer branch13_2_conv2
I0827 11:13:29.403879 14822 net.cpp:84] Creating Layer branch13_2_conv2
I0827 11:13:29.403882 14822 net.cpp:406] branch13_2_conv2 <- branch13_2_conv1
I0827 11:13:29.403888 14822 net.cpp:380] branch13_2_conv2 -> branch13_2_conv2
I0827 11:13:29.404078 14822 net.cpp:122] Setting up branch13_2_conv2
I0827 11:13:29.404086 14822 net.cpp:129] Top shape: 64 232 4 4 (237568)
I0827 11:13:29.404089 14822 net.cpp:137] Memory required for data: 669175296
I0827 11:13:29.404093 14822 layer_factory.hpp:77] Creating layer branch13_2_conv2_bn
I0827 11:13:29.404100 14822 net.cpp:84] Creating Layer branch13_2_conv2_bn
I0827 11:13:29.404104 14822 net.cpp:406] branch13_2_conv2_bn <- branch13_2_conv2
I0827 11:13:29.404109 14822 net.cpp:367] branch13_2_conv2_bn -> branch13_2_conv2 (in-place)
I0827 11:13:29.404296 14822 net.cpp:122] Setting up branch13_2_conv2_bn
I0827 11:13:29.404305 14822 net.cpp:129] Top shape: 64 232 4 4 (237568)
I0827 11:13:29.404309 14822 net.cpp:137] Memory required for data: 670125568
I0827 11:13:29.404314 14822 layer_factory.hpp:77] Creating layer branch13_2_conv2_scale
I0827 11:13:29.404322 14822 net.cpp:84] Creating Layer branch13_2_conv2_scale
I0827 11:13:29.404326 14822 net.cpp:406] branch13_2_conv2_scale <- branch13_2_conv2
I0827 11:13:29.404330 14822 net.cpp:367] branch13_2_conv2_scale -> branch13_2_conv2 (in-place)
I0827 11:13:29.404369 14822 layer_factory.hpp:77] Creating layer branch13_2_conv2_scale
I0827 11:13:29.404481 14822 net.cpp:122] Setting up branch13_2_conv2_scale
I0827 11:13:29.404489 14822 net.cpp:129] Top shape: 64 232 4 4 (237568)
I0827 11:13:29.404491 14822 net.cpp:137] Memory required for data: 671075840
I0827 11:13:29.404497 14822 layer_factory.hpp:77] Creating layer branch13_2_conv3
I0827 11:13:29.404505 14822 net.cpp:84] Creating Layer branch13_2_conv3
I0827 11:13:29.404510 14822 net.cpp:406] branch13_2_conv3 <- branch13_2_conv2
I0827 11:13:29.404520 14822 net.cpp:380] branch13_2_conv3 -> branch13_2_conv3
I0827 11:13:29.405249 14822 net.cpp:122] Setting up branch13_2_conv3
I0827 11:13:29.405258 14822 net.cpp:129] Top shape: 64 232 4 4 (237568)
I0827 11:13:29.405261 14822 net.cpp:137] Memory required for data: 672026112
I0827 11:13:29.405267 14822 layer_factory.hpp:77] Creating layer branch13_2_conv3_bn
I0827 11:13:29.405272 14822 net.cpp:84] Creating Layer branch13_2_conv3_bn
I0827 11:13:29.405277 14822 net.cpp:406] branch13_2_conv3_bn <- branch13_2_conv3
I0827 11:13:29.405282 14822 net.cpp:367] branch13_2_conv3_bn -> branch13_2_conv3 (in-place)
I0827 11:13:29.405459 14822 net.cpp:122] Setting up branch13_2_conv3_bn
I0827 11:13:29.405467 14822 net.cpp:129] Top shape: 64 232 4 4 (237568)
I0827 11:13:29.405470 14822 net.cpp:137] Memory required for data: 672976384
I0827 11:13:29.405477 14822 layer_factory.hpp:77] Creating layer branch13_2_conv3_scale
I0827 11:13:29.405483 14822 net.cpp:84] Creating Layer branch13_2_conv3_scale
I0827 11:13:29.405488 14822 net.cpp:406] branch13_2_conv3_scale <- branch13_2_conv3
I0827 11:13:29.405491 14822 net.cpp:367] branch13_2_conv3_scale -> branch13_2_conv3 (in-place)
I0827 11:13:29.405526 14822 layer_factory.hpp:77] Creating layer branch13_2_conv3_scale
I0827 11:13:29.405637 14822 net.cpp:122] Setting up branch13_2_conv3_scale
I0827 11:13:29.405645 14822 net.cpp:129] Top shape: 64 232 4 4 (237568)
I0827 11:13:29.405648 14822 net.cpp:137] Memory required for data: 673926656
I0827 11:13:29.405653 14822 layer_factory.hpp:77] Creating layer branch13_2_conv3_relu
I0827 11:13:29.405661 14822 net.cpp:84] Creating Layer branch13_2_conv3_relu
I0827 11:13:29.405664 14822 net.cpp:406] branch13_2_conv3_relu <- branch13_2_conv3
I0827 11:13:29.405669 14822 net.cpp:367] branch13_2_conv3_relu -> branch13_2_conv3 (in-place)
I0827 11:13:29.405674 14822 net.cpp:122] Setting up branch13_2_conv3_relu
I0827 11:13:29.405678 14822 net.cpp:129] Top shape: 64 232 4 4 (237568)
I0827 11:13:29.405680 14822 net.cpp:137] Memory required for data: 674876928
I0827 11:13:29.405683 14822 layer_factory.hpp:77] Creating layer concat13
I0827 11:13:29.405689 14822 net.cpp:84] Creating Layer concat13
I0827 11:13:29.405691 14822 net.cpp:406] concat13 <- branch13_1_conv2
I0827 11:13:29.405695 14822 net.cpp:406] concat13 <- branch13_2_conv3
I0827 11:13:29.405701 14822 net.cpp:380] concat13 -> concat13
I0827 11:13:29.405725 14822 net.cpp:122] Setting up concat13
I0827 11:13:29.405731 14822 net.cpp:129] Top shape: 64 464 4 4 (475136)
I0827 11:13:29.405735 14822 net.cpp:137] Memory required for data: 676777472
I0827 11:13:29.405737 14822 layer_factory.hpp:77] Creating layer shuffle13
I0827 11:13:29.405742 14822 net.cpp:84] Creating Layer shuffle13
I0827 11:13:29.405746 14822 net.cpp:406] shuffle13 <- concat13
I0827 11:13:29.405750 14822 net.cpp:380] shuffle13 -> shuffle13
I0827 11:13:29.405771 14822 net.cpp:122] Setting up shuffle13
I0827 11:13:29.405777 14822 net.cpp:129] Top shape: 64 464 4 4 (475136)
I0827 11:13:29.405781 14822 net.cpp:137] Memory required for data: 678678016
I0827 11:13:29.405783 14822 layer_factory.hpp:77] Creating layer slice14
I0827 11:13:29.405791 14822 net.cpp:84] Creating Layer slice14
I0827 11:13:29.405794 14822 net.cpp:406] slice14 <- shuffle13
I0827 11:13:29.405799 14822 net.cpp:380] slice14 -> branch14_1
I0827 11:13:29.405805 14822 net.cpp:380] slice14 -> branch14_2
I0827 11:13:29.405838 14822 net.cpp:122] Setting up slice14
I0827 11:13:29.405844 14822 net.cpp:129] Top shape: 64 232 4 4 (237568)
I0827 11:13:29.405848 14822 net.cpp:129] Top shape: 64 232 4 4 (237568)
I0827 11:13:29.405850 14822 net.cpp:137] Memory required for data: 680578560
I0827 11:13:29.405853 14822 layer_factory.hpp:77] Creating layer branch14_2_conv1
I0827 11:13:29.405860 14822 net.cpp:84] Creating Layer branch14_2_conv1
I0827 11:13:29.405864 14822 net.cpp:406] branch14_2_conv1 <- branch14_2
I0827 11:13:29.405869 14822 net.cpp:380] branch14_2_conv1 -> branch14_2_conv1
I0827 11:13:29.406594 14822 net.cpp:122] Setting up branch14_2_conv1
I0827 11:13:29.406602 14822 net.cpp:129] Top shape: 64 232 4 4 (237568)
I0827 11:13:29.406605 14822 net.cpp:137] Memory required for data: 681528832
I0827 11:13:29.406610 14822 layer_factory.hpp:77] Creating layer branch14_2_conv1_bn
I0827 11:13:29.406615 14822 net.cpp:84] Creating Layer branch14_2_conv1_bn
I0827 11:13:29.406618 14822 net.cpp:406] branch14_2_conv1_bn <- branch14_2_conv1
I0827 11:13:29.406625 14822 net.cpp:367] branch14_2_conv1_bn -> branch14_2_conv1 (in-place)
I0827 11:13:29.406808 14822 net.cpp:122] Setting up branch14_2_conv1_bn
I0827 11:13:29.406816 14822 net.cpp:129] Top shape: 64 232 4 4 (237568)
I0827 11:13:29.406819 14822 net.cpp:137] Memory required for data: 682479104
I0827 11:13:29.406826 14822 layer_factory.hpp:77] Creating layer branch14_2_conv1_scale
I0827 11:13:29.406831 14822 net.cpp:84] Creating Layer branch14_2_conv1_scale
I0827 11:13:29.406836 14822 net.cpp:406] branch14_2_conv1_scale <- branch14_2_conv1
I0827 11:13:29.406839 14822 net.cpp:367] branch14_2_conv1_scale -> branch14_2_conv1 (in-place)
I0827 11:13:29.406877 14822 layer_factory.hpp:77] Creating layer branch14_2_conv1_scale
I0827 11:13:29.406987 14822 net.cpp:122] Setting up branch14_2_conv1_scale
I0827 11:13:29.406997 14822 net.cpp:129] Top shape: 64 232 4 4 (237568)
I0827 11:13:29.407001 14822 net.cpp:137] Memory required for data: 683429376
I0827 11:13:29.407006 14822 layer_factory.hpp:77] Creating layer branch14_2_conv1_relu
I0827 11:13:29.407011 14822 net.cpp:84] Creating Layer branch14_2_conv1_relu
I0827 11:13:29.407014 14822 net.cpp:406] branch14_2_conv1_relu <- branch14_2_conv1
I0827 11:13:29.407019 14822 net.cpp:367] branch14_2_conv1_relu -> branch14_2_conv1 (in-place)
I0827 11:13:29.407024 14822 net.cpp:122] Setting up branch14_2_conv1_relu
I0827 11:13:29.407028 14822 net.cpp:129] Top shape: 64 232 4 4 (237568)
I0827 11:13:29.407032 14822 net.cpp:137] Memory required for data: 684379648
I0827 11:13:29.407034 14822 layer_factory.hpp:77] Creating layer branch14_2_conv2
I0827 11:13:29.407042 14822 net.cpp:84] Creating Layer branch14_2_conv2
I0827 11:13:29.407044 14822 net.cpp:406] branch14_2_conv2 <- branch14_2_conv1
I0827 11:13:29.407052 14822 net.cpp:380] branch14_2_conv2 -> branch14_2_conv2
I0827 11:13:29.407248 14822 net.cpp:122] Setting up branch14_2_conv2
I0827 11:13:29.407258 14822 net.cpp:129] Top shape: 64 232 4 4 (237568)
I0827 11:13:29.407260 14822 net.cpp:137] Memory required for data: 685329920
I0827 11:13:29.407264 14822 layer_factory.hpp:77] Creating layer branch14_2_conv2_bn
I0827 11:13:29.407271 14822 net.cpp:84] Creating Layer branch14_2_conv2_bn
I0827 11:13:29.407275 14822 net.cpp:406] branch14_2_conv2_bn <- branch14_2_conv2
I0827 11:13:29.407279 14822 net.cpp:367] branch14_2_conv2_bn -> branch14_2_conv2 (in-place)
I0827 11:13:29.407459 14822 net.cpp:122] Setting up branch14_2_conv2_bn
I0827 11:13:29.407465 14822 net.cpp:129] Top shape: 64 232 4 4 (237568)
I0827 11:13:29.407469 14822 net.cpp:137] Memory required for data: 686280192
I0827 11:13:29.407475 14822 layer_factory.hpp:77] Creating layer branch14_2_conv2_scale
I0827 11:13:29.407482 14822 net.cpp:84] Creating Layer branch14_2_conv2_scale
I0827 11:13:29.407486 14822 net.cpp:406] branch14_2_conv2_scale <- branch14_2_conv2
I0827 11:13:29.407491 14822 net.cpp:367] branch14_2_conv2_scale -> branch14_2_conv2 (in-place)
I0827 11:13:29.407526 14822 layer_factory.hpp:77] Creating layer branch14_2_conv2_scale
I0827 11:13:29.407635 14822 net.cpp:122] Setting up branch14_2_conv2_scale
I0827 11:13:29.407644 14822 net.cpp:129] Top shape: 64 232 4 4 (237568)
I0827 11:13:29.407646 14822 net.cpp:137] Memory required for data: 687230464
I0827 11:13:29.407651 14822 layer_factory.hpp:77] Creating layer branch14_2_conv3
I0827 11:13:29.407660 14822 net.cpp:84] Creating Layer branch14_2_conv3
I0827 11:13:29.407665 14822 net.cpp:406] branch14_2_conv3 <- branch14_2_conv2
I0827 11:13:29.407671 14822 net.cpp:380] branch14_2_conv3 -> branch14_2_conv3
I0827 11:13:29.408404 14822 net.cpp:122] Setting up branch14_2_conv3
I0827 11:13:29.408414 14822 net.cpp:129] Top shape: 64 232 4 4 (237568)
I0827 11:13:29.408417 14822 net.cpp:137] Memory required for data: 688180736
I0827 11:13:29.408422 14822 layer_factory.hpp:77] Creating layer branch14_2_conv3_bn
I0827 11:13:29.408428 14822 net.cpp:84] Creating Layer branch14_2_conv3_bn
I0827 11:13:29.408432 14822 net.cpp:406] branch14_2_conv3_bn <- branch14_2_conv3
I0827 11:13:29.408437 14822 net.cpp:367] branch14_2_conv3_bn -> branch14_2_conv3 (in-place)
I0827 11:13:29.408622 14822 net.cpp:122] Setting up branch14_2_conv3_bn
I0827 11:13:29.408630 14822 net.cpp:129] Top shape: 64 232 4 4 (237568)
I0827 11:13:29.408633 14822 net.cpp:137] Memory required for data: 689131008
I0827 11:13:29.408639 14822 layer_factory.hpp:77] Creating layer branch14_2_conv3_scale
I0827 11:13:29.408653 14822 net.cpp:84] Creating Layer branch14_2_conv3_scale
I0827 11:13:29.408656 14822 net.cpp:406] branch14_2_conv3_scale <- branch14_2_conv3
I0827 11:13:29.408660 14822 net.cpp:367] branch14_2_conv3_scale -> branch14_2_conv3 (in-place)
I0827 11:13:29.408699 14822 layer_factory.hpp:77] Creating layer branch14_2_conv3_scale
I0827 11:13:29.408814 14822 net.cpp:122] Setting up branch14_2_conv3_scale
I0827 11:13:29.408823 14822 net.cpp:129] Top shape: 64 232 4 4 (237568)
I0827 11:13:29.408825 14822 net.cpp:137] Memory required for data: 690081280
I0827 11:13:29.408831 14822 layer_factory.hpp:77] Creating layer branch14_2_conv3_relu
I0827 11:13:29.408836 14822 net.cpp:84] Creating Layer branch14_2_conv3_relu
I0827 11:13:29.408840 14822 net.cpp:406] branch14_2_conv3_relu <- branch14_2_conv3
I0827 11:13:29.408848 14822 net.cpp:367] branch14_2_conv3_relu -> branch14_2_conv3 (in-place)
I0827 11:13:29.408852 14822 net.cpp:122] Setting up branch14_2_conv3_relu
I0827 11:13:29.408856 14822 net.cpp:129] Top shape: 64 232 4 4 (237568)
I0827 11:13:29.408859 14822 net.cpp:137] Memory required for data: 691031552
I0827 11:13:29.408862 14822 layer_factory.hpp:77] Creating layer concat14
I0827 11:13:29.408866 14822 net.cpp:84] Creating Layer concat14
I0827 11:13:29.408870 14822 net.cpp:406] concat14 <- branch14_1
I0827 11:13:29.408874 14822 net.cpp:406] concat14 <- branch14_2_conv3
I0827 11:13:29.408879 14822 net.cpp:380] concat14 -> concat14
I0827 11:13:29.408902 14822 net.cpp:122] Setting up concat14
I0827 11:13:29.408910 14822 net.cpp:129] Top shape: 64 464 4 4 (475136)
I0827 11:13:29.408912 14822 net.cpp:137] Memory required for data: 692932096
I0827 11:13:29.408915 14822 layer_factory.hpp:77] Creating layer shuffle14
I0827 11:13:29.408921 14822 net.cpp:84] Creating Layer shuffle14
I0827 11:13:29.408924 14822 net.cpp:406] shuffle14 <- concat14
I0827 11:13:29.408928 14822 net.cpp:380] shuffle14 -> shuffle14
I0827 11:13:29.408948 14822 net.cpp:122] Setting up shuffle14
I0827 11:13:29.408955 14822 net.cpp:129] Top shape: 64 464 4 4 (475136)
I0827 11:13:29.408958 14822 net.cpp:137] Memory required for data: 694832640
I0827 11:13:29.408962 14822 layer_factory.hpp:77] Creating layer slice15
I0827 11:13:29.408968 14822 net.cpp:84] Creating Layer slice15
I0827 11:13:29.408972 14822 net.cpp:406] slice15 <- shuffle14
I0827 11:13:29.408977 14822 net.cpp:380] slice15 -> branch15_1
I0827 11:13:29.408983 14822 net.cpp:380] slice15 -> branch15_2
I0827 11:13:29.409015 14822 net.cpp:122] Setting up slice15
I0827 11:13:29.409023 14822 net.cpp:129] Top shape: 64 232 4 4 (237568)
I0827 11:13:29.409026 14822 net.cpp:129] Top shape: 64 232 4 4 (237568)
I0827 11:13:29.409029 14822 net.cpp:137] Memory required for data: 696733184
I0827 11:13:29.409032 14822 layer_factory.hpp:77] Creating layer branch15_2_conv1
I0827 11:13:29.409039 14822 net.cpp:84] Creating Layer branch15_2_conv1
I0827 11:13:29.409042 14822 net.cpp:406] branch15_2_conv1 <- branch15_2
I0827 11:13:29.409049 14822 net.cpp:380] branch15_2_conv1 -> branch15_2_conv1
I0827 11:13:29.409778 14822 net.cpp:122] Setting up branch15_2_conv1
I0827 11:13:29.409786 14822 net.cpp:129] Top shape: 64 232 4 4 (237568)
I0827 11:13:29.409790 14822 net.cpp:137] Memory required for data: 697683456
I0827 11:13:29.409795 14822 layer_factory.hpp:77] Creating layer branch15_2_conv1_bn
I0827 11:13:29.409802 14822 net.cpp:84] Creating Layer branch15_2_conv1_bn
I0827 11:13:29.409806 14822 net.cpp:406] branch15_2_conv1_bn <- branch15_2_conv1
I0827 11:13:29.409811 14822 net.cpp:367] branch15_2_conv1_bn -> branch15_2_conv1 (in-place)
I0827 11:13:29.409992 14822 net.cpp:122] Setting up branch15_2_conv1_bn
I0827 11:13:29.410001 14822 net.cpp:129] Top shape: 64 232 4 4 (237568)
I0827 11:13:29.410003 14822 net.cpp:137] Memory required for data: 698633728
I0827 11:13:29.410010 14822 layer_factory.hpp:77] Creating layer branch15_2_conv1_scale
I0827 11:13:29.410017 14822 net.cpp:84] Creating Layer branch15_2_conv1_scale
I0827 11:13:29.410019 14822 net.cpp:406] branch15_2_conv1_scale <- branch15_2_conv1
I0827 11:13:29.410025 14822 net.cpp:367] branch15_2_conv1_scale -> branch15_2_conv1 (in-place)
I0827 11:13:29.410059 14822 layer_factory.hpp:77] Creating layer branch15_2_conv1_scale
I0827 11:13:29.410176 14822 net.cpp:122] Setting up branch15_2_conv1_scale
I0827 11:13:29.410187 14822 net.cpp:129] Top shape: 64 232 4 4 (237568)
I0827 11:13:29.410189 14822 net.cpp:137] Memory required for data: 699584000
I0827 11:13:29.410194 14822 layer_factory.hpp:77] Creating layer branch15_2_conv1_relu
I0827 11:13:29.410199 14822 net.cpp:84] Creating Layer branch15_2_conv1_relu
I0827 11:13:29.410203 14822 net.cpp:406] branch15_2_conv1_relu <- branch15_2_conv1
I0827 11:13:29.410207 14822 net.cpp:367] branch15_2_conv1_relu -> branch15_2_conv1 (in-place)
I0827 11:13:29.410212 14822 net.cpp:122] Setting up branch15_2_conv1_relu
I0827 11:13:29.410217 14822 net.cpp:129] Top shape: 64 232 4 4 (237568)
I0827 11:13:29.410219 14822 net.cpp:137] Memory required for data: 700534272
I0827 11:13:29.410223 14822 layer_factory.hpp:77] Creating layer branch15_2_conv2
I0827 11:13:29.410229 14822 net.cpp:84] Creating Layer branch15_2_conv2
I0827 11:13:29.410233 14822 net.cpp:406] branch15_2_conv2 <- branch15_2_conv1
I0827 11:13:29.410239 14822 net.cpp:380] branch15_2_conv2 -> branch15_2_conv2
I0827 11:13:29.410439 14822 net.cpp:122] Setting up branch15_2_conv2
I0827 11:13:29.410446 14822 net.cpp:129] Top shape: 64 232 4 4 (237568)
I0827 11:13:29.410449 14822 net.cpp:137] Memory required for data: 701484544
I0827 11:13:29.410454 14822 layer_factory.hpp:77] Creating layer branch15_2_conv2_bn
I0827 11:13:29.410459 14822 net.cpp:84] Creating Layer branch15_2_conv2_bn
I0827 11:13:29.410463 14822 net.cpp:406] branch15_2_conv2_bn <- branch15_2_conv2
I0827 11:13:29.410467 14822 net.cpp:367] branch15_2_conv2_bn -> branch15_2_conv2 (in-place)
I0827 11:13:29.410651 14822 net.cpp:122] Setting up branch15_2_conv2_bn
I0827 11:13:29.410660 14822 net.cpp:129] Top shape: 64 232 4 4 (237568)
I0827 11:13:29.410663 14822 net.cpp:137] Memory required for data: 702434816
I0827 11:13:29.410670 14822 layer_factory.hpp:77] Creating layer branch15_2_conv2_scale
I0827 11:13:29.410677 14822 net.cpp:84] Creating Layer branch15_2_conv2_scale
I0827 11:13:29.410681 14822 net.cpp:406] branch15_2_conv2_scale <- branch15_2_conv2
I0827 11:13:29.410686 14822 net.cpp:367] branch15_2_conv2_scale -> branch15_2_conv2 (in-place)
I0827 11:13:29.410722 14822 layer_factory.hpp:77] Creating layer branch15_2_conv2_scale
I0827 11:13:29.410837 14822 net.cpp:122] Setting up branch15_2_conv2_scale
I0827 11:13:29.410845 14822 net.cpp:129] Top shape: 64 232 4 4 (237568)
I0827 11:13:29.410848 14822 net.cpp:137] Memory required for data: 703385088
I0827 11:13:29.410853 14822 layer_factory.hpp:77] Creating layer branch15_2_conv3
I0827 11:13:29.410862 14822 net.cpp:84] Creating Layer branch15_2_conv3
I0827 11:13:29.410871 14822 net.cpp:406] branch15_2_conv3 <- branch15_2_conv2
I0827 11:13:29.410876 14822 net.cpp:380] branch15_2_conv3 -> branch15_2_conv3
I0827 11:13:29.411603 14822 net.cpp:122] Setting up branch15_2_conv3
I0827 11:13:29.411612 14822 net.cpp:129] Top shape: 64 232 4 4 (237568)
I0827 11:13:29.411615 14822 net.cpp:137] Memory required for data: 704335360
I0827 11:13:29.411619 14822 layer_factory.hpp:77] Creating layer branch15_2_conv3_bn
I0827 11:13:29.411625 14822 net.cpp:84] Creating Layer branch15_2_conv3_bn
I0827 11:13:29.411629 14822 net.cpp:406] branch15_2_conv3_bn <- branch15_2_conv3
I0827 11:13:29.411635 14822 net.cpp:367] branch15_2_conv3_bn -> branch15_2_conv3 (in-place)
I0827 11:13:29.411821 14822 net.cpp:122] Setting up branch15_2_conv3_bn
I0827 11:13:29.411829 14822 net.cpp:129] Top shape: 64 232 4 4 (237568)
I0827 11:13:29.411833 14822 net.cpp:137] Memory required for data: 705285632
I0827 11:13:29.411839 14822 layer_factory.hpp:77] Creating layer branch15_2_conv3_scale
I0827 11:13:29.411845 14822 net.cpp:84] Creating Layer branch15_2_conv3_scale
I0827 11:13:29.411849 14822 net.cpp:406] branch15_2_conv3_scale <- branch15_2_conv3
I0827 11:13:29.411854 14822 net.cpp:367] branch15_2_conv3_scale -> branch15_2_conv3 (in-place)
I0827 11:13:29.411890 14822 layer_factory.hpp:77] Creating layer branch15_2_conv3_scale
I0827 11:13:29.412001 14822 net.cpp:122] Setting up branch15_2_conv3_scale
I0827 11:13:29.412009 14822 net.cpp:129] Top shape: 64 232 4 4 (237568)
I0827 11:13:29.412012 14822 net.cpp:137] Memory required for data: 706235904
I0827 11:13:29.412017 14822 layer_factory.hpp:77] Creating layer branch15_2_conv3_relu
I0827 11:13:29.412022 14822 net.cpp:84] Creating Layer branch15_2_conv3_relu
I0827 11:13:29.412026 14822 net.cpp:406] branch15_2_conv3_relu <- branch15_2_conv3
I0827 11:13:29.412032 14822 net.cpp:367] branch15_2_conv3_relu -> branch15_2_conv3 (in-place)
I0827 11:13:29.412041 14822 net.cpp:122] Setting up branch15_2_conv3_relu
I0827 11:13:29.412045 14822 net.cpp:129] Top shape: 64 232 4 4 (237568)
I0827 11:13:29.412048 14822 net.cpp:137] Memory required for data: 707186176
I0827 11:13:29.412051 14822 layer_factory.hpp:77] Creating layer concat15
I0827 11:13:29.412056 14822 net.cpp:84] Creating Layer concat15
I0827 11:13:29.412060 14822 net.cpp:406] concat15 <- branch15_1
I0827 11:13:29.412062 14822 net.cpp:406] concat15 <- branch15_2_conv3
I0827 11:13:29.412067 14822 net.cpp:380] concat15 -> concat15
I0827 11:13:29.412089 14822 net.cpp:122] Setting up concat15
I0827 11:13:29.412096 14822 net.cpp:129] Top shape: 64 464 4 4 (475136)
I0827 11:13:29.412099 14822 net.cpp:137] Memory required for data: 709086720
I0827 11:13:29.412103 14822 layer_factory.hpp:77] Creating layer shuffle15
I0827 11:13:29.412107 14822 net.cpp:84] Creating Layer shuffle15
I0827 11:13:29.412111 14822 net.cpp:406] shuffle15 <- concat15
I0827 11:13:29.412117 14822 net.cpp:380] shuffle15 -> shuffle15
I0827 11:13:29.412145 14822 net.cpp:122] Setting up shuffle15
I0827 11:13:29.412153 14822 net.cpp:129] Top shape: 64 464 4 4 (475136)
I0827 11:13:29.412156 14822 net.cpp:137] Memory required for data: 710987264
I0827 11:13:29.412159 14822 layer_factory.hpp:77] Creating layer slice16
I0827 11:13:29.412166 14822 net.cpp:84] Creating Layer slice16
I0827 11:13:29.412170 14822 net.cpp:406] slice16 <- shuffle15
I0827 11:13:29.412175 14822 net.cpp:380] slice16 -> branch16_1
I0827 11:13:29.412181 14822 net.cpp:380] slice16 -> branch16_2
I0827 11:13:29.412215 14822 net.cpp:122] Setting up slice16
I0827 11:13:29.412222 14822 net.cpp:129] Top shape: 64 232 4 4 (237568)
I0827 11:13:29.412226 14822 net.cpp:129] Top shape: 64 232 4 4 (237568)
I0827 11:13:29.412230 14822 net.cpp:137] Memory required for data: 712887808
I0827 11:13:29.412232 14822 layer_factory.hpp:77] Creating layer branch16_2_conv1
I0827 11:13:29.412240 14822 net.cpp:84] Creating Layer branch16_2_conv1
I0827 11:13:29.412242 14822 net.cpp:406] branch16_2_conv1 <- branch16_2
I0827 11:13:29.412250 14822 net.cpp:380] branch16_2_conv1 -> branch16_2_conv1
I0827 11:13:29.412976 14822 net.cpp:122] Setting up branch16_2_conv1
I0827 11:13:29.412984 14822 net.cpp:129] Top shape: 64 232 4 4 (237568)
I0827 11:13:29.412987 14822 net.cpp:137] Memory required for data: 713838080
I0827 11:13:29.412992 14822 layer_factory.hpp:77] Creating layer branch16_2_conv1_bn
I0827 11:13:29.412999 14822 net.cpp:84] Creating Layer branch16_2_conv1_bn
I0827 11:13:29.413003 14822 net.cpp:406] branch16_2_conv1_bn <- branch16_2_conv1
I0827 11:13:29.413008 14822 net.cpp:367] branch16_2_conv1_bn -> branch16_2_conv1 (in-place)
I0827 11:13:29.413193 14822 net.cpp:122] Setting up branch16_2_conv1_bn
I0827 11:13:29.413202 14822 net.cpp:129] Top shape: 64 232 4 4 (237568)
I0827 11:13:29.413204 14822 net.cpp:137] Memory required for data: 714788352
I0827 11:13:29.413210 14822 layer_factory.hpp:77] Creating layer branch16_2_conv1_scale
I0827 11:13:29.413218 14822 net.cpp:84] Creating Layer branch16_2_conv1_scale
I0827 11:13:29.413220 14822 net.cpp:406] branch16_2_conv1_scale <- branch16_2_conv1
I0827 11:13:29.413228 14822 net.cpp:367] branch16_2_conv1_scale -> branch16_2_conv1 (in-place)
I0827 11:13:29.413260 14822 layer_factory.hpp:77] Creating layer branch16_2_conv1_scale
I0827 11:13:29.413373 14822 net.cpp:122] Setting up branch16_2_conv1_scale
I0827 11:13:29.413380 14822 net.cpp:129] Top shape: 64 232 4 4 (237568)
I0827 11:13:29.413383 14822 net.cpp:137] Memory required for data: 715738624
I0827 11:13:29.413389 14822 layer_factory.hpp:77] Creating layer branch16_2_conv1_relu
I0827 11:13:29.413393 14822 net.cpp:84] Creating Layer branch16_2_conv1_relu
I0827 11:13:29.413398 14822 net.cpp:406] branch16_2_conv1_relu <- branch16_2_conv1
I0827 11:13:29.413401 14822 net.cpp:367] branch16_2_conv1_relu -> branch16_2_conv1 (in-place)
I0827 11:13:29.413408 14822 net.cpp:122] Setting up branch16_2_conv1_relu
I0827 11:13:29.413413 14822 net.cpp:129] Top shape: 64 232 4 4 (237568)
I0827 11:13:29.413415 14822 net.cpp:137] Memory required for data: 716688896
I0827 11:13:29.413417 14822 layer_factory.hpp:77] Creating layer branch16_2_conv2
I0827 11:13:29.413424 14822 net.cpp:84] Creating Layer branch16_2_conv2
I0827 11:13:29.413426 14822 net.cpp:406] branch16_2_conv2 <- branch16_2_conv1
I0827 11:13:29.413436 14822 net.cpp:380] branch16_2_conv2 -> branch16_2_conv2
I0827 11:13:29.413635 14822 net.cpp:122] Setting up branch16_2_conv2
I0827 11:13:29.413642 14822 net.cpp:129] Top shape: 64 232 4 4 (237568)
I0827 11:13:29.413645 14822 net.cpp:137] Memory required for data: 717639168
I0827 11:13:29.413650 14822 layer_factory.hpp:77] Creating layer branch16_2_conv2_bn
I0827 11:13:29.413655 14822 net.cpp:84] Creating Layer branch16_2_conv2_bn
I0827 11:13:29.413658 14822 net.cpp:406] branch16_2_conv2_bn <- branch16_2_conv2
I0827 11:13:29.413663 14822 net.cpp:367] branch16_2_conv2_bn -> branch16_2_conv2 (in-place)
I0827 11:13:29.413844 14822 net.cpp:122] Setting up branch16_2_conv2_bn
I0827 11:13:29.413852 14822 net.cpp:129] Top shape: 64 232 4 4 (237568)
I0827 11:13:29.413856 14822 net.cpp:137] Memory required for data: 718589440
I0827 11:13:29.413861 14822 layer_factory.hpp:77] Creating layer branch16_2_conv2_scale
I0827 11:13:29.413868 14822 net.cpp:84] Creating Layer branch16_2_conv2_scale
I0827 11:13:29.413872 14822 net.cpp:406] branch16_2_conv2_scale <- branch16_2_conv2
I0827 11:13:29.413877 14822 net.cpp:367] branch16_2_conv2_scale -> branch16_2_conv2 (in-place)
I0827 11:13:29.413911 14822 layer_factory.hpp:77] Creating layer branch16_2_conv2_scale
I0827 11:13:29.414028 14822 net.cpp:122] Setting up branch16_2_conv2_scale
I0827 11:13:29.414036 14822 net.cpp:129] Top shape: 64 232 4 4 (237568)
I0827 11:13:29.414039 14822 net.cpp:137] Memory required for data: 719539712
I0827 11:13:29.414044 14822 layer_factory.hpp:77] Creating layer branch16_2_conv3
I0827 11:13:29.414053 14822 net.cpp:84] Creating Layer branch16_2_conv3
I0827 11:13:29.414057 14822 net.cpp:406] branch16_2_conv3 <- branch16_2_conv2
I0827 11:13:29.414062 14822 net.cpp:380] branch16_2_conv3 -> branch16_2_conv3
I0827 11:13:29.415570 14822 net.cpp:122] Setting up branch16_2_conv3
I0827 11:13:29.415585 14822 net.cpp:129] Top shape: 64 232 4 4 (237568)
I0827 11:13:29.415588 14822 net.cpp:137] Memory required for data: 720489984
I0827 11:13:29.415593 14822 layer_factory.hpp:77] Creating layer branch16_2_conv3_bn
I0827 11:13:29.415601 14822 net.cpp:84] Creating Layer branch16_2_conv3_bn
I0827 11:13:29.415606 14822 net.cpp:406] branch16_2_conv3_bn <- branch16_2_conv3
I0827 11:13:29.415611 14822 net.cpp:367] branch16_2_conv3_bn -> branch16_2_conv3 (in-place)
I0827 11:13:29.415812 14822 net.cpp:122] Setting up branch16_2_conv3_bn
I0827 11:13:29.415820 14822 net.cpp:129] Top shape: 64 232 4 4 (237568)
I0827 11:13:29.415823 14822 net.cpp:137] Memory required for data: 721440256
I0827 11:13:29.415830 14822 layer_factory.hpp:77] Creating layer branch16_2_conv3_scale
I0827 11:13:29.415836 14822 net.cpp:84] Creating Layer branch16_2_conv3_scale
I0827 11:13:29.415839 14822 net.cpp:406] branch16_2_conv3_scale <- branch16_2_conv3
I0827 11:13:29.415846 14822 net.cpp:367] branch16_2_conv3_scale -> branch16_2_conv3 (in-place)
I0827 11:13:29.415889 14822 layer_factory.hpp:77] Creating layer branch16_2_conv3_scale
I0827 11:13:29.416007 14822 net.cpp:122] Setting up branch16_2_conv3_scale
I0827 11:13:29.416015 14822 net.cpp:129] Top shape: 64 232 4 4 (237568)
I0827 11:13:29.416018 14822 net.cpp:137] Memory required for data: 722390528
I0827 11:13:29.416023 14822 layer_factory.hpp:77] Creating layer branch16_2_conv3_relu
I0827 11:13:29.416028 14822 net.cpp:84] Creating Layer branch16_2_conv3_relu
I0827 11:13:29.416033 14822 net.cpp:406] branch16_2_conv3_relu <- branch16_2_conv3
I0827 11:13:29.416038 14822 net.cpp:367] branch16_2_conv3_relu -> branch16_2_conv3 (in-place)
I0827 11:13:29.416043 14822 net.cpp:122] Setting up branch16_2_conv3_relu
I0827 11:13:29.416047 14822 net.cpp:129] Top shape: 64 232 4 4 (237568)
I0827 11:13:29.416050 14822 net.cpp:137] Memory required for data: 723340800
I0827 11:13:29.416054 14822 layer_factory.hpp:77] Creating layer concat16
I0827 11:13:29.416059 14822 net.cpp:84] Creating Layer concat16
I0827 11:13:29.416061 14822 net.cpp:406] concat16 <- branch16_1
I0827 11:13:29.416065 14822 net.cpp:406] concat16 <- branch16_2_conv3
I0827 11:13:29.416070 14822 net.cpp:380] concat16 -> concat16
I0827 11:13:29.416093 14822 net.cpp:122] Setting up concat16
I0827 11:13:29.416100 14822 net.cpp:129] Top shape: 64 464 4 4 (475136)
I0827 11:13:29.416105 14822 net.cpp:137] Memory required for data: 725241344
I0827 11:13:29.416107 14822 layer_factory.hpp:77] Creating layer shuffle16
I0827 11:13:29.416112 14822 net.cpp:84] Creating Layer shuffle16
I0827 11:13:29.416116 14822 net.cpp:406] shuffle16 <- concat16
I0827 11:13:29.416122 14822 net.cpp:380] shuffle16 -> shuffle16
I0827 11:13:29.416152 14822 net.cpp:122] Setting up shuffle16
I0827 11:13:29.416160 14822 net.cpp:129] Top shape: 64 464 4 4 (475136)
I0827 11:13:29.416163 14822 net.cpp:137] Memory required for data: 727141888
I0827 11:13:29.416167 14822 layer_factory.hpp:77] Creating layer conv5
I0827 11:13:29.416177 14822 net.cpp:84] Creating Layer conv5
I0827 11:13:29.416180 14822 net.cpp:406] conv5 <- shuffle16
I0827 11:13:29.416185 14822 net.cpp:380] conv5 -> conv5
I0827 11:13:29.421985 14822 net.cpp:122] Setting up conv5
I0827 11:13:29.421999 14822 net.cpp:129] Top shape: 64 1024 4 4 (1048576)
I0827 11:13:29.422003 14822 net.cpp:137] Memory required for data: 731336192
I0827 11:13:29.422008 14822 layer_factory.hpp:77] Creating layer conv5_bn
I0827 11:13:29.422014 14822 net.cpp:84] Creating Layer conv5_bn
I0827 11:13:29.422019 14822 net.cpp:406] conv5_bn <- conv5
I0827 11:13:29.422024 14822 net.cpp:367] conv5_bn -> conv5 (in-place)
I0827 11:13:29.422205 14822 net.cpp:122] Setting up conv5_bn
I0827 11:13:29.422214 14822 net.cpp:129] Top shape: 64 1024 4 4 (1048576)
I0827 11:13:29.422217 14822 net.cpp:137] Memory required for data: 735530496
I0827 11:13:29.422224 14822 layer_factory.hpp:77] Creating layer conv5_scale
I0827 11:13:29.422232 14822 net.cpp:84] Creating Layer conv5_scale
I0827 11:13:29.422236 14822 net.cpp:406] conv5_scale <- conv5
I0827 11:13:29.422240 14822 net.cpp:367] conv5_scale -> conv5 (in-place)
I0827 11:13:29.422278 14822 layer_factory.hpp:77] Creating layer conv5_scale
I0827 11:13:29.422382 14822 net.cpp:122] Setting up conv5_scale
I0827 11:13:29.422391 14822 net.cpp:129] Top shape: 64 1024 4 4 (1048576)
I0827 11:13:29.422394 14822 net.cpp:137] Memory required for data: 739724800
I0827 11:13:29.422400 14822 layer_factory.hpp:77] Creating layer conv5_relu
I0827 11:13:29.422405 14822 net.cpp:84] Creating Layer conv5_relu
I0827 11:13:29.422408 14822 net.cpp:406] conv5_relu <- conv5
I0827 11:13:29.422412 14822 net.cpp:367] conv5_relu -> conv5 (in-place)
I0827 11:13:29.422417 14822 net.cpp:122] Setting up conv5_relu
I0827 11:13:29.422421 14822 net.cpp:129] Top shape: 64 1024 4 4 (1048576)
I0827 11:13:29.422425 14822 net.cpp:137] Memory required for data: 743919104
I0827 11:13:29.422427 14822 layer_factory.hpp:77] Creating layer pool_ave
I0827 11:13:29.422437 14822 net.cpp:84] Creating Layer pool_ave
I0827 11:13:29.422441 14822 net.cpp:406] pool_ave <- conv5
I0827 11:13:29.422446 14822 net.cpp:380] pool_ave -> pool_ave
I0827 11:13:29.422471 14822 net.cpp:122] Setting up pool_ave
I0827 11:13:29.422478 14822 net.cpp:129] Top shape: 64 1024 1 1 (65536)
I0827 11:13:29.422482 14822 net.cpp:137] Memory required for data: 744181248
I0827 11:13:29.422484 14822 layer_factory.hpp:77] Creating layer pred
I0827 11:13:29.422521 14822 net.cpp:84] Creating Layer pred
I0827 11:13:29.422528 14822 net.cpp:406] pred <- pool_ave
I0827 11:13:29.422533 14822 net.cpp:380] pred -> pred
I0827 11:13:29.425437 14822 net.cpp:122] Setting up pred
I0827 11:13:29.425448 14822 net.cpp:129] Top shape: 64 254 1 1 (16256)
I0827 11:13:29.425452 14822 net.cpp:137] Memory required for data: 744246272
I0827 11:13:29.425458 14822 layer_factory.hpp:77] Creating layer landmark_pred
I0827 11:13:29.425467 14822 net.cpp:84] Creating Layer landmark_pred
I0827 11:13:29.425470 14822 net.cpp:406] landmark_pred <- pred
I0827 11:13:29.425475 14822 net.cpp:380] landmark_pred -> landmark_pred
I0827 11:13:29.425508 14822 net.cpp:122] Setting up landmark_pred
I0827 11:13:29.425514 14822 net.cpp:129] Top shape: 64 254 (16256)
I0827 11:13:29.425518 14822 net.cpp:137] Memory required for data: 744311296
I0827 11:13:29.425521 14822 layer_factory.hpp:77] Creating layer wing_loss
I0827 11:13:29.425527 14822 net.cpp:84] Creating Layer wing_loss
I0827 11:13:29.425531 14822 net.cpp:406] wing_loss <- landmark_pred
I0827 11:13:29.425535 14822 net.cpp:406] wing_loss <- label
I0827 11:13:29.425544 14822 net.cpp:380] wing_loss -> wing_loss
…
