…
I1017 08:33:04.558393 17887 upgrade_proto.cpp:82] Successfully upgraded batch norm layers using deprecated params.
I1017 08:33:04.558773 17887 net.cpp:294] The NetState phase (0) differed from the phase (1) specified by a rule in layer data
I1017 08:33:04.560304 17887 net.cpp:51] Initializing net from parameters: 
name: "shufflenet_v2"
state {
  phase: TRAIN
  level: 0
  stage: ""
}
layer {
  name: "data"
  type: "HDF5Data"
  top: "data"
  top: "label"
  include {
    phase: TRAIN
  }
  hdf5_data_param {
    source: "/home/sxdz/data/landmark/beadwallet/trainHDF5/112/hdf5-norm.txt"
    batch_size: 64
    shuffle: true
  }
}
layer {
  name: "conv1"
  type: "Convolution"
  bottom: "data"
  top: "conv1"
  convolution_param {
    num_output: 24
    bias_term: false
    pad: 1
    kernel_size: 3
    stride: 2
    weight_filler {
      type: "msra"
    }
  }
}
layer {
  name: "conv1_bn"
  type: "BatchNorm"
  bottom: "conv1"
  top: "conv1"
  param {
    lr_mult: 0
    decay_mult: 0
  }
  param {
    lr_mult: 0
    decay_mult: 0
  }
  param {
    lr_mult: 0
    decay_mult: 0
  }
}
layer {
  name: "conv1_scale"
  type: "Scale"
  bottom: "conv1"
  top: "conv1"
  scale_param {
    filler {
      value: 1
    }
    bias_term: true
    bias_filler {
      value: 0
    }
  }
}
layer {
  name: "conv1_relu"
  type: "ReLU"
  bottom: "conv1"
  top: "conv1"
}
layer {
  name: "pool1"
  type: "Pooling"
  bottom: "conv1"
  top: "pool1"
  pooling_param {
    pool: MAX
    kernel_size: 3
    stride: 2
  }
}
layer {
  name: "branch1_1_conv1"
  type: "DepthwiseConvolution"
  bottom: "pool1"
  top: "branch1_1_conv1"
  convolution_param {
    num_output: 24
    bias_term: false
    pad: 1
    kernel_size: 3
    group: 24
    stride: 2
    weight_filler {
      type: "msra"
    }
  }
}
layer {
  name: "branch1_1_conv1_bn"
  type: "BatchNorm"
  bottom: "branch1_1_conv1"
  top: "branch1_1_conv1"
  param {
    lr_mult: 0
    decay_mult: 0
  }
  param {
    lr_mult: 0
    decay_mult: 0
  }
  param {
    lr_mult: 0
    decay_mult: 0
  }
}
layer {
  name: "branch1_1_conv1_scale"
  type: "Scale"
  bottom: "branch1_1_conv1"
  top: "branch1_1_conv1"
  scale_param {
    filler {
      value: 1
    }
    bias_term: true
    bias_filler {
      value: 0
    }
  }
}
layer {
  name: "branch1_1_conv2"
  type: "Convolution"
  bottom: "branch1_1_conv1"
  top: "branch1_1_conv2"
  convolution_param {
    num_output: 58
    bias_term: false
    pad: 0
    kernel_size: 1
    stride: 1
    weight_filler {
      type: "msra"
    }
  }
}
layer {
  name: "branch1_1_conv2_bn"
  type: "BatchNorm"
  bottom: "branch1_1_conv2"
  top: "branch1_1_conv2"
  param {
    lr_mult: 0
    decay_mult: 0
  }
  param {
    lr_mult: 0
    decay_mult: 0
  }
  param {
    lr_mult: 0
    decay_mult: 0
  }
}
layer {
  name: "branch1_1_conv2_scale"
  type: "Scale"
  bottom: "branch1_1_conv2"
  top: "branch1_1_conv2"
  scale_param {
    filler {
      value: 1
    }
    bias_term: true
    bias_filler {
      value: 0
    }
  }
}
layer {
  name: "branch1_1_conv2_relu"
  type: "ReLU"
  bottom: "branch1_1_conv2"
  top: "branch1_1_conv2"
}
layer {
  name: "branch1_2_conv1"
  type: "Convolution"
  bottom: "pool1"
  top: "branch1_2_conv1"
  convolution_param {
    num_output: 58
    bias_term: false
    pad: 0
    kernel_size: 1
    stride: 1
    weight_filler {
      type: "msra"
    }
  }
}
layer {
  name: "branch1_2_conv1_bn"
  type: "BatchNorm"
  bottom: "branch1_2_conv1"
  top: "branch1_2_conv1"
  param {
    lr_mult: 0
    decay_mult: 0
  }
  param {
    lr_mult: 0
    decay_mult: 0
  }
  param {
    lr_mult: 0
    decay_mult: 0
  }
}
layer {
  name: "branch1_2_conv1_scale"
  type: "Scale"
  bottom: "branch1_2_conv1"
  top: "branch1_2_conv1"
  scale_param {
    filler {
      value: 1
    }
    bias_term: true
    bias_filler {
      value: 0
    }
  }
}
layer {
  name: "branch1_2_conv1_relu"
  type: "ReLU"
  bottom: "branch1_2_conv1"
  top: "branch1_2_conv1"
}
layer {
  name: "branch1_2_conv2"
  type: "DepthwiseConvolution"
  bottom: "branch1_2_conv1"
  top: "branch1_2_conv2"
  convolution_param {
    num_output: 58
    bias_term: false
    pad: 1
    kernel_size: 3
    group: 58
    stride: 2
    weight_filler {
      type: "msra"
    }
  }
}
layer {
  name: "branch1_2_conv2_bn"
  type: "BatchNorm"
  bottom: "branch1_2_conv2"
  top: "branch1_2_conv2"
  param {
    lr_mult: 0
    decay_mult: 0
  }
  param {
    lr_mult: 0
    decay_mult: 0
  }
  param {
    lr_mult: 0
    decay_mult: 0
  }
}
layer {
  name: "branch1_2_conv2_scale"
  type: "Scale"
  bottom: "branch1_2_conv2"
  top: "branch1_2_conv2"
  scale_param {
    filler {
      value: 1
    }
    bias_term: true
    bias_filler {
      value: 0
    }
  }
}
layer {
  name: "branch1_2_conv3"
  type: "Convolution"
  bottom: "branch1_2_conv2"
  top: "branch1_2_conv3"
  convolution_param {
    num_output: 58
    bias_term: false
    pad: 0
    kernel_size: 1
    stride: 1
    weight_filler {
      type: "msra"
    }
  }
}
layer {
  name: "branch1_2_conv3_bn"
  type: "BatchNorm"
  bottom: "branch1_2_conv3"
  top: "branch1_2_conv3"
  param {
    lr_mult: 0
    decay_mult: 0
  }
  param {
    lr_mult: 0
    decay_mult: 0
  }
  param {
    lr_mult: 0
    decay_mult: 0
  }
}
layer {
  name: "branch1_2_conv3_scale"
  type: "Scale"
  bottom: "branch1_2_conv3"
  top: "branch1_2_conv3"
  scale_param {
    filler {
      value: 1
    }
    bias_term: true
    bias_filler {
      value: 0
    }
  }
}
layer {
  name: "branch1_2_conv3_relu"
  type: "ReLU"
  bottom: "branch1_2_conv3"
  top: "branch1_2_conv3"
}
layer {
  name: "concat1"
  type: "Concat"
  bottom: "branch1_1_conv2"
  bottom: "branch1_2_conv3"
  top: "concat1"
}
layer {
  name: "shuffle1"
  type: "ShuffleChannel"
  bottom: "concat1"
  top: "shuffle1"
  shuffle_channel_param {
    group: 2
  }
}
layer {
  name: "slice2"
  type: "Slice"
  bottom: "shuffle1"
  top: "branch2_1"
  top: "branch2_2"
  slice_param {
    slice_point: 58
    axis: 1
  }
}
layer {
  name: "branch2_2_conv1"
  type: "Convolution"
  bottom: "branch2_2"
  top: "branch2_2_conv1"
  convolution_param {
    num_output: 58
    bias_term: false
    pad: 0
    kernel_size: 1
    stride: 1
    weight_filler {
      type: "msra"
    }
  }
}
layer {
  name: "branch2_2_conv1_bn"
  type: "BatchNorm"
  bottom: "branch2_2_conv1"
  top: "branch2_2_conv1"
  param {
    lr_mult: 0
    decay_mult: 0
  }
  param {
    lr_mult: 0
    decay_mult: 0
  }
  param {
    lr_mult: 0
    decay_mult: 0
  }
}
layer {
  name: "branch2_2_conv1_scale"
  type: "Scale"
  bottom: "branch2_2_conv1"
  top: "branch2_2_conv1"
  scale_param {
    filler {
      value: 1
    }
    bias_term: true
    bias_filler {
      value: 0
    }
  }
}
layer {
  name: "branch2_2_conv1_relu"
  type: "ReLU"
  bottom: "branch2_2_conv1"
  top: "branch2_2_conv1"
}
layer {
  name: "branch2_2_conv2"
  type: "DepthwiseConvolution"
  bottom: "branch2_2_conv1"
  top: "branch2_2_conv2"
  convolution_param {
    num_output: 58
    bias_term: false
    pad: 1
    kernel_size: 3
    group: 58
    stride: 1
    weight_filler {
      type: "msra"
    }
  }
}
layer {
  name: "branch2_2_conv2_bn"
  type: "BatchNorm"
  bottom: "branch2_2_conv2"
  top: "branch2_2_conv2"
  param {
    lr_mult: 0
    decay_mult: 0
  }
  param {
    lr_mult: 0
    decay_mult: 0
  }
  param {
    lr_mult: 0
    decay_mult: 0
  }
}
layer {
  name: "branch2_2_conv2_scale"
  type: "Scale"
  bottom: "branch2_2_conv2"
  top: "branch2_2_conv2"
  scale_param {
    filler {
      value: 1
    }
    bias_term: true
    bias_filler {
      value: 0
    }
  }
}
layer {
  name: "branch2_2_conv3"
  type: "Convolution"
  bottom: "branch2_2_conv2"
  top: "branch2_2_conv3"
  convolution_param {
    num_output: 58
    bias_term: false
    pad: 0
    kernel_size: 1
    stride: 1
    weight_filler {
      type: "msra"
    }
  }
}
layer {
  name: "branch2_2_conv3_bn"
  type: "BatchNorm"
  bottom: "branch2_2_conv3"
  top: "branch2_2_conv3"
  param {
    lr_mult: 0
    decay_mult: 0
  }
  param {
    lr_mult: 0
    decay_mult: 0
  }
  param {
    lr_mult: 0
    decay_mult: 0
  }
}
layer {
  name: "branch2_2_conv3_scale"
  type: "Scale"
  bottom: "branch2_2_conv3"
  top: "branch2_2_conv3"
  scale_param {
    filler {
      value: 1
    }
    bias_term: true
    bias_filler {
      value: 0
    }
  }
}
layer {
  name: "branch2_2_conv3_relu"
  type: "ReLU"
  bottom: "branch2_2_conv3"
  top: "branch2_2_conv3"
}
layer {
  name: "concat2"
  type: "Concat"
  bottom: "branch2_1"
  bottom: "branch2_2_conv3"
  top: "concat2"
}
layer {
  name: "shuffle2"
  type: "ShuffleChannel"
  bottom: "concat2"
  top: "shuffle2"
  shuffle_channel_param {
    group: 2
  }
}
layer {
  name: "slice3"
  type: "Slice"
  bottom: "shuffle2"
  top: "branch3_1"
  top: "branch3_2"
  slice_param {
    slice_point: 58
    axis: 1
  }
}
layer {
  name: "branch3_2_conv1"
  type: "Convolution"
  bottom: "branch3_2"
  top: "branch3_2_conv1"
  convolution_param {
    num_output: 58
    bias_term: false
    pad: 0
    kernel_size: 1
    stride: 1
    weight_filler {
      type: "msra"
    }
  }
}
layer {
  name: "branch3_2_conv1_bn"
  type: "BatchNorm"
  bottom: "branch3_2_conv1"
  top: "branch3_2_conv1"
  param {
    lr_mult: 0
    decay_mult: 0
  }
  param {
    lr_mult: 0
    decay_mult: 0
  }
  param {
    lr_mult: 0
    decay_mult: 0
  }
}
layer {
  name: "branch3_2_conv1_scale"
  type: "Scale"
  bottom: "branch3_2_conv1"
  top: "branch3_2_conv1"
  scale_param {
    filler {
      value: 1
    }
    bias_term: true
    bias_filler {
      value: 0
    }
  }
}
layer {
  name: "branch3_2_conv1_relu"
  type: "ReLU"
  bottom: "branch3_2_conv1"
  top: "branch3_2_conv1"
}
layer {
  name: "branch3_2_conv2"
  type: "DepthwiseConvolution"
  bottom: "branch3_2_conv1"
  top: "branch3_2_conv2"
  convolution_param {
    num_output: 58
    bias_term: false
    pad: 1
    kernel_size: 3
    group: 58
    stride: 1
    weight_filler {
      type: "msra"
    }
  }
}
layer {
  name: "branch3_2_conv2_bn"
  type: "BatchNorm"
  bottom: "branch3_2_conv2"
  top: "branch3_2_conv2"
  param {
    lr_mult: 0
    decay_mult: 0
  }
  param {
    lr_mult: 0
    decay_mult: 0
  }
  param {
    lr_mult: 0
    decay_mult: 0
  }
}
layer {
  name: "branch3_2_conv2_scale"
  type: "Scale"
  bottom: "branch3_2_conv2"
  top: "branch3_2_conv2"
  scale_param {
    filler {
      value: 1
    }
    bias_term: true
    bias_filler {
      value: 0
    }
  }
}
layer {
  name: "branch3_2_conv3"
  type: "Convolution"
  bottom: "branch3_2_conv2"
  top: "branch3_2_conv3"
  convolution_param {
    num_output: 58
    bias_term: false
    pad: 0
    kernel_size: 1
    stride: 1
    weight_filler {
      type: "msra"
    }
  }
}
layer {
  name: "branch3_2_conv3_bn"
  type: "BatchNorm"
  bottom: "branch3_2_conv3"
  top: "branch3_2_conv3"
  param {
    lr_mult: 0
    decay_mult: 0
  }
  param {
    lr_mult: 0
    decay_mult: 0
  }
  param {
    lr_mult: 0
    decay_mult: 0
  }
}
layer {
  name: "branch3_2_conv3_scale"
  type: "Scale"
  bottom: "branch3_2_conv3"
  top: "branch3_2_conv3"
  scale_param {
    filler {
      value: 1
    }
    bias_term: true
    bias_filler {
      value: 0
    }
  }
}
layer {
  name: "branch3_2_conv3_relu"
  type: "ReLU"
  bottom: "branch3_2_conv3"
  top: "branch3_2_conv3"
}
layer {
  name: "concat3"
  type: "Concat"
  bottom: "branch3_1"
  bottom: "branch3_2_conv3"
  top: "concat3"
}
layer {
  name: "shuffle3"
  type: "ShuffleChannel"
  bottom: "concat3"
  top: "shuffle3"
  shuffle_channel_param {
    group: 2
  }
}
layer {
  name: "slice4"
  type: "Slice"
  bottom: "shuffle3"
  top: "branch4_1"
  top: "branch4_2"
  slice_param {
    slice_point: 58
    axis: 1
  }
}
layer {
  name: "branch4_2_conv1"
  type: "Convolution"
  bottom: "branch4_2"
  top: "branch4_2_conv1"
  convolution_param {
    num_output: 58
    bias_term: false
    pad: 0
    kernel_size: 1
    stride: 1
    weight_filler {
      type: "msra"
    }
  }
}
layer {
  name: "branch4_2_conv1_bn"
  type: "BatchNorm"
  bottom: "branch4_2_conv1"
  top: "branch4_2_conv1"
  param {
    lr_mult: 0
    decay_mult: 0
  }
  param {
    lr_mult: 0
    decay_mult: 0
  }
  param {
    lr_mult: 0
    decay_mult: 0
  }
}
layer {
  name: "branch4_2_conv1_scale"
  type: "Scale"
  bottom: "branch4_2_conv1"
  top: "branch4_2_conv1"
  scale_param {
    filler {
      value: 1
    }
    bias_term: true
    bias_filler {
      value: 0
    }
  }
}
layer {
  name: "branch4_2_conv1_relu"
  type: "ReLU"
  bottom: "branch4_2_conv1"
  top: "branch4_2_conv1"
}
layer {
  name: "branch4_2_conv2"
  type: "DepthwiseConvolution"
  bottom: "branch4_2_conv1"
  top: "branch4_2_conv2"
  convolution_param {
    num_output: 58
    bias_term: false
    pad: 1
    kernel_size: 3
    group: 58
    stride: 1
    weight_filler {
      type: "msra"
    }
  }
}
layer {
  name: "branch4_2_conv2_bn"
  type: "BatchNorm"
  bottom: "branch4_2_conv2"
  top: "branch4_2_conv2"
  param {
    lr_mult: 0
    decay_mult: 0
  }
  param {
    lr_mult: 0
    decay_mult: 0
  }
  param {
    lr_mult: 0
    decay_mult: 0
  }
}
layer {
  name: "branch4_2_conv2_scale"
  type: "Scale"
  bottom: "branch4_2_conv2"
  top: "branch4_2_conv2"
  scale_param {
    filler {
      value: 1
    }
    bias_term: true
    bias_filler {
      value: 0
    }
  }
}
layer {
  name: "branch4_2_conv3"
  type: "Convolution"
  bottom: "branch4_2_conv2"
  top: "branch4_2_conv3"
  convolution_param {
    num_output: 58
    bias_term: false
    pad: 0
    kernel_size: 1
    stride: 1
    weight_filler {
      type: "msra"
    }
  }
}
layer {
  name: "branch4_2_conv3_bn"
  type: "BatchNorm"
  bottom: "branch4_2_conv3"
  top: "branch4_2_conv3"
  param {
    lr_mult: 0
    decay_mult: 0
  }
  param {
    lr_mult: 0
    decay_mult: 0
  }
  param {
    lr_mult: 0
    decay_mult: 0
  }
}
layer {
  name: "branch4_2_conv3_scale"
  type: "Scale"
  bottom: "branch4_2_conv3"
  top: "branch4_2_conv3"
  scale_param {
    filler {
      value: 1
    }
    bias_term: true
    bias_filler {
      value: 0
    }
  }
}
layer {
  name: "branch4_2_conv3_relu"
  type: "ReLU"
  bottom: "branch4_2_conv3"
  top: "branch4_2_conv3"
}
layer {
  name: "concat4"
  type: "Concat"
  bottom: "branch4_1"
  bottom: "branch4_2_conv3"
  top: "concat4"
}
layer {
  name: "shuffle4"
  type: "ShuffleChannel"
  bottom: "concat4"
  top: "shuffle4"
  shuffle_channel_param {
    group: 2
  }
}
layer {
  name: "branch5_1_conv1"
  type: "DepthwiseConvolution"
  bottom: "shuffle4"
  top: "branch5_1_conv1"
  convolution_param {
    num_output: 116
    bias_term: false
    pad: 2
    kernel_size: 3
    group: 116
    stride: 2
    weight_filler {
      type: "msra"
    }
  }
}
layer {
  name: "branch5_1_conv1_bn"
  type: "BatchNorm"
  bottom: "branch5_1_conv1"
  top: "branch5_1_conv1"
  param {
    lr_mult: 0
    decay_mult: 0
  }
  param {
    lr_mult: 0
    decay_mult: 0
  }
  param {
    lr_mult: 0
    decay_mult: 0
  }
}
layer {
  name: "branch5_1_conv1_scale"
  type: "Scale"
  bottom: "branch5_1_conv1"
  top: "branch5_1_conv1"
  scale_param {
    filler {
      value: 1
    }
    bias_term: true
    bias_filler {
      value: 0
    }
  }
}
layer {
  name: "branch5_1_conv2"
  type: "Convolution"
  bottom: "branch5_1_conv1"
  top: "branch5_1_conv2"
  convolution_param {
    num_output: 116
    bias_term: false
    pad: 0
    kernel_size: 1
    stride: 1
    weight_filler {
      type: "msra"
    }
  }
}
layer {
  name: "branch5_1_conv2_bn"
  type: "BatchNorm"
  bottom: "branch5_1_conv2"
  top: "branch5_1_conv2"
  param {
    lr_mult: 0
    decay_mult: 0
  }
  param {
    lr_mult: 0
    decay_mult: 0
  }
  param {
    lr_mult: 0
    decay_mult: 0
  }
}
layer {
  name: "branch5_1_conv2_scale"
  type: "Scale"
  bottom: "branch5_1_conv2"
  top: "branch5_1_conv2"
  scale_param {
    filler {
      value: 1
    }
    bias_term: true
    bias_filler {
      value: 0
    }
  }
}
layer {
  name: "branch5_1_conv2_relu"
  type: "ReLU"
  bottom: "branch5_1_conv2"
  top: "branch5_1_conv2"
}
layer {
  name: "branch5_2_conv1"
  type: "Convolution"
  bottom: "shuffle4"
  top: "branch5_2_conv1"
  convolution_param {
    num_output: 116
    bias_term: false
    pad: 0
    kernel_size: 1
    stride: 1
    weight_filler {
      type: "msra"
    }
  }
}
layer {
  name: "branch5_2_conv1_bn"
  type: "BatchNorm"
  bottom: "branch5_2_conv1"
  top: "branch5_2_conv1"
  param {
    lr_mult: 0
    decay_mult: 0
  }
  param {
    lr_mult: 0
    decay_mult: 0
  }
  param {
    lr_mult: 0
    decay_mult: 0
  }
}
layer {
  name: "branch5_2_conv1_scale"
  type: "Scale"
  bottom: "branch5_2_conv1"
  top: "branch5_2_conv1"
  scale_param {
    filler {
      value: 1
    }
    bias_term: true
    bias_filler {
      value: 0
    }
  }
}
layer {
  name: "branch5_2_conv1_relu"
  type: "ReLU"
  bottom: "branch5_2_conv1"
  top: "branch5_2_conv1"
}
layer {
  name: "branch5_2_conv2"
  type: "DepthwiseConvolution"
  bottom: "branch5_2_conv1"
  top: "branch5_2_conv2"
  convolution_param {
    num_output: 116
    bias_term: false
    pad: 2
    kernel_size: 3
    group: 116
    stride: 2
    weight_filler {
      type: "msra"
    }
  }
}
layer {
  name: "branch5_2_conv2_bn"
  type: "BatchNorm"
  bottom: "branch5_2_conv2"
  top: "branch5_2_conv2"
  param {
    lr_mult: 0
    decay_mult: 0
  }
  param {
    lr_mult: 0
    decay_mult: 0
  }
  param {
    lr_mult: 0
    decay_mult: 0
  }
}
layer {
  name: "branch5_2_conv2_scale"
  type: "Scale"
  bottom: "branch5_2_conv2"
  top: "branch5_2_conv2"
  scale_param {
    filler {
      value: 1
    }
    bias_term: true
    bias_filler {
      value: 0
    }
  }
}
layer {
  name: "branch5_2_conv3"
  type: "Convolution"
  bottom: "branch5_2_conv2"
  top: "branch5_2_conv3"
  convolution_param {
    num_output: 116
    bias_term: false
    pad: 0
    kernel_size: 1
    stride: 1
    weight_filler {
      type: "msra"
    }
  }
}
layer {
  name: "branch5_2_conv3_bn"
  type: "BatchNorm"
  bottom: "branch5_2_conv3"
  top: "branch5_2_conv3"
  param {
    lr_mult: 0
    decay_mult: 0
  }
  param {
    lr_mult: 0
    decay_mult: 0
  }
  param {
    lr_mult: 0
    decay_mult: 0
  }
}
layer {
  name: "branch5_2_conv3_scale"
  type: "Scale"
  bottom: "branch5_2_conv3"
  top: "branch5_2_conv3"
  scale_param {
    filler {
      value: 1
    }
    bias_term: true
    bias_filler {
      value: 0
    }
  }
}
layer {
  name: "branch5_2_conv3_relu"
  type: "ReLU"
  bottom: "branch5_2_conv3"
  top: "branch5_2_conv3"
}
layer {
  name: "concat5"
  type: "Concat"
  bottom: "branch5_1_conv2"
  bottom: "branch5_2_conv3"
  top: "concat5"
}
layer {
  name: "shuffle5"
  type: "ShuffleChannel"
  bottom: "concat5"
  top: "shuffle5"
  shuffle_channel_param {
    group: 2
  }
}
layer {
  name: "slice6"
  type: "Slice"
  bottom: "shuffle5"
  top: "branch6_1"
  top: "branch6_2"
  slice_param {
    slice_point: 116
    axis: 1
  }
}
layer {
  name: "branch6_2_conv1"
  type: "Convolution"
  bottom: "branch6_2"
  top: "branch6_2_conv1"
  convolution_param {
    num_output: 116
    bias_term: false
    pad: 0
    kernel_size: 1
    stride: 1
    weight_filler {
      type: "msra"
    }
  }
}
layer {
  name: "branch6_2_conv1_bn"
  type: "BatchNorm"
  bottom: "branch6_2_conv1"
  top: "branch6_2_conv1"
  param {
    lr_mult: 0
    decay_mult: 0
  }
  param {
    lr_mult: 0
    decay_mult: 0
  }
  param {
    lr_mult: 0
    decay_mult: 0
  }
}
layer {
  name: "branch6_2_conv1_scale"
  type: "Scale"
  bottom: "branch6_2_conv1"
  top: "branch6_2_conv1"
  scale_param {
    filler {
      value: 1
    }
    bias_term: true
    bias_filler {
      value: 0
    }
  }
}
layer {
  name: "branch6_2_conv1_relu"
  type: "ReLU"
  bottom: "branch6_2_conv1"
  top: "branch6_2_conv1"
}
layer {
  name: "branch6_2_conv2"
  type: "DepthwiseConvolution"
  bottom: "branch6_2_conv1"
  top: "branch6_2_conv2"
  convolution_param {
    num_output: 116
    bias_term: false
    pad: 1
    kernel_size: 3
    group: 116
    stride: 1
    weight_filler {
      type: "msra"
    }
  }
}
layer {
  name: "branch6_2_conv2_bn"
  type: "BatchNorm"
  bottom: "branch6_2_conv2"
  top: "branch6_2_conv2"
  param {
    lr_mult: 0
    decay_mult: 0
  }
  param {
    lr_mult: 0
    decay_mult: 0
  }
  param {
    lr_mult: 0
    decay_mult: 0
  }
}
layer {
  name: "branch6_2_conv2_scale"
  type: "Scale"
  bottom: "branch6_2_conv2"
  top: "branch6_2_conv2"
  scale_param {
    filler {
      value: 1
    }
    bias_term: true
    bias_filler {
      value: 0
    }
  }
}
layer {
  name: "branch6_2_conv3"
  type: "Convolution"
  bottom: "branch6_2_conv2"
  top: "branch6_2_conv3"
  convolution_param {
    num_output: 116
    bias_term: false
    pad: 0
    kernel_size: 1
    stride: 1
    weight_filler {
      type: "msra"
    }
  }
}
layer {
  name: "branch6_2_conv3_bn"
  type: "BatchNorm"
  bottom: "branch6_2_conv3"
  top: "branch6_2_conv3"
  param {
    lr_mult: 0
    decay_mult: 0
  }
  param {
    lr_mult: 0
    decay_mult: 0
  }
  param {
    lr_mult: 0
    decay_mult: 0
  }
}
layer {
  name: "branch6_2_conv3_scale"
  type: "Scale"
  bottom: "branch6_2_conv3"
  top: "branch6_2_conv3"
  scale_param {
    filler {
      value: 1
    }
    bias_term: true
    bias_filler {
      value: 0
    }
  }
}
layer {
  name: "branch6_2_conv3_relu"
  type: "ReLU"
  bottom: "branch6_2_conv3"
  top: "branch6_2_conv3"
}
layer {
  name: "concat6"
  type: "Concat"
  bottom: "branch6_1"
  bottom: "branch6_2_conv3"
  top: "concat6"
}
layer {
  name: "shuffle6"
  type: "ShuffleChannel"
  bottom: "concat6"
  top: "shuffle6"
  shuffle_channel_param {
    group: 2
  }
}
layer {
  name: "slice7"
  type: "Slice"
  bottom: "shuffle6"
  top: "branch7_1"
  top: "branch7_2"
  slice_param {
    slice_point: 116
    axis: 1
  }
}
layer {
  name: "branch7_2_conv1"
  type: "Convolution"
  bottom: "branch7_2"
  top: "branch7_2_conv1"
  convolution_param {
    num_output: 116
    bias_term: false
    pad: 0
    kernel_size: 1
    stride: 1
    weight_filler {
      type: "msra"
    }
  }
}
layer {
  name: "branch7_2_conv1_bn"
  type: "BatchNorm"
  bottom: "branch7_2_conv1"
  top: "branch7_2_conv1"
  param {
    lr_mult: 0
    decay_mult: 0
  }
  param {
    lr_mult: 0
    decay_mult: 0
  }
  param {
    lr_mult: 0
    decay_mult: 0
  }
}
layer {
  name: "branch7_2_conv1_scale"
  type: "Scale"
  bottom: "branch7_2_conv1"
  top: "branch7_2_conv1"
  scale_param {
    filler {
      value: 1
    }
    bias_term: true
    bias_filler {
      value: 0
    }
  }
}
layer {
  name: "branch7_2_conv1_relu"
  type: "ReLU"
  bottom: "branch7_2_conv1"
  top: "branch7_2_conv1"
}
layer {
  name: "branch7_2_conv2"
  type: "DepthwiseConvolution"
  bottom: "branch7_2_conv1"
  top: "branch7_2_conv2"
  convolution_param {
    num_output: 116
    bias_term: false
    pad: 1
    kernel_size: 3
    group: 116
    stride: 1
    weight_filler {
      type: "msra"
    }
  }
}
layer {
  name: "branch7_2_conv2_bn"
  type: "BatchNorm"
  bottom: "branch7_2_conv2"
  top: "branch7_2_conv2"
  param {
    lr_mult: 0
    decay_mult: 0
  }
  param {
    lr_mult: 0
    decay_mult: 0
  }
  param {
    lr_mult: 0
    decay_mult: 0
  }
}
layer {
  name: "branch7_2_conv2_scale"
  type: "Scale"
  bottom: "branch7_2_conv2"
  top: "branch7_2_conv2"
  scale_param {
    filler {
      value: 1
    }
    bias_term: true
    bias_filler {
      value: 0
    }
  }
}
layer {
  name: "branch7_2_conv3"
  type: "Convolution"
  bottom: "branch7_2_conv2"
  top: "branch7_2_conv3"
  convolution_param {
    num_output: 116
    bias_term: false
    pad: 0
    kernel_size: 1
    stride: 1
    weight_filler {
      type: "msra"
    }
  }
}
layer {
  name: "branch7_2_conv3_bn"
  type: "BatchNorm"
  bottom: "branch7_2_conv3"
  top: "branch7_2_conv3"
  param {
    lr_mult: 0
    decay_mult: 0
  }
  param {
    lr_mult: 0
    decay_mult: 0
  }
  param {
    lr_mult: 0
    decay_mult: 0
  }
}
layer {
  name: "branch7_2_conv3_scale"
  type: "Scale"
  bottom: "branch7_2_conv3"
  top: "branch7_2_conv3"
  scale_param {
    filler {
      value: 1
    }
    bias_term: true
    bias_filler {
      value: 0
    }
  }
}
layer {
  name: "branch7_2_conv3_relu"
  type: "ReLU"
  bottom: "branch7_2_conv3"
  top: "branch7_2_conv3"
}
layer {
  name: "concat7"
  type: "Concat"
  bottom: "branch7_1"
  bottom: "branch7_2_conv3"
  top: "concat7"
}
layer {
  name: "shuffle7"
  type: "ShuffleChannel"
  bottom: "concat7"
  top: "shuffle7"
  shuffle_channel_param {
    group: 2
  }
}
layer {
  name: "slice8"
  type: "Slice"
  bottom: "shuffle7"
  top: "branch8_1"
  top: "branch8_2"
  slice_param {
    slice_point: 116
    axis: 1
  }
}
layer {
  name: "branch8_2_conv1"
  type: "Convolution"
  bottom: "branch8_2"
  top: "branch8_2_conv1"
  convolution_param {
    num_output: 116
    bias_term: false
    pad: 0
    kernel_size: 1
    stride: 1
    weight_filler {
      type: "msra"
    }
  }
}
layer {
  name: "branch8_2_conv1_bn"
  type: "BatchNorm"
  bottom: "branch8_2_conv1"
  top: "branch8_2_conv1"
  param {
    lr_mult: 0
    decay_mult: 0
  }
  param {
    lr_mult: 0
    decay_mult: 0
  }
  param {
    lr_mult: 0
    decay_mult: 0
  }
}
layer {
  name: "branch8_2_conv1_scale"
  type: "Scale"
  bottom: "branch8_2_conv1"
  top: "branch8_2_conv1"
  scale_param {
    filler {
      value: 1
    }
    bias_term: true
    bias_filler {
      value: 0
    }
  }
}
layer {
  name: "branch8_2_conv1_relu"
  type: "ReLU"
  bottom: "branch8_2_conv1"
  top: "branch8_2_conv1"
}
layer {
  name: "branch8_2_conv2"
  type: "DepthwiseConvolution"
  bottom: "branch8_2_conv1"
  top: "branch8_2_conv2"
  convolution_param {
    num_output: 116
    bias_term: false
    pad: 1
    kernel_size: 3
    group: 116
    stride: 1
    weight_filler {
      type: "msra"
    }
  }
}
layer {
  name: "branch8_2_conv2_bn"
  type: "BatchNorm"
  bottom: "branch8_2_conv2"
  top: "branch8_2_conv2"
  param {
    lr_mult: 0
    decay_mult: 0
  }
  param {
    lr_mult: 0
    decay_mult: 0
  }
  param {
    lr_mult: 0
    decay_mult: 0
  }
}
layer {
  name: "branch8_2_conv2_scale"
  type: "Scale"
  bottom: "branch8_2_conv2"
  top: "branch8_2_conv2"
  scale_param {
    filler {
      value: 1
    }
    bias_term: true
    bias_filler {
      value: 0
    }
  }
}
layer {
  name: "branch8_2_conv3"
  type: "Convolution"
  bottom: "branch8_2_conv2"
  top: "branch8_2_conv3"
  convolution_param {
    num_output: 116
    bias_term: false
    pad: 0
    kernel_size: 1
    stride: 1
    weight_filler {
      type: "msra"
    }
  }
}
layer {
  name: "branch8_2_conv3_bn"
  type: "BatchNorm"
  bottom: "branch8_2_conv3"
  top: "branch8_2_conv3"
  param {
    lr_mult: 0
    decay_mult: 0
  }
  param {
    lr_mult: 0
    decay_mult: 0
  }
  param {
    lr_mult: 0
    decay_mult: 0
  }
}
layer {
  name: "branch8_2_conv3_scale"
  type: "Scale"
  bottom: "branch8_2_conv3"
  top: "branch8_2_conv3"
  scale_param {
    filler {
      value: 1
    }
    bias_term: true
    bias_filler {
      value: 0
    }
  }
}
layer {
  name: "branch8_2_conv3_relu"
  type: "ReLU"
  bottom: "branch8_2_conv3"
  top: "branch8_2_conv3"
}
layer {
  name: "concat8"
  type: "Concat"
  bottom: "branch8_1"
  bottom: "branch8_2_conv3"
  top: "concat8"
}
layer {
  name: "shuffle8"
  type: "ShuffleChannel"
  bottom: "concat8"
  top: "shuffle8"
  shuffle_channel_param {
    group: 2
  }
}
layer {
  name: "slice9"
  type: "Slice"
  bottom: "shuffle8"
  top: "branch9_1"
  top: "branch9_2"
  slice_param {
    slice_point: 116
    axis: 1
  }
}
layer {
  name: "branch9_2_conv1"
  type: "Convolution"
  bottom: "branch9_2"
  top: "branch9_2_conv1"
  convolution_param {
    num_output: 116
    bias_term: false
    pad: 0
    kernel_size: 1
    stride: 1
    weight_filler {
      type: "msra"
    }
  }
}
layer {
  name: "branch9_2_conv1_bn"
  type: "BatchNorm"
  bottom: "branch9_2_conv1"
  top: "branch9_2_conv1"
  param {
    lr_mult: 0
    decay_mult: 0
  }
  param {
    lr_mult: 0
    decay_mult: 0
  }
  param {
    lr_mult: 0
    decay_mult: 0
  }
}
layer {
  name: "branch9_2_conv1_scale"
  type: "Scale"
  bottom: "branch9_2_conv1"
  top: "branch9_2_conv1"
  scale_param {
    filler {
      value: 1
    }
    bias_term: true
    bias_filler {
      value: 0
    }
  }
}
layer {
  name: "branch9_2_conv1_relu"
  type: "ReLU"
  bottom: "branch9_2_conv1"
  top: "branch9_2_conv1"
}
layer {
  name: "branch9_2_conv2"
  type: "DepthwiseConvolution"
  bottom: "branch9_2_conv1"
  top: "branch9_2_conv2"
  convolution_param {
    num_output: 116
    bias_term: false
    pad: 1
    kernel_size: 3
    group: 116
    stride: 1
    weight_filler {
      type: "msra"
    }
  }
}
layer {
  name: "branch9_2_conv2_bn"
  type: "BatchNorm"
  bottom: "branch9_2_conv2"
  top: "branch9_2_conv2"
  param {
    lr_mult: 0
    decay_mult: 0
  }
  param {
    lr_mult: 0
    decay_mult: 0
  }
  param {
    lr_mult: 0
    decay_mult: 0
  }
}
layer {
  name: "branch9_2_conv2_scale"
  type: "Scale"
  bottom: "branch9_2_conv2"
  top: "branch9_2_conv2"
  scale_param {
    filler {
      value: 1
    }
    bias_term: true
    bias_filler {
      value: 0
    }
  }
}
layer {
  name: "branch9_2_conv3"
  type: "Convolution"
  bottom: "branch9_2_conv2"
  top: "branch9_2_conv3"
  convolution_param {
    num_output: 116
    bias_term: false
    pad: 0
    kernel_size: 1
    stride: 1
    weight_filler {
      type: "msra"
    }
  }
}
layer {
  name: "branch9_2_conv3_bn"
  type: "BatchNorm"
  bottom: "branch9_2_conv3"
  top: "branch9_2_conv3"
  param {
    lr_mult: 0
    decay_mult: 0
  }
  param {
    lr_mult: 0
    decay_mult: 0
  }
  param {
    lr_mult: 0
    decay_mult: 0
  }
}
layer {
  name: "branch9_2_conv3_scale"
  type: "Scale"
  bottom: "branch9_2_conv3"
  top: "branch9_2_conv3"
  scale_param {
    filler {
      value: 1
    }
    bias_term: true
    bias_filler {
      value: 0
    }
  }
}
layer {
  name: "branch9_2_conv3_relu"
  type: "ReLU"
  bottom: "branch9_2_conv3"
  top: "branch9_2_conv3"
}
layer {
  name: "concat9"
  type: "Concat"
  bottom: "branch9_1"
  bottom: "branch9_2_conv3"
  top: "concat9"
}
layer {
  name: "shuffle9"
  type: "ShuffleChannel"
  bottom: "concat9"
  top: "shuffle9"
  shuffle_channel_param {
    group: 2
  }
}
l
I1017 08:33:04.561247 17887 layer_factory.hpp:77] Creating layer data
I1017 08:33:04.561265 17887 net.cpp:84] Creating Layer data
I1017 08:33:04.561272 17887 net.cpp:380] data -> data
I1017 08:33:04.561295 17887 net.cpp:380] data -> label
I1017 08:33:04.561305 17887 hdf5_data_layer.cpp:80] Loading list of HDF5 filenames from: /home/sxdz/data/landmark/beadwallet/trainHDF5/112/hdf5-norm.txt
I1017 08:33:04.565755 17887 hdf5_data_layer.cpp:94] Number of HDF5 files: 9437
I1017 08:33:04.566862 17887 hdf5.cpp:32] Datatype class: H5T_FLOAT
I1017 08:33:04.573637 17887 net.cpp:122] Setting up data
I1017 08:33:04.573658 17887 net.cpp:129] Top shape: 64 3 112 112 (2408448)
I1017 08:33:04.573663 17887 net.cpp:129] Top shape: 64 254 (16256)
I1017 08:33:04.573666 17887 net.cpp:137] Memory required for data: 9698816
I1017 08:33:04.573673 17887 layer_factory.hpp:77] Creating layer conv1
I1017 08:33:04.573693 17887 net.cpp:84] Creating Layer conv1
I1017 08:33:04.573698 17887 net.cpp:406] conv1 <- data
I1017 08:33:04.573710 17887 net.cpp:380] conv1 -> conv1
I1017 08:33:04.574297 17887 net.cpp:122] Setting up conv1
I1017 08:33:04.574311 17887 net.cpp:129] Top shape: 64 24 56 56 (4816896)
I1017 08:33:04.574314 17887 net.cpp:137] Memory required for data: 28966400
I1017 08:33:04.574328 17887 layer_factory.hpp:77] Creating layer conv1_bn
I1017 08:33:04.574337 17887 net.cpp:84] Creating Layer conv1_bn
I1017 08:33:04.574340 17887 net.cpp:406] conv1_bn <- conv1
I1017 08:33:04.574347 17887 net.cpp:367] conv1_bn -> conv1 (in-place)
I1017 08:33:04.574527 17887 net.cpp:122] Setting up conv1_bn
I1017 08:33:04.574537 17887 net.cpp:129] Top shape: 64 24 56 56 (4816896)
I1017 08:33:04.574539 17887 net.cpp:137] Memory required for data: 48233984
I1017 08:33:04.574550 17887 layer_factory.hpp:77] Creating layer conv1_scale
I1017 08:33:04.574558 17887 net.cpp:84] Creating Layer conv1_scale
I1017 08:33:04.574563 17887 net.cpp:406] conv1_scale <- conv1
I1017 08:33:04.574568 17887 net.cpp:367] conv1_scale -> conv1 (in-place)
I1017 08:33:04.574607 17887 layer_factory.hpp:77] Creating layer conv1_scale
I1017 08:33:04.574725 17887 net.cpp:122] Setting up conv1_scale
I1017 08:33:04.574734 17887 net.cpp:129] Top shape: 64 24 56 56 (4816896)
I1017 08:33:04.574738 17887 net.cpp:137] Memory required for data: 67501568
I1017 08:33:04.574746 17887 layer_factory.hpp:77] Creating layer conv1_relu
I1017 08:33:04.574753 17887 net.cpp:84] Creating Layer conv1_relu
I1017 08:33:04.574756 17887 net.cpp:406] conv1_relu <- conv1
I1017 08:33:04.574761 17887 net.cpp:367] conv1_relu -> conv1 (in-place)
I1017 08:33:04.574766 17887 net.cpp:122] Setting up conv1_relu
I1017 08:33:04.574770 17887 net.cpp:129] Top shape: 64 24 56 56 (4816896)
I1017 08:33:04.574774 17887 net.cpp:137] Memory required for data: 86769152
I1017 08:33:04.574776 17887 layer_factory.hpp:77] Creating layer pool1
I1017 08:33:04.574782 17887 net.cpp:84] Creating Layer pool1
I1017 08:33:04.574785 17887 net.cpp:406] pool1 <- conv1
I1017 08:33:04.574790 17887 net.cpp:380] pool1 -> pool1
I1017 08:33:04.574833 17887 net.cpp:122] Setting up pool1
I1017 08:33:04.574842 17887 net.cpp:129] Top shape: 64 24 28 28 (1204224)
I1017 08:33:04.574846 17887 net.cpp:137] Memory required for data: 91586048
I1017 08:33:04.574848 17887 layer_factory.hpp:77] Creating layer pool1_pool1_0_split
I1017 08:33:04.574854 17887 net.cpp:84] Creating Layer pool1_pool1_0_split
I1017 08:33:04.574857 17887 net.cpp:406] pool1_pool1_0_split <- pool1
I1017 08:33:04.574863 17887 net.cpp:380] pool1_pool1_0_split -> pool1_pool1_0_split_0
I1017 08:33:04.574870 17887 net.cpp:380] pool1_pool1_0_split -> pool1_pool1_0_split_1
I1017 08:33:04.574901 17887 net.cpp:122] Setting up pool1_pool1_0_split
I1017 08:33:04.574909 17887 net.cpp:129] Top shape: 64 24 28 28 (1204224)
I1017 08:33:04.574913 17887 net.cpp:129] Top shape: 64 24 28 28 (1204224)
I1017 08:33:04.574916 17887 net.cpp:137] Memory required for data: 101219840
I1017 08:33:04.574919 17887 layer_factory.hpp:77] Creating layer branch1_1_conv1
I1017 08:33:04.574928 17887 net.cpp:84] Creating Layer branch1_1_conv1
I1017 08:33:04.574931 17887 net.cpp:406] branch1_1_conv1 <- pool1_pool1_0_split_0
I1017 08:33:04.574936 17887 net.cpp:380] branch1_1_conv1 -> branch1_1_conv1
I1017 08:33:04.575107 17887 net.cpp:122] Setting up branch1_1_conv1
I1017 08:33:04.575117 17887 net.cpp:129] Top shape: 64 24 14 14 (301056)
I1017 08:33:04.575120 17887 net.cpp:137] Memory required for data: 102424064
I1017 08:33:04.575125 17887 layer_factory.hpp:77] Creating layer branch1_1_conv1_bn
I1017 08:33:04.575132 17887 net.cpp:84] Creating Layer branch1_1_conv1_bn
I1017 08:33:04.575136 17887 net.cpp:406] branch1_1_conv1_bn <- branch1_1_conv1
I1017 08:33:04.575141 17887 net.cpp:367] branch1_1_conv1_bn -> branch1_1_conv1 (in-place)
I1017 08:33:04.575309 17887 net.cpp:122] Setting up branch1_1_conv1_bn
I1017 08:33:04.575318 17887 net.cpp:129] Top shape: 64 24 14 14 (301056)
I1017 08:33:04.575321 17887 net.cpp:137] Memory required for data: 103628288
I1017 08:33:04.575331 17887 layer_factory.hpp:77] Creating layer branch1_1_conv1_scale
I1017 08:33:04.575338 17887 net.cpp:84] Creating Layer branch1_1_conv1_scale
I1017 08:33:04.575341 17887 net.cpp:406] branch1_1_conv1_scale <- branch1_1_conv1
I1017 08:33:04.575346 17887 net.cpp:367] branch1_1_conv1_scale -> branch1_1_conv1 (in-place)
I1017 08:33:04.575381 17887 layer_factory.hpp:77] Creating layer branch1_1_conv1_scale
I1017 08:33:04.575486 17887 net.cpp:122] Setting up branch1_1_conv1_scale
I1017 08:33:04.575496 17887 net.cpp:129] Top shape: 64 24 14 14 (301056)
I1017 08:33:04.575500 17887 net.cpp:137] Memory required for data: 104832512
I1017 08:33:04.575505 17887 layer_factory.hpp:77] Creating layer branch1_1_conv2
I1017 08:33:04.575513 17887 net.cpp:84] Creating Layer branch1_1_conv2
I1017 08:33:04.575516 17887 net.cpp:406] branch1_1_conv2 <- branch1_1_conv1
I1017 08:33:04.575522 17887 net.cpp:380] branch1_1_conv2 -> branch1_1_conv2
I1017 08:33:04.575706 17887 net.cpp:122] Setting up branch1_1_conv2
I1017 08:33:04.575716 17887 net.cpp:129] Top shape: 64 58 14 14 (727552)
I1017 08:33:04.575719 17887 net.cpp:137] Memory required for data: 107742720
I1017 08:33:04.575723 17887 layer_factory.hpp:77] Creating layer branch1_1_conv2_bn
I1017 08:33:04.575731 17887 net.cpp:84] Creating Layer branch1_1_conv2_bn
I1017 08:33:04.575733 17887 net.cpp:406] branch1_1_conv2_bn <- branch1_1_conv2
I1017 08:33:04.575738 17887 net.cpp:367] branch1_1_conv2_bn -> branch1_1_conv2 (in-place)
I1017 08:33:04.575912 17887 net.cpp:122] Setting up branch1_1_conv2_bn
I1017 08:33:04.575922 17887 net.cpp:129] Top shape: 64 58 14 14 (727552)
I1017 08:33:04.575924 17887 net.cpp:137] Memory required for data: 110652928
I1017 08:33:04.575932 17887 layer_factory.hpp:77] Creating layer branch1_1_conv2_scale
I1017 08:33:04.575938 17887 net.cpp:84] Creating Layer branch1_1_conv2_scale
I1017 08:33:04.575942 17887 net.cpp:406] branch1_1_conv2_scale <- branch1_1_conv2
I1017 08:33:04.575947 17887 net.cpp:367] branch1_1_conv2_scale -> branch1_1_conv2 (in-place)
I1017 08:33:04.575980 17887 layer_factory.hpp:77] Creating layer branch1_1_conv2_scale
I1017 08:33:04.576082 17887 net.cpp:122] Setting up branch1_1_conv2_scale
I1017 08:33:04.576092 17887 net.cpp:129] Top shape: 64 58 14 14 (727552)
I1017 08:33:04.576094 17887 net.cpp:137] Memory required for data: 113563136
I1017 08:33:04.576103 17887 layer_factory.hpp:77] Creating layer branch1_1_conv2_relu
I1017 08:33:04.576109 17887 net.cpp:84] Creating Layer branch1_1_conv2_relu
I1017 08:33:04.576112 17887 net.cpp:406] branch1_1_conv2_relu <- branch1_1_conv2
I1017 08:33:04.576117 17887 net.cpp:367] branch1_1_conv2_relu -> branch1_1_conv2 (in-place)
I1017 08:33:04.576122 17887 net.cpp:122] Setting up branch1_1_conv2_relu
I1017 08:33:04.576126 17887 net.cpp:129] Top shape: 64 58 14 14 (727552)
I1017 08:33:04.576130 17887 net.cpp:137] Memory required for data: 116473344
I1017 08:33:04.576133 17887 layer_factory.hpp:77] Creating layer branch1_2_conv1
I1017 08:33:04.576140 17887 net.cpp:84] Creating Layer branch1_2_conv1
I1017 08:33:04.576143 17887 net.cpp:406] branch1_2_conv1 <- pool1_pool1_0_split_1
I1017 08:33:04.576148 17887 net.cpp:380] branch1_2_conv1 -> branch1_2_conv1
I1017 08:33:04.576345 17887 net.cpp:122] Setting up branch1_2_conv1
I1017 08:33:04.576356 17887 net.cpp:129] Top shape: 64 58 28 28 (2910208)
I1017 08:33:04.576360 17887 net.cpp:137] Memory required for data: 128114176
I1017 08:33:04.576364 17887 layer_factory.hpp:77] Creating layer branch1_2_conv1_bn
I1017 08:33:04.576370 17887 net.cpp:84] Creating Layer branch1_2_conv1_bn
I1017 08:33:04.576375 17887 net.cpp:406] branch1_2_conv1_bn <- branch1_2_conv1
I1017 08:33:04.576380 17887 net.cpp:367] branch1_2_conv1_bn -> branch1_2_conv1 (in-place)
I1017 08:33:04.576555 17887 net.cpp:122] Setting up branch1_2_conv1_bn
I1017 08:33:04.576563 17887 net.cpp:129] Top shape: 64 58 28 28 (2910208)
I1017 08:33:04.576567 17887 net.cpp:137] Memory required for data: 139755008
I1017 08:33:04.576575 17887 layer_factory.hpp:77] Creating layer branch1_2_conv1_scale
I1017 08:33:04.576583 17887 net.cpp:84] Creating Layer branch1_2_conv1_scale
I1017 08:33:04.576586 17887 net.cpp:406] branch1_2_conv1_scale <- branch1_2_conv1
I1017 08:33:04.576591 17887 net.cpp:367] branch1_2_conv1_scale -> branch1_2_conv1 (in-place)
I1017 08:33:04.576627 17887 layer_factory.hpp:77] Creating layer branch1_2_conv1_scale
I1017 08:33:04.576733 17887 net.cpp:122] Setting up branch1_2_conv1_scale
I1017 08:33:04.576742 17887 net.cpp:129] Top shape: 64 58 28 28 (2910208)
I1017 08:33:04.576745 17887 net.cpp:137] Memory required for data: 151395840
I1017 08:33:04.576751 17887 layer_factory.hpp:77] Creating layer branch1_2_conv1_relu
I1017 08:33:04.576757 17887 net.cpp:84] Creating Layer branch1_2_conv1_relu
I1017 08:33:04.576761 17887 net.cpp:406] branch1_2_conv1_relu <- branch1_2_conv1
I1017 08:33:04.576766 17887 net.cpp:367] branch1_2_conv1_relu -> branch1_2_conv1 (in-place)
I1017 08:33:04.576771 17887 net.cpp:122] Setting up branch1_2_conv1_relu
I1017 08:33:04.576776 17887 net.cpp:129] Top shape: 64 58 28 28 (2910208)
I1017 08:33:04.576777 17887 net.cpp:137] Memory required for data: 163036672
I1017 08:33:04.576781 17887 layer_factory.hpp:77] Creating layer branch1_2_conv2
I1017 08:33:04.576787 17887 net.cpp:84] Creating Layer branch1_2_conv2
I1017 08:33:04.576791 17887 net.cpp:406] branch1_2_conv2 <- branch1_2_conv1
I1017 08:33:04.576795 17887 net.cpp:380] branch1_2_conv2 -> branch1_2_conv2
I1017 08:33:04.576969 17887 net.cpp:122] Setting up branch1_2_conv2
I1017 08:33:04.576979 17887 net.cpp:129] Top shape: 64 58 14 14 (727552)
I1017 08:33:04.576982 17887 net.cpp:137] Memory required for data: 165946880
I1017 08:33:04.576987 17887 layer_factory.hpp:77] Creating layer branch1_2_conv2_bn
I1017 08:33:04.576993 17887 net.cpp:84] Creating Layer branch1_2_conv2_bn
I1017 08:33:04.576997 17887 net.cpp:406] branch1_2_conv2_bn <- branch1_2_conv2
I1017 08:33:04.577001 17887 net.cpp:367] branch1_2_conv2_bn -> branch1_2_conv2 (in-place)
I1017 08:33:04.577193 17887 net.cpp:122] Setting up branch1_2_conv2_bn
I1017 08:33:04.577203 17887 net.cpp:129] Top shape: 64 58 14 14 (727552)
I1017 08:33:04.577205 17887 net.cpp:137] Memory required for data: 168857088
I1017 08:33:04.577214 17887 layer_factory.hpp:77] Creating layer branch1_2_conv2_scale
I1017 08:33:04.577219 17887 net.cpp:84] Creating Layer branch1_2_conv2_scale
I1017 08:33:04.577222 17887 net.cpp:406] branch1_2_conv2_scale <- branch1_2_conv2
I1017 08:33:04.577227 17887 net.cpp:367] branch1_2_conv2_scale -> branch1_2_conv2 (in-place)
I1017 08:33:04.577262 17887 layer_factory.hpp:77] Creating layer branch1_2_conv2_scale
I1017 08:33:04.577369 17887 net.cpp:122] Setting up branch1_2_conv2_scale
I1017 08:33:04.577378 17887 net.cpp:129] Top shape: 64 58 14 14 (727552)
I1017 08:33:04.577381 17887 net.cpp:137] Memory required for data: 171767296
I1017 08:33:04.577387 17887 layer_factory.hpp:77] Creating layer branch1_2_conv3
I1017 08:33:04.577394 17887 net.cpp:84] Creating Layer branch1_2_conv3
I1017 08:33:04.577399 17887 net.cpp:406] branch1_2_conv3 <- branch1_2_conv2
I1017 08:33:04.577404 17887 net.cpp:380] branch1_2_conv3 -> branch1_2_conv3
I1017 08:33:04.577608 17887 net.cpp:122] Setting up branch1_2_conv3
I1017 08:33:04.577620 17887 net.cpp:129] Top shape: 64 58 14 14 (727552)
I1017 08:33:04.577622 17887 net.cpp:137] Memory required for data: 174677504
I1017 08:33:04.577626 17887 layer_factory.hpp:77] Creating layer branch1_2_conv3_bn
I1017 08:33:04.577632 17887 net.cpp:84] Creating Layer branch1_2_conv3_bn
I1017 08:33:04.577636 17887 net.cpp:406] branch1_2_conv3_bn <- branch1_2_conv3
I1017 08:33:04.577641 17887 net.cpp:367] branch1_2_conv3_bn -> branch1_2_conv3 (in-place)
I1017 08:33:04.577816 17887 net.cpp:122] Setting up branch1_2_conv3_bn
I1017 08:33:04.577826 17887 net.cpp:129] Top shape: 64 58 14 14 (727552)
I1017 08:33:04.577829 17887 net.cpp:137] Memory required for data: 177587712
I1017 08:33:04.577841 17887 layer_factory.hpp:77] Creating layer branch1_2_conv3_scale
I1017 08:33:04.577847 17887 net.cpp:84] Creating Layer branch1_2_conv3_scale
I1017 08:33:04.577850 17887 net.cpp:406] branch1_2_conv3_scale <- branch1_2_conv3
I1017 08:33:04.577855 17887 net.cpp:367] branch1_2_conv3_scale -> branch1_2_conv3 (in-place)
I1017 08:33:04.577890 17887 layer_factory.hpp:77] Creating layer branch1_2_conv3_scale
I1017 08:33:04.578001 17887 net.cpp:122] Setting up branch1_2_conv3_scale
I1017 08:33:04.578009 17887 net.cpp:129] Top shape: 64 58 14 14 (727552)
I1017 08:33:04.578013 17887 net.cpp:137] Memory required for data: 180497920
I1017 08:33:04.578019 17887 layer_factory.hpp:77] Creating layer branch1_2_conv3_relu
I1017 08:33:04.578024 17887 net.cpp:84] Creating Layer branch1_2_conv3_relu
I1017 08:33:04.578028 17887 net.cpp:406] branch1_2_conv3_relu <- branch1_2_conv3
I1017 08:33:04.578032 17887 net.cpp:367] branch1_2_conv3_relu -> branch1_2_conv3 (in-place)
I1017 08:33:04.578038 17887 net.cpp:122] Setting up branch1_2_conv3_relu
I1017 08:33:04.578042 17887 net.cpp:129] Top shape: 64 58 14 14 (727552)
I1017 08:33:04.578045 17887 net.cpp:137] Memory required for data: 183408128
I1017 08:33:04.578048 17887 layer_factory.hpp:77] Creating layer concat1
I1017 08:33:04.578052 17887 net.cpp:84] Creating Layer concat1
I1017 08:33:04.578056 17887 net.cpp:406] concat1 <- branch1_1_conv2
I1017 08:33:04.578059 17887 net.cpp:406] concat1 <- branch1_2_conv3
I1017 08:33:04.578064 17887 net.cpp:380] concat1 -> concat1
I1017 08:33:04.578086 17887 net.cpp:122] Setting up concat1
I1017 08:33:04.578094 17887 net.cpp:129] Top shape: 64 116 14 14 (1455104)
I1017 08:33:04.578097 17887 net.cpp:137] Memory required for data: 189228544
I1017 08:33:04.578100 17887 layer_factory.hpp:77] Creating layer shuffle1
I1017 08:33:04.578106 17887 net.cpp:84] Creating Layer shuffle1
I1017 08:33:04.578109 17887 net.cpp:406] shuffle1 <- concat1
I1017 08:33:04.578114 17887 net.cpp:380] shuffle1 -> shuffle1
I1017 08:33:04.578138 17887 net.cpp:122] Setting up shuffle1
I1017 08:33:04.578146 17887 net.cpp:129] Top shape: 64 116 14 14 (1455104)
I1017 08:33:04.578150 17887 net.cpp:137] Memory required for data: 195048960
I1017 08:33:04.578152 17887 layer_factory.hpp:77] Creating layer slice2
I1017 08:33:04.578158 17887 net.cpp:84] Creating Layer slice2
I1017 08:33:04.578162 17887 net.cpp:406] slice2 <- shuffle1
I1017 08:33:04.578166 17887 net.cpp:380] slice2 -> branch2_1
I1017 08:33:04.578174 17887 net.cpp:380] slice2 -> branch2_2
I1017 08:33:04.578207 17887 net.cpp:122] Setting up slice2
I1017 08:33:04.578213 17887 net.cpp:129] Top shape: 64 58 14 14 (727552)
I1017 08:33:04.578218 17887 net.cpp:129] Top shape: 64 58 14 14 (727552)
I1017 08:33:04.578222 17887 net.cpp:137] Memory required for data: 200869376
I1017 08:33:04.578224 17887 layer_factory.hpp:77] Creating layer branch2_2_conv1
I1017 08:33:04.578233 17887 net.cpp:84] Creating Layer branch2_2_conv1
I1017 08:33:04.578235 17887 net.cpp:406] branch2_2_conv1 <- branch2_2
I1017 08:33:04.578240 17887 net.cpp:380] branch2_2_conv1 -> branch2_2_conv1
I1017 08:33:04.578450 17887 net.cpp:122] Setting up branch2_2_conv1
I1017 08:33:04.578459 17887 net.cpp:129] Top shape: 64 58 14 14 (727552)
I1017 08:33:04.578462 17887 net.cpp:137] Memory required for data: 203779584
I1017 08:33:04.578467 17887 layer_factory.hpp:77] Creating layer branch2_2_conv1_bn
I1017 08:33:04.578474 17887 net.cpp:84] Creating Layer branch2_2_conv1_bn
I1017 08:33:04.578477 17887 net.cpp:406] branch2_2_conv1_bn <- branch2_2_conv1
I1017 08:33:04.578481 17887 net.cpp:367] branch2_2_conv1_bn -> branch2_2_conv1 (in-place)
I1017 08:33:04.578660 17887 net.cpp:122] Setting up branch2_2_conv1_bn
I1017 08:33:04.578668 17887 net.cpp:129] Top shape: 64 58 14 14 (727552)
I1017 08:33:04.578671 17887 net.cpp:137] Memory required for data: 206689792
I1017 08:33:04.578678 17887 layer_factory.hpp:77] Creating layer branch2_2_conv1_scale
I1017 08:33:04.578685 17887 net.cpp:84] Creating Layer branch2_2_conv1_scale
I1017 08:33:04.578688 17887 net.cpp:406] branch2_2_conv1_scale <- branch2_2_conv1
I1017 08:33:04.578693 17887 net.cpp:367] branch2_2_conv1_scale -> branch2_2_conv1 (in-place)
I1017 08:33:04.578727 17887 layer_factory.hpp:77] Creating layer branch2_2_conv1_scale
I1017 08:33:04.578833 17887 net.cpp:122] Setting up branch2_2_conv1_scale
I1017 08:33:04.578842 17887 net.cpp:129] Top shape: 64 58 14 14 (727552)
I1017 08:33:04.578845 17887 net.cpp:137] Memory required for data: 209600000
I1017 08:33:04.578851 17887 layer_factory.hpp:77] Creating layer branch2_2_conv1_relu
I1017 08:33:04.578856 17887 net.cpp:84] Creating Layer branch2_2_conv1_relu
I1017 08:33:04.578860 17887 net.cpp:406] branch2_2_conv1_relu <- branch2_2_conv1
I1017 08:33:04.578864 17887 net.cpp:367] branch2_2_conv1_relu -> branch2_2_conv1 (in-place)
I1017 08:33:04.578869 17887 net.cpp:122] Setting up branch2_2_conv1_relu
I1017 08:33:04.578874 17887 net.cpp:129] Top shape: 64 58 14 14 (727552)
I1017 08:33:04.578876 17887 net.cpp:137] Memory required for data: 212510208
I1017 08:33:04.578879 17887 layer_factory.hpp:77] Creating layer branch2_2_conv2
I1017 08:33:04.578891 17887 net.cpp:84] Creating Layer branch2_2_conv2
I1017 08:33:04.578893 17887 net.cpp:406] branch2_2_conv2 <- branch2_2_conv1
I1017 08:33:04.578898 17887 net.cpp:380] branch2_2_conv2 -> branch2_2_conv2
I1017 08:33:04.579079 17887 net.cpp:122] Setting up branch2_2_conv2
I1017 08:33:04.579089 17887 net.cpp:129] Top shape: 64 58 14 14 (727552)
I1017 08:33:04.579092 17887 net.cpp:137] Memory required for data: 215420416
I1017 08:33:04.579097 17887 layer_factory.hpp:77] Creating layer branch2_2_conv2_bn
I1017 08:33:04.579103 17887 net.cpp:84] Creating Layer branch2_2_conv2_bn
I1017 08:33:04.579107 17887 net.cpp:406] branch2_2_conv2_bn <- branch2_2_conv2
I1017 08:33:04.579113 17887 net.cpp:367] branch2_2_conv2_bn -> branch2_2_conv2 (in-place)
I1017 08:33:04.579291 17887 net.cpp:122] Setting up branch2_2_conv2_bn
I1017 08:33:04.579301 17887 net.cpp:129] Top shape: 64 58 14 14 (727552)
I1017 08:33:04.579304 17887 net.cpp:137] Memory required for data: 218330624
I1017 08:33:04.579311 17887 layer_factory.hpp:77] Creating layer branch2_2_conv2_scale
I1017 08:33:04.579318 17887 net.cpp:84] Creating Layer branch2_2_conv2_scale
I1017 08:33:04.579320 17887 net.cpp:406] branch2_2_conv2_scale <- branch2_2_conv2
I1017 08:33:04.579326 17887 net.cpp:367] branch2_2_conv2_scale -> branch2_2_conv2 (in-place)
I1017 08:33:04.579361 17887 layer_factory.hpp:77] Creating layer branch2_2_conv2_scale
I1017 08:33:04.579480 17887 net.cpp:122] Setting up branch2_2_conv2_scale
I1017 08:33:04.579489 17887 net.cpp:129] Top shape: 64 58 14 14 (727552)
I1017 08:33:04.579493 17887 net.cpp:137] Memory required for data: 221240832
I1017 08:33:04.579499 17887 layer_factory.hpp:77] Creating layer branch2_2_conv3
I1017 08:33:04.579509 17887 net.cpp:84] Creating Layer branch2_2_conv3
I1017 08:33:04.579511 17887 net.cpp:406] branch2_2_conv3 <- branch2_2_conv2
I1017 08:33:04.579519 17887 net.cpp:380] branch2_2_conv3 -> branch2_2_conv3
I1017 08:33:04.579749 17887 net.cpp:122] Setting up branch2_2_conv3
I1017 08:33:04.579758 17887 net.cpp:129] Top shape: 64 58 14 14 (727552)
I1017 08:33:04.579761 17887 net.cpp:137] Memory required for data: 224151040
I1017 08:33:04.579766 17887 layer_factory.hpp:77] Creating layer branch2_2_conv3_bn
I1017 08:33:04.579772 17887 net.cpp:84] Creating Layer branch2_2_conv3_bn
I1017 08:33:04.579775 17887 net.cpp:406] branch2_2_conv3_bn <- branch2_2_conv3
I1017 08:33:04.579782 17887 net.cpp:367] branch2_2_conv3_bn -> branch2_2_conv3 (in-place)
I1017 08:33:04.579969 17887 net.cpp:122] Setting up branch2_2_conv3_bn
I1017 08:33:04.579978 17887 net.cpp:129] Top shape: 64 58 14 14 (727552)
I1017 08:33:04.579982 17887 net.cpp:137] Memory required for data: 227061248
I1017 08:33:04.579988 17887 layer_factory.hpp:77] Creating layer branch2_2_conv3_scale
I1017 08:33:04.579993 17887 net.cpp:84] Creating Layer branch2_2_conv3_scale
I1017 08:33:04.579998 17887 net.cpp:406] branch2_2_conv3_scale <- branch2_2_conv3
I1017 08:33:04.580003 17887 net.cpp:367] branch2_2_conv3_scale -> branch2_2_conv3 (in-place)
I1017 08:33:04.580039 17887 layer_factory.hpp:77] Creating layer branch2_2_conv3_scale
I1017 08:33:04.580160 17887 net.cpp:122] Setting up branch2_2_conv3_scale
I1017 08:33:04.580173 17887 net.cpp:129] Top shape: 64 58 14 14 (727552)
I1017 08:33:04.580176 17887 net.cpp:137] Memory required for data: 229971456
I1017 08:33:04.580181 17887 layer_factory.hpp:77] Creating layer branch2_2_conv3_relu
I1017 08:33:04.580188 17887 net.cpp:84] Creating Layer branch2_2_conv3_relu
I1017 08:33:04.580190 17887 net.cpp:406] branch2_2_conv3_relu <- branch2_2_conv3
I1017 08:33:04.580195 17887 net.cpp:367] branch2_2_conv3_relu -> branch2_2_conv3 (in-place)
I1017 08:33:04.580201 17887 net.cpp:122] Setting up branch2_2_conv3_relu
I1017 08:33:04.580205 17887 net.cpp:129] Top shape: 64 58 14 14 (727552)
I1017 08:33:04.580209 17887 net.cpp:137] Memory required for data: 232881664
I1017 08:33:04.580211 17887 layer_factory.hpp:77] Creating layer concat2
I1017 08:33:04.580216 17887 net.cpp:84] Creating Layer concat2
I1017 08:33:04.580219 17887 net.cpp:406] concat2 <- branch2_1
I1017 08:33:04.580224 17887 net.cpp:406] concat2 <- branch2_2_conv3
I1017 08:33:04.580229 17887 net.cpp:380] concat2 -> concat2
I1017 08:33:04.580252 17887 net.cpp:122] Setting up concat2
I1017 08:33:04.580262 17887 net.cpp:129] Top shape: 64 116 14 14 (1455104)
I1017 08:33:04.580265 17887 net.cpp:137] Memory required for data: 238702080
I1017 08:33:04.580268 17887 layer_factory.hpp:77] Creating layer shuffle2
I1017 08:33:04.580274 17887 net.cpp:84] Creating Layer shuffle2
I1017 08:33:04.580277 17887 net.cpp:406] shuffle2 <- concat2
I1017 08:33:04.580282 17887 net.cpp:380] shuffle2 -> shuffle2
I1017 08:33:04.580305 17887 net.cpp:122] Setting up shuffle2
I1017 08:33:04.580313 17887 net.cpp:129] Top shape: 64 116 14 14 (1455104)
I1017 08:33:04.580317 17887 net.cpp:137] Memory required for data: 244522496
I1017 08:33:04.580320 17887 layer_factory.hpp:77] Creating layer slice3
I1017 08:33:04.580325 17887 net.cpp:84] Creating Layer slice3
I1017 08:33:04.580329 17887 net.cpp:406] slice3 <- shuffle2
I1017 08:33:04.580334 17887 net.cpp:380] slice3 -> branch3_1
I1017 08:33:04.580340 17887 net.cpp:380] slice3 -> branch3_2
I1017 08:33:04.580374 17887 net.cpp:122] Setting up slice3
I1017 08:33:04.580381 17887 net.cpp:129] Top shape: 64 58 14 14 (727552)
I1017 08:33:04.580385 17887 net.cpp:129] Top shape: 64 58 14 14 (727552)
I1017 08:33:04.580389 17887 net.cpp:137] Memory required for data: 250342912
I1017 08:33:04.580391 17887 layer_factory.hpp:77] Creating layer branch3_2_conv1
I1017 08:33:04.580402 17887 net.cpp:84] Creating Layer branch3_2_conv1
I1017 08:33:04.580406 17887 net.cpp:406] branch3_2_conv1 <- branch3_2
I1017 08:33:04.580411 17887 net.cpp:380] branch3_2_conv1 -> branch3_2_conv1
I1017 08:33:04.580638 17887 net.cpp:122] Setting up branch3_2_conv1
I1017 08:33:04.580648 17887 net.cpp:129] Top shape: 64 58 14 14 (727552)
I1017 08:33:04.580651 17887 net.cpp:137] Memory required for data: 253253120
I1017 08:33:04.580657 17887 layer_factory.hpp:77] Creating layer branch3_2_conv1_bn
I1017 08:33:04.580664 17887 net.cpp:84] Creating Layer branch3_2_conv1_bn
I1017 08:33:04.580667 17887 net.cpp:406] branch3_2_conv1_bn <- branch3_2_conv1
I1017 08:33:04.580672 17887 net.cpp:367] branch3_2_conv1_bn -> branch3_2_conv1 (in-place)
I1017 08:33:04.580862 17887 net.cpp:122] Setting up branch3_2_conv1_bn
I1017 08:33:04.580870 17887 net.cpp:129] Top shape: 64 58 14 14 (727552)
I1017 08:33:04.580873 17887 net.cpp:137] Memory required for data: 256163328
I1017 08:33:04.580880 17887 layer_factory.hpp:77] Creating layer branch3_2_conv1_scale
I1017 08:33:04.580886 17887 net.cpp:84] Creating Layer branch3_2_conv1_scale
I1017 08:33:04.580890 17887 net.cpp:406] branch3_2_conv1_scale <- branch3_2_conv1
I1017 08:33:04.580901 17887 net.cpp:367] branch3_2_conv1_scale -> branch3_2_conv1 (in-place)
I1017 08:33:04.580938 17887 layer_factory.hpp:77] Creating layer branch3_2_conv1_scale
I1017 08:33:04.581060 17887 net.cpp:122] Setting up branch3_2_conv1_scale
I1017 08:33:04.581069 17887 net.cpp:129] Top shape: 64 58 14 14 (727552)
I1017 08:33:04.581073 17887 net.cpp:137] Memory required for data: 259073536
I1017 08:33:04.581079 17887 layer_factory.hpp:77] Creating layer branch3_2_conv1_relu
I1017 08:33:04.581084 17887 net.cpp:84] Creating Layer branch3_2_conv1_relu
I1017 08:33:04.581086 17887 net.cpp:406] branch3_2_conv1_relu <- branch3_2_conv1
I1017 08:33:04.581094 17887 net.cpp:367] branch3_2_conv1_relu -> branch3_2_conv1 (in-place)
I1017 08:33:04.581099 17887 net.cpp:122] Setting up branch3_2_conv1_relu
I1017 08:33:04.581104 17887 net.cpp:129] Top shape: 64 58 14 14 (727552)
I1017 08:33:04.581105 17887 net.cpp:137] Memory required for data: 261983744
I1017 08:33:04.581109 17887 layer_factory.hpp:77] Creating layer branch3_2_conv2
I1017 08:33:04.581115 17887 net.cpp:84] Creating Layer branch3_2_conv2
I1017 08:33:04.581117 17887 net.cpp:406] branch3_2_conv2 <- branch3_2_conv1
I1017 08:33:04.581125 17887 net.cpp:380] branch3_2_conv2 -> branch3_2_conv2
I1017 08:33:04.581321 17887 net.cpp:122] Setting up branch3_2_conv2
I1017 08:33:04.581332 17887 net.cpp:129] Top shape: 64 58 14 14 (727552)
I1017 08:33:04.581336 17887 net.cpp:137] Memory required for data: 264893952
I1017 08:33:04.581341 17887 layer_factory.hpp:77] Creating layer branch3_2_conv2_bn
I1017 08:33:04.581346 17887 net.cpp:84] Creating Layer branch3_2_conv2_bn
I1017 08:33:04.581349 17887 net.cpp:406] branch3_2_conv2_bn <- branch3_2_conv2
I1017 08:33:04.581354 17887 net.cpp:367] branch3_2_conv2_bn -> branch3_2_conv2 (in-place)
I1017 08:33:04.581544 17887 net.cpp:122] Setting up branch3_2_conv2_bn
I1017 08:33:04.581553 17887 net.cpp:129] Top shape: 64 58 14 14 (727552)
I1017 08:33:04.581557 17887 net.cpp:137] Memory required for data: 267804160
I1017 08:33:04.581563 17887 layer_factory.hpp:77] Creating layer branch3_2_conv2_scale
I1017 08:33:04.581571 17887 net.cpp:84] Creating Layer branch3_2_conv2_scale
I1017 08:33:04.581575 17887 net.cpp:406] branch3_2_conv2_scale <- branch3_2_conv2
I1017 08:33:04.581579 17887 net.cpp:367] branch3_2_conv2_scale -> branch3_2_conv2 (in-place)
I1017 08:33:04.581617 17887 layer_factory.hpp:77] Creating layer branch3_2_conv2_scale
I1017 08:33:04.581739 17887 net.cpp:122] Setting up branch3_2_conv2_scale
I1017 08:33:04.581748 17887 net.cpp:129] Top shape: 64 58 14 14 (727552)
I1017 08:33:04.581751 17887 net.cpp:137] Memory required for data: 270714368
I1017 08:33:04.581768 17887 layer_factory.hpp:77] Creating layer branch3_2_conv3
I1017 08:33:04.581777 17887 net.cpp:84] Creating Layer branch3_2_conv3
I1017 08:33:04.581781 17887 net.cpp:406] branch3_2_conv3 <- branch3_2_conv2
I1017 08:33:04.581787 17887 net.cpp:380] branch3_2_conv3 -> branch3_2_conv3
I1017 08:33:04.582012 17887 net.cpp:122] Setting up branch3_2_conv3
I1017 08:33:04.582022 17887 net.cpp:129] Top shape: 64 58 14 14 (727552)
I1017 08:33:04.582026 17887 net.cpp:137] Memory required for data: 273624576
I1017 08:33:04.582029 17887 layer_factory.hpp:77] Creating layer branch3_2_conv3_bn
I1017 08:33:04.582036 17887 net.cpp:84] Creating Layer branch3_2_conv3_bn
I1017 08:33:04.582039 17887 net.cpp:406] branch3_2_conv3_bn <- branch3_2_conv3
I1017 08:33:04.582051 17887 net.cpp:367] branch3_2_conv3_bn -> branch3_2_conv3 (in-place)
I1017 08:33:04.582243 17887 net.cpp:122] Setting up branch3_2_conv3_bn
I1017 08:33:04.582252 17887 net.cpp:129] Top shape: 64 58 14 14 (727552)
I1017 08:33:04.582255 17887 net.cpp:137] Memory required for data: 276534784
I1017 08:33:04.582262 17887 layer_factory.hpp:77] Creating layer branch3_2_conv3_scale
I1017 08:33:04.582268 17887 net.cpp:84] Creating Layer branch3_2_conv3_scale
I1017 08:33:04.582271 17887 net.cpp:406] branch3_2_conv3_scale <- branch3_2_conv3
I1017 08:33:04.582276 17887 net.cpp:367] branch3_2_conv3_scale -> branch3_2_conv3 (in-place)
I1017 08:33:04.582314 17887 layer_factory.hpp:77] Creating layer branch3_2_conv3_scale
I1017 08:33:04.582432 17887 net.cpp:122] Setting up branch3_2_conv3_scale
I1017 08:33:04.582442 17887 net.cpp:129] Top shape: 64 58 14 14 (727552)
I1017 08:33:04.582445 17887 net.cpp:137] Memory required for data: 279444992
I1017 08:33:04.582451 17887 layer_factory.hpp:77] Creating layer branch3_2_conv3_relu
I1017 08:33:04.582458 17887 net.cpp:84] Creating Layer branch3_2_conv3_relu
I1017 08:33:04.582461 17887 net.cpp:406] branch3_2_conv3_relu <- branch3_2_conv3
I1017 08:33:04.582466 17887 net.cpp:367] branch3_2_conv3_relu -> branch3_2_conv3 (in-place)
I1017 08:33:04.582471 17887 net.cpp:122] Setting up branch3_2_conv3_relu
I1017 08:33:04.582476 17887 net.cpp:129] Top shape: 64 58 14 14 (727552)
I1017 08:33:04.582479 17887 net.cpp:137] Memory required for data: 282355200
I1017 08:33:04.582482 17887 layer_factory.hpp:77] Creating layer concat3
I1017 08:33:04.582486 17887 net.cpp:84] Creating Layer concat3
I1017 08:33:04.582490 17887 net.cpp:406] concat3 <- branch3_1
I1017 08:33:04.582494 17887 net.cpp:406] concat3 <- branch3_2_conv3
I1017 08:33:04.582500 17887 net.cpp:380] concat3 -> concat3
I1017 08:33:04.582522 17887 net.cpp:122] Setting up concat3
I1017 08:33:04.582532 17887 net.cpp:129] Top shape: 64 116 14 14 (1455104)
I1017 08:33:04.582535 17887 net.cpp:137] Memory required for data: 288175616
I1017 08:33:04.582540 17887 layer_factory.hpp:77] Creating layer shuffle3
I1017 08:33:04.582545 17887 net.cpp:84] Creating Layer shuffle3
I1017 08:33:04.582548 17887 net.cpp:406] shuffle3 <- concat3
I1017 08:33:04.582553 17887 net.cpp:380] shuffle3 -> shuffle3
I1017 08:33:04.582576 17887 net.cpp:122] Setting up shuffle3
I1017 08:33:04.582584 17887 net.cpp:129] Top shape: 64 116 14 14 (1455104)
I1017 08:33:04.582587 17887 net.cpp:137] Memory required for data: 293996032
I1017 08:33:04.582590 17887 layer_factory.hpp:77] Creating layer slice4
I1017 08:33:04.582595 17887 net.cpp:84] Creating Layer slice4
I1017 08:33:04.582599 17887 net.cpp:406] slice4 <- shuffle3
I1017 08:33:04.582604 17887 net.cpp:380] slice4 -> branch4_1
I1017 08:33:04.582610 17887 net.cpp:380] slice4 -> branch4_2
I1017 08:33:04.582643 17887 net.cpp:122] Setting up slice4
I1017 08:33:04.582651 17887 net.cpp:129] Top shape: 64 58 14 14 (727552)
I1017 08:33:04.582655 17887 net.cpp:129] Top shape: 64 58 14 14 (727552)
I1017 08:33:04.582659 17887 net.cpp:137] Memory required for data: 299816448
I1017 08:33:04.582661 17887 layer_factory.hpp:77] Creating layer branch4_2_conv1
I1017 08:33:04.582669 17887 net.cpp:84] Creating Layer branch4_2_conv1
I1017 08:33:04.582672 17887 net.cpp:406] branch4_2_conv1 <- branch4_2
I1017 08:33:04.582679 17887 net.cpp:380] branch4_2_conv1 -> branch4_2_conv1
I1017 08:33:04.582900 17887 net.cpp:122] Setting up branch4_2_conv1
I1017 08:33:04.582909 17887 net.cpp:129] Top shape: 64 58 14 14 (727552)
I1017 08:33:04.582912 17887 net.cpp:137] Memory required for data: 302726656
I1017 08:33:04.582917 17887 layer_factory.hpp:77] Creating layer branch4_2_conv1_bn
I1017 08:33:04.582926 17887 net.cpp:84] Creating Layer branch4_2_conv1_bn
I1017 08:33:04.582931 17887 net.cpp:406] branch4_2_conv1_bn <- branch4_2_conv1
I1017 08:33:04.582935 17887 net.cpp:367] branch4_2_conv1_bn -> branch4_2_conv1 (in-place)
I1017 08:33:04.583132 17887 net.cpp:122] Setting up branch4_2_conv1_bn
I1017 08:33:04.583142 17887 net.cpp:129] Top shape: 64 58 14 14 (727552)
I1017 08:33:04.583144 17887 net.cpp:137] Memory required for data: 305636864
I1017 08:33:04.583151 17887 layer_factory.hpp:77] Creating layer branch4_2_conv1_scale
I1017 08:33:04.583158 17887 net.cpp:84] Creating Layer branch4_2_conv1_scale
I1017 08:33:04.583160 17887 net.cpp:406] branch4_2_conv1_scale <- branch4_2_conv1
I1017 08:33:04.583168 17887 net.cpp:367] branch4_2_conv1_scale -> branch4_2_conv1 (in-place)
I1017 08:33:04.583205 17887 layer_factory.hpp:77] Creating layer branch4_2_conv1_scale
I1017 08:33:04.583341 17887 net.cpp:122] Setting up branch4_2_conv1_scale
I1017 08:33:04.583350 17887 net.cpp:129] Top shape: 64 58 14 14 (727552)
I1017 08:33:04.583354 17887 net.cpp:137] Memory required for data: 308547072
I1017 08:33:04.583359 17887 layer_factory.hpp:77] Creating layer branch4_2_conv1_relu
I1017 08:33:04.583365 17887 net.cpp:84] Creating Layer branch4_2_conv1_relu
I1017 08:33:04.583369 17887 net.cpp:406] branch4_2_conv1_relu <- branch4_2_conv1
I1017 08:33:04.583374 17887 net.cpp:367] branch4_2_conv1_relu -> branch4_2_conv1 (in-place)
I1017 08:33:04.583380 17887 net.cpp:122] Setting up branch4_2_conv1_relu
I1017 08:33:04.583384 17887 net.cpp:129] Top shape: 64 58 14 14 (727552)
I1017 08:33:04.583387 17887 net.cpp:137] Memory required for data: 311457280
I1017 08:33:04.583390 17887 layer_factory.hpp:77] Creating layer branch4_2_conv2
I1017 08:33:04.583398 17887 net.cpp:84] Creating Layer branch4_2_conv2
I1017 08:33:04.583401 17887 net.cpp:406] branch4_2_conv2 <- branch4_2_conv1
I1017 08:33:04.583408 17887 net.cpp:380] branch4_2_conv2 -> branch4_2_conv2
I1017 08:33:04.583606 17887 net.cpp:122] Setting up branch4_2_conv2
I1017 08:33:04.583616 17887 net.cpp:129] Top shape: 64 58 14 14 (727552)
I1017 08:33:04.583619 17887 net.cpp:137] Memory required for data: 314367488
I1017 08:33:04.583624 17887 layer_factory.hpp:77] Creating layer branch4_2_conv2_bn
I1017 08:33:04.583631 17887 net.cpp:84] Creating Layer branch4_2_conv2_bn
I1017 08:33:04.583633 17887 net.cpp:406] branch4_2_conv2_bn <- branch4_2_conv2
I1017 08:33:04.583638 17887 net.cpp:367] branch4_2_conv2_bn -> branch4_2_conv2 (in-place)
I1017 08:33:04.583833 17887 net.cpp:122] Setting up branch4_2_conv2_bn
I1017 08:33:04.583842 17887 net.cpp:129] Top shape: 64 58 14 14 (727552)
I1017 08:33:04.583845 17887 net.cpp:137] Memory required for data: 317277696
I1017 08:33:04.583853 17887 layer_factory.hpp:77] Creating layer branch4_2_conv2_scale
I1017 08:33:04.583860 17887 net.cpp:84] Creating Layer branch4_2_conv2_scale
I1017 08:33:04.583863 17887 net.cpp:406] branch4_2_conv2_scale <- branch4_2_conv2
I1017 08:33:04.583868 17887 net.cpp:367] branch4_2_conv2_scale -> branch4_2_conv2 (in-place)
I1017 08:33:04.583907 17887 layer_factory.hpp:77] Creating layer branch4_2_conv2_scale
I1017 08:33:04.584033 17887 net.cpp:122] Setting up branch4_2_conv2_scale
I1017 08:33:04.584041 17887 net.cpp:129] Top shape: 64 58 14 14 (727552)
I1017 08:33:04.584044 17887 net.cpp:137] Memory required for data: 320187904
I1017 08:33:04.584050 17887 layer_factory.hpp:77] Creating layer branch4_2_conv3
I1017 08:33:04.584060 17887 net.cpp:84] Creating Layer branch4_2_conv3
I1017 08:33:04.584064 17887 net.cpp:406] branch4_2_conv3 <- branch4_2_conv2
I1017 08:33:04.584071 17887 net.cpp:380] branch4_2_conv3 -> branch4_2_conv3
I1017 08:33:04.584295 17887 net.cpp:122] Setting up branch4_2_conv3
I1017 08:33:04.584306 17887 net.cpp:129] Top shape: 64 58 14 14 (727552)
I1017 08:33:04.584308 17887 net.cpp:137] Memory required for data: 323098112
I1017 08:33:04.584312 17887 layer_factory.hpp:77] Creating layer branch4_2_conv3_bn
I1017 08:33:04.584329 17887 net.cpp:84] Creating Layer branch4_2_conv3_bn
I1017 08:33:04.584332 17887 net.cpp:406] branch4_2_conv3_bn <- branch4_2_conv3
I1017 08:33:04.584337 17887 net.cpp:367] branch4_2_conv3_bn -> branch4_2_conv3 (in-place)
I1017 08:33:04.584540 17887 net.cpp:122] Setting up branch4_2_conv3_bn
I1017 08:33:04.584550 17887 net.cpp:129] Top shape: 64 58 14 14 (727552)
I1017 08:33:04.584553 17887 net.cpp:137] Memory required for data: 326008320
I1017 08:33:04.584560 17887 layer_factory.hpp:77] Creating layer branch4_2_conv3_scale
I1017 08:33:04.584570 17887 net.cpp:84] Creating Layer branch4_2_conv3_scale
I1017 08:33:04.584573 17887 net.cpp:406] branch4_2_conv3_scale <- branch4_2_conv3
I1017 08:33:04.584578 17887 net.cpp:367] branch4_2_conv3_scale -> branch4_2_conv3 (in-place)
I1017 08:33:04.584619 17887 layer_factory.hpp:77] Creating layer branch4_2_conv3_scale
I1017 08:33:04.584741 17887 net.cpp:122] Setting up branch4_2_conv3_scale
I1017 08:33:04.584750 17887 net.cpp:129] Top shape: 64 58 14 14 (727552)
I1017 08:33:04.584753 17887 net.cpp:137] Memory required for data: 328918528
I1017 08:33:04.584759 17887 layer_factory.hpp:77] Creating layer branch4_2_conv3_relu
I1017 08:33:04.584764 17887 net.cpp:84] Creating Layer branch4_2_conv3_relu
I1017 08:33:04.584767 17887 net.cpp:406] branch4_2_conv3_relu <- branch4_2_conv3
I1017 08:33:04.584774 17887 net.cpp:367] branch4_2_conv3_relu -> branch4_2_conv3 (in-place)
I1017 08:33:04.584780 17887 net.cpp:122] Setting up branch4_2_conv3_relu
I1017 08:33:04.584785 17887 net.cpp:129] Top shape: 64 58 14 14 (727552)
I1017 08:33:04.584787 17887 net.cpp:137] Memory required for data: 331828736
I1017 08:33:04.584790 17887 layer_factory.hpp:77] Creating layer concat4
I1017 08:33:04.584795 17887 net.cpp:84] Creating Layer concat4
I1017 08:33:04.584798 17887 net.cpp:406] concat4 <- branch4_1
I1017 08:33:04.584802 17887 net.cpp:406] concat4 <- branch4_2_conv3
I1017 08:33:04.584807 17887 net.cpp:380] concat4 -> concat4
I1017 08:33:04.584836 17887 net.cpp:122] Setting up concat4
I1017 08:33:04.584846 17887 net.cpp:129] Top shape: 64 116 14 14 (1455104)
I1017 08:33:04.584848 17887 net.cpp:137] Memory required for data: 337649152
I1017 08:33:04.584851 17887 layer_factory.hpp:77] Creating layer shuffle4
I1017 08:33:04.584856 17887 net.cpp:84] Creating Layer shuffle4
I1017 08:33:04.584859 17887 net.cpp:406] shuffle4 <- concat4
I1017 08:33:04.584866 17887 net.cpp:380] shuffle4 -> shuffle4
I1017 08:33:04.584887 17887 net.cpp:122] Setting up shuffle4
I1017 08:33:04.584893 17887 net.cpp:129] Top shape: 64 116 14 14 (1455104)
I1017 08:33:04.584897 17887 net.cpp:137] Memory required for data: 343469568
I1017 08:33:04.584899 17887 layer_factory.hpp:77] Creating layer shuffle4_shuffle4_0_split
I1017 08:33:04.584908 17887 net.cpp:84] Creating Layer shuffle4_shuffle4_0_split
I1017 08:33:04.584911 17887 net.cpp:406] shuffle4_shuffle4_0_split <- shuffle4
I1017 08:33:04.584916 17887 net.cpp:380] shuffle4_shuffle4_0_split -> shuffle4_shuffle4_0_split_0
I1017 08:33:04.584923 17887 net.cpp:380] shuffle4_shuffle4_0_split -> shuffle4_shuffle4_0_split_1
I1017 08:33:04.584954 17887 net.cpp:122] Setting up shuffle4_shuffle4_0_split
I1017 08:33:04.584962 17887 net.cpp:129] Top shape: 64 116 14 14 (1455104)
I1017 08:33:04.584967 17887 net.cpp:129] Top shape: 64 116 14 14 (1455104)
I1017 08:33:04.584970 17887 net.cpp:137] Memory required for data: 355110400
I1017 08:33:04.584973 17887 layer_factory.hpp:77] Creating layer branch5_1_conv1
I1017 08:33:04.584980 17887 net.cpp:84] Creating Layer branch5_1_conv1
I1017 08:33:04.584982 17887 net.cpp:406] branch5_1_conv1 <- shuffle4_shuffle4_0_split_0
I1017 08:33:04.584990 17887 net.cpp:380] branch5_1_conv1 -> branch5_1_conv1
I1017 08:33:04.585197 17887 net.cpp:122] Setting up branch5_1_conv1
I1017 08:33:04.585208 17887 net.cpp:129] Top shape: 64 116 8 8 (475136)
I1017 08:33:04.585211 17887 net.cpp:137] Memory required for data: 357010944
I1017 08:33:04.585216 17887 layer_factory.hpp:77] Creating layer branch5_1_conv1_bn
I1017 08:33:04.585224 17887 net.cpp:84] Creating Layer branch5_1_conv1_bn
I1017 08:33:04.585228 17887 net.cpp:406] branch5_1_conv1_bn <- branch5_1_conv1
I1017 08:33:04.585233 17887 net.cpp:367] branch5_1_conv1_bn -> branch5_1_conv1 (in-place)
I1017 08:33:04.585429 17887 net.cpp:122] Setting up branch5_1_conv1_bn
I1017 08:33:04.585438 17887 net.cpp:129] Top shape: 64 116 8 8 (475136)
I1017 08:33:04.585441 17887 net.cpp:137] Memory required for data: 358911488
I1017 08:33:04.585448 17887 layer_factory.hpp:77] Creating layer branch5_1_conv1_scale
I1017 08:33:04.585454 17887 net.cpp:84] Creating Layer branch5_1_conv1_scale
I1017 08:33:04.585458 17887 net.cpp:406] branch5_1_conv1_scale <- branch5_1_conv1
I1017 08:33:04.585465 17887 net.cpp:367] branch5_1_conv1_scale -> branch5_1_conv1 (in-place)
I1017 08:33:04.585502 17887 layer_factory.hpp:77] Creating layer branch5_1_conv1_scale
I1017 08:33:04.585628 17887 net.cpp:122] Setting up branch5_1_conv1_scale
I1017 08:33:04.585636 17887 net.cpp:129] Top shape: 64 116 8 8 (475136)
I1017 08:33:04.585639 17887 net.cpp:137] Memory required for data: 360812032
I1017 08:33:04.585645 17887 layer_factory.hpp:77] Creating layer branch5_1_conv2
I1017 08:33:04.585652 17887 net.cpp:84] Creating Layer branch5_1_conv2
I1017 08:33:04.585656 17887 net.cpp:406] branch5_1_conv2 <- branch5_1_conv1
I1017 08:33:04.585669 17887 net.cpp:380] branch5_1_conv2 -> branch5_1_conv2
I1017 08:33:04.586019 17887 net.cpp:122] Setting up branch5_1_conv2
I1017 08:33:04.586030 17887 net.cpp:129] Top shape: 64 116 8 8 (475136)
I1017 08:33:04.586033 17887 net.cpp:137] Memory required for data: 362712576
I1017 08:33:04.586038 17887 layer_factory.hpp:77] Creating layer branch5_1_conv2_bn
I1017 08:33:04.586048 17887 net.cpp:84] Creating Layer branch5_1_conv2_bn
I1017 08:33:04.586051 17887 net.cpp:406] branch5_1_conv2_bn <- branch5_1_conv2
I1017 08:33:04.586057 17887 net.cpp:367] branch5_1_conv2_bn -> branch5_1_conv2 (in-place)
I1017 08:33:04.586251 17887 net.cpp:122] Setting up branch5_1_conv2_bn
I1017 08:33:04.586261 17887 net.cpp:129] Top shape: 64 116 8 8 (475136)
I1017 08:33:04.586264 17887 net.cpp:137] Memory required for data: 364613120
I1017 08:33:04.586272 17887 layer_factory.hpp:77] Creating layer branch5_1_conv2_scale
I1017 08:33:04.586277 17887 net.cpp:84] Creating Layer branch5_1_conv2_scale
I1017 08:33:04.586280 17887 net.cpp:406] branch5_1_conv2_scale <- branch5_1_conv2
I1017 08:33:04.586287 17887 net.cpp:367] branch5_1_conv2_scale -> branch5_1_conv2 (in-place)
I1017 08:33:04.586324 17887 layer_factory.hpp:77] Creating layer branch5_1_conv2_scale
I1017 08:33:04.586449 17887 net.cpp:122] Setting up branch5_1_conv2_scale
I1017 08:33:04.586457 17887 net.cpp:129] Top shape: 64 116 8 8 (475136)
I1017 08:33:04.586462 17887 net.cpp:137] Memory required for data: 366513664
I1017 08:33:04.586467 17887 layer_factory.hpp:77] Creating layer branch5_1_conv2_relu
I1017 08:33:04.586472 17887 net.cpp:84] Creating Layer branch5_1_conv2_relu
I1017 08:33:04.586475 17887 net.cpp:406] branch5_1_conv2_relu <- branch5_1_conv2
I1017 08:33:04.586479 17887 net.cpp:367] branch5_1_conv2_relu -> branch5_1_conv2 (in-place)
I1017 08:33:04.586485 17887 net.cpp:122] Setting up branch5_1_conv2_relu
I1017 08:33:04.586489 17887 net.cpp:129] Top shape: 64 116 8 8 (475136)
I1017 08:33:04.586493 17887 net.cpp:137] Memory required for data: 368414208
I1017 08:33:04.586495 17887 layer_factory.hpp:77] Creating layer branch5_2_conv1
I1017 08:33:04.586503 17887 net.cpp:84] Creating Layer branch5_2_conv1
I1017 08:33:04.586508 17887 net.cpp:406] branch5_2_conv1 <- shuffle4_shuffle4_0_split_1
I1017 08:33:04.586515 17887 net.cpp:380] branch5_2_conv1 -> branch5_2_conv1
I1017 08:33:04.586864 17887 net.cpp:122] Setting up branch5_2_conv1
I1017 08:33:04.586874 17887 net.cpp:129] Top shape: 64 116 14 14 (1455104)
I1017 08:33:04.586877 17887 net.cpp:137] Memory required for data: 374234624
I1017 08:33:04.586882 17887 layer_factory.hpp:77] Creating layer branch5_2_conv1_bn
I1017 08:33:04.586889 17887 net.cpp:84] Creating Layer branch5_2_conv1_bn
I1017 08:33:04.586891 17887 net.cpp:406] branch5_2_conv1_bn <- branch5_2_conv1
I1017 08:33:04.586896 17887 net.cpp:367] branch5_2_conv1_bn -> branch5_2_conv1 (in-place)
I1017 08:33:04.587090 17887 net.cpp:122] Setting up branch5_2_conv1_bn
I1017 08:33:04.587100 17887 net.cpp:129] Top shape: 64 116 14 14 (1455104)
I1017 08:33:04.587102 17887 net.cpp:137] Memory required for data: 380055040
I1017 08:33:04.587110 17887 layer_factory.hpp:77] Creating layer branch5_2_conv1_scale
I1017 08:33:04.587117 17887 net.cpp:84] Creating Layer branch5_2_conv1_scale
I1017 08:33:04.587121 17887 net.cpp:406] branch5_2_conv1_scale <- branch5_2_conv1
I1017 08:33:04.587126 17887 net.cpp:367] branch5_2_conv1_scale -> branch5_2_conv1 (in-place)
I1017 08:33:04.587167 17887 layer_factory.hpp:77] Creating layer branch5_2_conv1_scale
I1017 08:33:04.587294 17887 net.cpp:122] Setting up branch5_2_conv1_scale
I1017 08:33:04.587303 17887 net.cpp:129] Top shape: 64 116 14 14 (1455104)
I1017 08:33:04.587306 17887 net.cpp:137] Memory required for data: 385875456
I1017 08:33:04.587312 17887 layer_factory.hpp:77] Creating layer branch5_2_conv1_relu
I1017 08:33:04.587319 17887 net.cpp:84] Creating Layer branch5_2_conv1_relu
I1017 08:33:04.587322 17887 net.cpp:406] branch5_2_conv1_relu <- branch5_2_conv1
I1017 08:33:04.587327 17887 net.cpp:367] branch5_2_conv1_relu -> branch5_2_conv1 (in-place)
I1017 08:33:04.587332 17887 net.cpp:122] Setting up branch5_2_conv1_relu
I1017 08:33:04.587338 17887 net.cpp:129] Top shape: 64 116 14 14 (1455104)
I1017 08:33:04.587340 17887 net.cpp:137] Memory required for data: 391695872
I1017 08:33:04.587343 17887 layer_factory.hpp:77] Creating layer branch5_2_conv2
I1017 08:33:04.587352 17887 net.cpp:84] Creating Layer branch5_2_conv2
I1017 08:33:04.587354 17887 net.cpp:406] branch5_2_conv2 <- branch5_2_conv1
I1017 08:33:04.587359 17887 net.cpp:380] branch5_2_conv2 -> branch5_2_conv2
I1017 08:33:04.587561 17887 net.cpp:122] Setting up branch5_2_conv2
I1017 08:33:04.587572 17887 net.cpp:129] Top shape: 64 116 8 8 (475136)
I1017 08:33:04.587575 17887 net.cpp:137] Memory required for data: 393596416
I1017 08:33:04.587580 17887 layer_factory.hpp:77] Creating layer branch5_2_conv2_bn
I1017 08:33:04.587586 17887 net.cpp:84] Creating Layer branch5_2_conv2_bn
I1017 08:33:04.587589 17887 net.cpp:406] branch5_2_conv2_bn <- branch5_2_conv2
I1017 08:33:04.587596 17887 net.cpp:367] branch5_2_conv2_bn -> branch5_2_conv2 (in-place)
I1017 08:33:04.587792 17887 net.cpp:122] Setting up branch5_2_conv2_bn
I1017 08:33:04.587801 17887 net.cpp:129] Top shape: 64 116 8 8 (475136)
I1017 08:33:04.587805 17887 net.cpp:137] Memory required for data: 395496960
I1017 08:33:04.587811 17887 layer_factory.hpp:77] Creating layer branch5_2_conv2_scale
I1017 08:33:04.587817 17887 net.cpp:84] Creating Layer branch5_2_conv2_scale
I1017 08:33:04.587821 17887 net.cpp:406] branch5_2_conv2_scale <- branch5_2_conv2
I1017 08:33:04.587826 17887 net.cpp:367] branch5_2_conv2_scale -> branch5_2_conv2 (in-place)
I1017 08:33:04.587863 17887 layer_factory.hpp:77] Creating layer branch5_2_conv2_scale
I1017 08:33:04.587985 17887 net.cpp:122] Setting up branch5_2_conv2_scale
I1017 08:33:04.587992 17887 net.cpp:129] Top shape: 64 116 8 8 (475136)
I1017 08:33:04.587996 17887 net.cpp:137] Memory required for data: 397397504
I1017 08:33:04.588001 17887 layer_factory.hpp:77] Creating layer branch5_2_conv3
I1017 08:33:04.588011 17887 net.cpp:84] Creating Layer branch5_2_conv3
I1017 08:33:04.588014 17887 net.cpp:406] branch5_2_conv3 <- branch5_2_conv2
I1017 08:33:04.588021 17887 net.cpp:380] branch5_2_conv3 -> branch5_2_conv3
I1017 08:33:04.588374 17887 net.cpp:122] Setting up branch5_2_conv3
I1017 08:33:04.588384 17887 net.cpp:129] Top shape: 64 116 8 8 (475136)
I1017 08:33:04.588387 17887 net.cpp:137] Memory required for data: 399298048
I1017 08:33:04.588392 17887 layer_factory.hpp:77] Creating layer branch5_2_conv3_bn
I1017 08:33:04.588397 17887 net.cpp:84] Creating Layer branch5_2_conv3_bn
I1017 08:33:04.588402 17887 net.cpp:406] branch5_2_conv3_bn <- branch5_2_conv3
I1017 08:33:04.588408 17887 net.cpp:367] branch5_2_conv3_bn -> branch5_2_conv3 (in-place)
I1017 08:33:04.588605 17887 net.cpp:122] Setting up branch5_2_conv3_bn
I1017 08:33:04.588614 17887 net.cpp:129] Top shape: 64 116 8 8 (475136)
I1017 08:33:04.588618 17887 net.cpp:137] Memory required for data: 401198592
I1017 08:33:04.588624 17887 layer_factory.hpp:77] Creating layer branch5_2_conv3_scale
I1017 08:33:04.588629 17887 net.cpp:84] Creating Layer branch5_2_conv3_scale
I1017 08:33:04.588634 17887 net.cpp:406] branch5_2_conv3_scale <- branch5_2_conv3
I1017 08:33:04.588639 17887 net.cpp:367] branch5_2_conv3_scale -> branch5_2_conv3 (in-place)
I1017 08:33:04.588677 17887 layer_factory.hpp:77] Creating layer branch5_2_conv3_scale
I1017 08:33:04.588801 17887 net.cpp:122] Setting up branch5_2_conv3_scale
I1017 08:33:04.588810 17887 net.cpp:129] Top shape: 64 116 8 8 (475136)
I1017 08:33:04.588814 17887 net.cpp:137] Memory required for data: 403099136
I1017 08:33:04.588819 17887 layer_factory.hpp:77] Creating layer branch5_2_conv3_relu
I1017 08:33:04.588826 17887 net.cpp:84] Creating Layer branch5_2_conv3_relu
I1017 08:33:04.588829 17887 net.cpp:406] branch5_2_conv3_relu <- branch5_2_conv3
I1017 08:33:04.588835 17887 net.cpp:367] branch5_2_conv3_relu -> branch5_2_conv3 (in-place)
I1017 08:33:04.588840 17887 net.cpp:122] Setting up branch5_2_conv3_relu
I1017 08:33:04.588845 17887 net.cpp:129] Top shape: 64 116 8 8 (475136)
I1017 08:33:04.588847 17887 net.cpp:137] Memory required for data: 404999680
I1017 08:33:04.588850 17887 layer_factory.hpp:77] Creating layer concat5
I1017 08:33:04.588855 17887 net.cpp:84] Creating Layer concat5
I1017 08:33:04.588858 17887 net.cpp:406] concat5 <- branch5_1_conv2
I1017 08:33:04.588861 17887 net.cpp:406] concat5 <- branch5_2_conv3
I1017 08:33:04.588868 17887 net.cpp:380] concat5 -> concat5
I1017 08:33:04.588891 17887 net.cpp:122] Setting up concat5
I1017 08:33:04.588901 17887 net.cpp:129] Top shape: 64 232 8 8 (950272)
I1017 08:33:04.588903 17887 net.cpp:137] Memory required for data: 408800768
I1017 08:33:04.588907 17887 layer_factory.hpp:77] Creating layer shuffle5
I1017 08:33:04.588912 17887 net.cpp:84] Creating Layer shuffle5
I1017 08:33:04.588915 17887 net.cpp:406] shuffle5 <- concat5
I1017 08:33:04.588920 17887 net.cpp:380] shuffle5 -> shuffle5
I1017 08:33:04.588945 17887 net.cpp:122] Setting up shuffle5
I1017 08:33:04.588953 17887 net.cpp:129] Top shape: 64 232 8 8 (950272)
I1017 08:33:04.588956 17887 net.cpp:137] Memory required for data: 412601856
I1017 08:33:04.588959 17887 layer_factory.hpp:77] Creating layer slice6
I1017 08:33:04.588964 17887 net.cpp:84] Creating Layer slice6
I1017 08:33:04.588968 17887 net.cpp:406] slice6 <- shuffle5
I1017 08:33:04.588973 17887 net.cpp:380] slice6 -> branch6_1
I1017 08:33:04.588979 17887 net.cpp:380] slice6 -> branch6_2
I1017 08:33:04.589017 17887 net.cpp:122] Setting up slice6
I1017 08:33:04.589025 17887 net.cpp:129] Top shape: 64 116 8 8 (475136)
I1017 08:33:04.589030 17887 net.cpp:129] Top shape: 64 116 8 8 (475136)
I1017 08:33:04.589033 17887 net.cpp:137] Memory required for data: 416402944
I1017 08:33:04.589036 17887 layer_factory.hpp:77] Creating layer branch6_2_conv1
I1017 08:33:04.589045 17887 net.cpp:84] Creating Layer branch6_2_conv1
I1017 08:33:04.589047 17887 net.cpp:406] branch6_2_conv1 <- branch6_2
I1017 08:33:04.589056 17887 net.cpp:380] branch6_2_conv1 -> branch6_2_conv1
I1017 08:33:04.589414 17887 net.cpp:122] Setting up branch6_2_conv1
I1017 08:33:04.589426 17887 net.cpp:129] Top shape: 64 116 8 8 (475136)
I1017 08:33:04.589429 17887 net.cpp:137] Memory required for data: 418303488
I1017 08:33:04.589434 17887 layer_factory.hpp:77] Creating layer branch6_2_conv1_bn
I1017 08:33:04.589442 17887 net.cpp:84] Creating Layer branch6_2_conv1_bn
I1017 08:33:04.589447 17887 net.cpp:406] branch6_2_conv1_bn <- branch6_2_conv1
I1017 08:33:04.589452 17887 net.cpp:367] branch6_2_conv1_bn -> branch6_2_conv1 (in-place)
I1017 08:33:04.589649 17887 net.cpp:122] Setting up branch6_2_conv1_bn
I1017 08:33:04.589658 17887 net.cpp:129] Top shape: 64 116 8 8 (475136)
I1017 08:33:04.589661 17887 net.cpp:137] Memory required for data: 420204032
I1017 08:33:04.589668 17887 layer_factory.hpp:77] Creating layer branch6_2_conv1_scale
I1017 08:33:04.589674 17887 net.cpp:84] Creating Layer branch6_2_conv1_scale
I1017 08:33:04.589679 17887 net.cpp:406] branch6_2_conv1_scale <- branch6_2_conv1
I1017 08:33:04.589685 17887 net.cpp:367] branch6_2_conv1_scale -> branch6_2_conv1 (in-place)
I1017 08:33:04.589721 17887 layer_factory.hpp:77] Creating layer branch6_2_conv1_scale
I1017 08:33:04.589851 17887 net.cpp:122] Setting up branch6_2_conv1_scale
I1017 08:33:04.589860 17887 net.cpp:129] Top shape: 64 116 8 8 (475136)
I1017 08:33:04.589864 17887 net.cpp:137] Memory required for data: 422104576
I1017 08:33:04.589869 17887 layer_factory.hpp:77] Creating layer branch6_2_conv1_relu
I1017 08:33:04.589874 17887 net.cpp:84] Creating Layer branch6_2_conv1_relu
I1017 08:33:04.589879 17887 net.cpp:406] branch6_2_conv1_relu <- branch6_2_conv1
I1017 08:33:04.589884 17887 net.cpp:367] branch6_2_conv1_relu -> branch6_2_conv1 (in-place)
I1017 08:33:04.589888 17887 net.cpp:122] Setting up branch6_2_conv1_relu
I1017 08:33:04.589892 17887 net.cpp:129] Top shape: 64 116 8 8 (475136)
I1017 08:33:04.589895 17887 net.cpp:137] Memory required for data: 424005120
I1017 08:33:04.589898 17887 layer_factory.hpp:77] Creating layer branch6_2_conv2
I1017 08:33:04.589906 17887 net.cpp:84] Creating Layer branch6_2_conv2
I1017 08:33:04.589910 17887 net.cpp:406] branch6_2_conv2 <- branch6_2_conv1
I1017 08:33:04.589916 17887 net.cpp:380] branch6_2_conv2 -> branch6_2_conv2
I1017 08:33:04.590126 17887 net.cpp:122] Setting up branch6_2_conv2
I1017 08:33:04.590137 17887 net.cpp:129] Top shape: 64 116 8 8 (475136)
I1017 08:33:04.590139 17887 net.cpp:137] Memory required for data: 425905664
I1017 08:33:04.590143 17887 layer_factory.hpp:77] Creating layer branch6_2_conv2_bn
I1017 08:33:04.590149 17887 net.cpp:84] Creating Layer branch6_2_conv2_bn
I1017 08:33:04.590153 17887 net.cpp:406] branch6_2_conv2_bn <- branch6_2_conv2
I1017 08:33:04.590158 17887 net.cpp:367] branch6_2_conv2_bn -> branch6_2_conv2 (in-place)
I1017 08:33:04.590358 17887 net.cpp:122] Setting up branch6_2_conv2_bn
I1017 08:33:04.590366 17887 net.cpp:129] Top shape: 64 116 8 8 (475136)
I1017 08:33:04.590369 17887 net.cpp:137] Memory required for data: 427806208
I1017 08:33:04.590395 17887 layer_factory.hpp:77] Creating layer branch6_2_conv2_scale
I1017 08:33:04.590404 17887 net.cpp:84] Creating Layer branch6_2_conv2_scale
I1017 08:33:04.590407 17887 net.cpp:406] branch6_2_conv2_scale <- branch6_2_conv2
I1017 08:33:04.590412 17887 net.cpp:367] branch6_2_conv2_scale -> branch6_2_conv2 (in-place)
I1017 08:33:04.590458 17887 layer_factory.hpp:77] Creating layer branch6_2_conv2_scale
I1017 08:33:04.590581 17887 net.cpp:122] Setting up branch6_2_conv2_scale
I1017 08:33:04.590592 17887 net.cpp:129] Top shape: 64 116 8 8 (475136)
I1017 08:33:04.590596 17887 net.cpp:137] Memory required for data: 429706752
I1017 08:33:04.590602 17887 layer_factory.hpp:77] Creating layer branch6_2_conv3
I1017 08:33:04.590610 17887 net.cpp:84] Creating Layer branch6_2_conv3
I1017 08:33:04.590613 17887 net.cpp:406] branch6_2_conv3 <- branch6_2_conv2
I1017 08:33:04.590620 17887 net.cpp:380] branch6_2_conv3 -> branch6_2_conv3
I1017 08:33:04.590976 17887 net.cpp:122] Setting up branch6_2_conv3
I1017 08:33:04.590986 17887 net.cpp:129] Top shape: 64 116 8 8 (475136)
I1017 08:33:04.590989 17887 net.cpp:137] Memory required for data: 431607296
I1017 08:33:04.590993 17887 layer_factory.hpp:77] Creating layer branch6_2_conv3_bn
I1017 08:33:04.591001 17887 net.cpp:84] Creating Layer branch6_2_conv3_bn
I1017 08:33:04.591006 17887 net.cpp:406] branch6_2_conv3_bn <- branch6_2_conv3
I1017 08:33:04.591011 17887 net.cpp:367] branch6_2_conv3_bn -> branch6_2_conv3 (in-place)
I1017 08:33:04.591213 17887 net.cpp:122] Setting up branch6_2_conv3_bn
I1017 08:33:04.591223 17887 net.cpp:129] Top shape: 64 116 8 8 (475136)
I1017 08:33:04.591226 17887 net.cpp:137] Memory required for data: 433507840
I1017 08:33:04.591233 17887 layer_factory.hpp:77] Creating layer branch6_2_conv3_scale
I1017 08:33:04.591239 17887 net.cpp:84] Creating Layer branch6_2_conv3_scale
I1017 08:33:04.591243 17887 net.cpp:406] branch6_2_conv3_scale <- branch6_2_conv3
I1017 08:33:04.591249 17887 net.cpp:367] branch6_2_conv3_scale -> branch6_2_conv3 (in-place)
I1017 08:33:04.591287 17887 layer_factory.hpp:77] Creating layer branch6_2_conv3_scale
I1017 08:33:04.591414 17887 net.cpp:122] Setting up branch6_2_conv3_scale
I1017 08:33:04.591423 17887 net.cpp:129] Top shape: 64 116 8 8 (475136)
I1017 08:33:04.591426 17887 net.cpp:137] Memory required for data: 435408384
I1017 08:33:04.591432 17887 layer_factory.hpp:77] Creating layer branch6_2_conv3_relu
I1017 08:33:04.591439 17887 net.cpp:84] Creating Layer branch6_2_conv3_relu
I1017 08:33:04.591441 17887 net.cpp:406] branch6_2_conv3_relu <- branch6_2_conv3
I1017 08:33:04.591446 17887 net.cpp:367] branch6_2_conv3_relu -> branch6_2_conv3 (in-place)
I1017 08:33:04.591452 17887 net.cpp:122] Setting up branch6_2_conv3_relu
I1017 08:33:04.591456 17887 net.cpp:129] Top shape: 64 116 8 8 (475136)
I1017 08:33:04.591459 17887 net.cpp:137] Memory required for data: 437308928
I1017 08:33:04.591462 17887 layer_factory.hpp:77] Creating layer concat6
I1017 08:33:04.591467 17887 net.cpp:84] Creating Layer concat6
I1017 08:33:04.591470 17887 net.cpp:406] concat6 <- branch6_1
I1017 08:33:04.591475 17887 net.cpp:406] concat6 <- branch6_2_conv3
I1017 08:33:04.591481 17887 net.cpp:380] concat6 -> concat6
I1017 08:33:04.591506 17887 net.cpp:122] Setting up concat6
I1017 08:33:04.591514 17887 net.cpp:129] Top shape: 64 232 8 8 (950272)
I1017 08:33:04.591517 17887 net.cpp:137] Memory required for data: 441110016
I1017 08:33:04.591521 17887 layer_factory.hpp:77] Creating layer shuffle6
I1017 08:33:04.591526 17887 net.cpp:84] Creating Layer shuffle6
I1017 08:33:04.591529 17887 net.cpp:406] shuffle6 <- concat6
I1017 08:33:04.591534 17887 net.cpp:380] shuffle6 -> shuffle6
I1017 08:33:04.591560 17887 net.cpp:122] Setting up shuffle6
I1017 08:33:04.591568 17887 net.cpp:129] Top shape: 64 232 8 8 (950272)
I1017 08:33:04.591572 17887 net.cpp:137] Memory required for data: 444911104
I1017 08:33:04.591574 17887 layer_factory.hpp:77] Creating layer slice7
I1017 08:33:04.591580 17887 net.cpp:84] Creating Layer slice7
I1017 08:33:04.591583 17887 net.cpp:406] slice7 <- shuffle6
I1017 08:33:04.591588 17887 net.cpp:380] slice7 -> branch7_1
I1017 08:33:04.591595 17887 net.cpp:380] slice7 -> branch7_2
I1017 08:33:04.591630 17887 net.cpp:122] Setting up slice7
I1017 08:33:04.591639 17887 net.cpp:129] Top shape: 64 116 8 8 (475136)
I1017 08:33:04.591643 17887 net.cpp:129] Top shape: 64 116 8 8 (475136)
I1017 08:33:04.591646 17887 net.cpp:137] Memory required for data: 448712192
I1017 08:33:04.591650 17887 layer_factory.hpp:77] Creating layer branch7_2_conv1
I1017 08:33:04.591658 17887 net.cpp:84] Creating Layer branch7_2_conv1
I1017 08:33:04.591661 17887 net.cpp:406] branch7_2_conv1 <- branch7_2
I1017 08:33:04.591667 17887 net.cpp:380] branch7_2_conv1 -> branch7_2_conv1
I1017 08:33:04.592020 17887 net.cpp:122] Setting up branch7_2_conv1
I1017 08:33:04.592031 17887 net.cpp:129] Top shape: 64 116 8 8 (475136)
I1017 08:33:04.592033 17887 net.cpp:137] Memory required for data: 450612736
I1017 08:33:04.592038 17887 layer_factory.hpp:77] Creating layer branch7_2_conv1_bn
I1017 08:33:04.592046 17887 net.cpp:84] Creating Layer branch7_2_conv1_bn
I1017 08:33:04.592049 17887 net.cpp:406] branch7_2_conv1_bn <- branch7_2_conv1
I1017 08:33:04.592054 17887 net.cpp:367] branch7_2_conv1_bn -> branch7_2_conv1 (in-place)
I1017 08:33:04.592252 17887 net.cpp:122] Setting up branch7_2_conv1_bn
I1017 08:33:04.592262 17887 net.cpp:129] Top shape: 64 116 8 8 (475136)
I1017 08:33:04.592265 17887 net.cpp:137] Memory required for data: 452513280
I1017 08:33:04.592272 17887 layer_factory.hpp:77] Creating layer branch7_2_conv1_scale
I1017 08:33:04.592280 17887 net.cpp:84] Creating Layer branch7_2_conv1_scale
I1017 08:33:04.592284 17887 net.cpp:406] branch7_2_conv1_scale <- branch7_2_conv1
I1017 08:33:04.592289 17887 net.cpp:367] branch7_2_conv1_scale -> branch7_2_conv1 (in-place)
I1017 08:33:04.592329 17887 layer_factory.hpp:77] Creating layer branch7_2_conv1_scale
I1017 08:33:04.592454 17887 net.cpp:122] Setting up branch7_2_conv1_scale
I1017 08:33:04.592463 17887 net.cpp:129] Top shape: 64 116 8 8 (475136)
I1017 08:33:04.592466 17887 net.cpp:137] Memory required for data: 454413824
I1017 08:33:04.592473 17887 layer_factory.hpp:77] Creating layer branch7_2_conv1_relu
I1017 08:33:04.592478 17887 net.cpp:84] Creating Layer branch7_2_conv1_relu
I1017 08:33:04.592481 17887 net.cpp:406] branch7_2_conv1_relu <- branch7_2_conv1
I1017 08:33:04.592492 17887 net.cpp:367] branch7_2_conv1_relu -> branch7_2_conv1 (in-place)
I1017 08:33:04.592497 17887 net.cpp:122] Setting up branch7_2_conv1_relu
I1017 08:33:04.592501 17887 net.cpp:129] Top shape: 64 116 8 8 (475136)
I1017 08:33:04.592504 17887 net.cpp:137] Memory required for data: 456314368
I1017 08:33:04.592507 17887 layer_factory.hpp:77] Creating layer branch7_2_conv2
I1017 08:33:04.592515 17887 net.cpp:84] Creating Layer branch7_2_conv2
I1017 08:33:04.592519 17887 net.cpp:406] branch7_2_conv2 <- branch7_2_conv1
I1017 08:33:04.592525 17887 net.cpp:380] branch7_2_conv2 -> branch7_2_conv2
I1017 08:33:04.592722 17887 net.cpp:122] Setting up branch7_2_conv2
I1017 08:33:04.592732 17887 net.cpp:129] Top shape: 64 116 8 8 (475136)
I1017 08:33:04.592736 17887 net.cpp:137] Memory required for data: 458214912
I1017 08:33:04.592739 17887 layer_factory.hpp:77] Creating layer branch7_2_conv2_bn
I1017 08:33:04.592746 17887 net.cpp:84] Creating Layer branch7_2_conv2_bn
I1017 08:33:04.592748 17887 net.cpp:406] branch7_2_conv2_bn <- branch7_2_conv2
I1017 08:33:04.592756 17887 net.cpp:367] branch7_2_conv2_bn -> branch7_2_conv2 (in-place)
I1017 08:33:04.592952 17887 net.cpp:122] Setting up branch7_2_conv2_bn
I1017 08:33:04.592962 17887 net.cpp:129] Top shape: 64 116 8 8 (475136)
I1017 08:33:04.592964 17887 net.cpp:137] Memory required for data: 460115456
I1017 08:33:04.592972 17887 layer_factory.hpp:77] Creating layer branch7_2_conv2_scale
I1017 08:33:04.592978 17887 net.cpp:84] Creating Layer branch7_2_conv2_scale
I1017 08:33:04.592981 17887 net.cpp:406] branch7_2_conv2_scale <- branch7_2_conv2
I1017 08:33:04.592986 17887 net.cpp:367] branch7_2_conv2_scale -> branch7_2_conv2 (in-place)
I1017 08:33:04.593025 17887 layer_factory.hpp:77] Creating layer branch7_2_conv2_scale
I1017 08:33:04.593149 17887 net.cpp:122] Setting up branch7_2_conv2_scale
I1017 08:33:04.593158 17887 net.cpp:129] Top shape: 64 116 8 8 (475136)
I1017 08:33:04.593168 17887 net.cpp:137] Memory required for data: 462016000
I1017 08:33:04.593174 17887 layer_factory.hpp:77] Creating layer branch7_2_conv3
I1017 08:33:04.593184 17887 net.cpp:84] Creating Layer branch7_2_conv3
I1017 08:33:04.593189 17887 net.cpp:406] branch7_2_conv3 <- branch7_2_conv2
I1017 08:33:04.593194 17887 net.cpp:380] branch7_2_conv3 -> branch7_2_conv3
I1017 08:33:04.593549 17887 net.cpp:122] Setting up branch7_2_conv3
I1017 08:33:04.593559 17887 net.cpp:129] Top shape: 64 116 8 8 (475136)
I1017 08:33:04.593562 17887 net.cpp:137] Memory required for data: 463916544
I1017 08:33:04.593566 17887 layer_factory.hpp:77] Creating layer branch7_2_conv3_bn
I1017 08:33:04.593572 17887 net.cpp:84] Creating Layer branch7_2_conv3_bn
I1017 08:33:04.593575 17887 net.cpp:406] branch7_2_conv3_bn <- branch7_2_conv3
I1017 08:33:04.593583 17887 net.cpp:367] branch7_2_conv3_bn -> branch7_2_conv3 (in-place)
I1017 08:33:04.593786 17887 net.cpp:122] Setting up branch7_2_conv3_bn
I1017 08:33:04.593794 17887 net.cpp:129] Top shape: 64 116 8 8 (475136)
I1017 08:33:04.593798 17887 net.cpp:137] Memory required for data: 465817088
I1017 08:33:04.593806 17887 layer_factory.hpp:77] Creating layer branch7_2_conv3_scale
I1017 08:33:04.593811 17887 net.cpp:84] Creating Layer branch7_2_conv3_scale
I1017 08:33:04.593814 17887 net.cpp:406] branch7_2_conv3_scale <- branch7_2_conv3
I1017 08:33:04.593819 17887 net.cpp:367] branch7_2_conv3_scale -> branch7_2_conv3 (in-place)
I1017 08:33:04.593863 17887 layer_factory.hpp:77] Creating layer branch7_2_conv3_scale
I1017 08:33:04.593981 17887 net.cpp:122] Setting up branch7_2_conv3_scale
I1017 08:33:04.593989 17887 net.cpp:129] Top shape: 64 116 8 8 (475136)
I1017 08:33:04.593993 17887 net.cpp:137] Memory required for data: 467717632
I1017 08:33:04.593998 17887 layer_factory.hpp:77] Creating layer branch7_2_conv3_relu
I1017 08:33:04.594003 17887 net.cpp:84] Creating Layer branch7_2_conv3_relu
I1017 08:33:04.594007 17887 net.cpp:406] branch7_2_conv3_relu <- branch7_2_conv3
I1017 08:33:04.594013 17887 net.cpp:367] branch7_2_conv3_relu -> branch7_2_conv3 (in-place)
I1017 08:33:04.594019 17887 net.cpp:122] Setting up branch7_2_conv3_relu
I1017 08:33:04.594023 17887 net.cpp:129] Top shape: 64 116 8 8 (475136)
I1017 08:33:04.594027 17887 net.cpp:137] Memory required for data: 469618176
I1017 08:33:04.594029 17887 layer_factory.hpp:77] Creating layer concat7
I1017 08:33:04.594034 17887 net.cpp:84] Creating Layer concat7
I1017 08:33:04.594038 17887 net.cpp:406] concat7 <- branch7_1
I1017 08:33:04.594041 17887 net.cpp:406] concat7 <- branch7_2_conv3
I1017 08:33:04.594046 17887 net.cpp:380] concat7 -> concat7
I1017 08:33:04.594070 17887 net.cpp:122] Setting up concat7
I1017 08:33:04.594079 17887 net.cpp:129] Top shape: 64 232 8 8 (950272)
I1017 08:33:04.594081 17887 net.cpp:137] Memory required for data: 473419264
I1017 08:33:04.594084 17887 layer_factory.hpp:77] Creating layer shuffle7
I1017 08:33:04.594089 17887 net.cpp:84] Creating Layer shuffle7
I1017 08:33:04.594094 17887 net.cpp:406] shuffle7 <- concat7
I1017 08:33:04.594099 17887 net.cpp:380] shuffle7 -> shuffle7
I1017 08:33:04.594120 17887 net.cpp:122] Setting up shuffle7
I1017 08:33:04.594128 17887 net.cpp:129] Top shape: 64 232 8 8 (950272)
I1017 08:33:04.594131 17887 net.cpp:137] Memory required for data: 477220352
I1017 08:33:04.594135 17887 layer_factory.hpp:77] Creating layer slice8
I1017 08:33:04.594142 17887 net.cpp:84] Creating Layer slice8
I1017 08:33:04.594146 17887 net.cpp:406] slice8 <- shuffle7
I1017 08:33:04.594151 17887 net.cpp:380] slice8 -> branch8_1
I1017 08:33:04.594157 17887 net.cpp:380] slice8 -> branch8_2
I1017 08:33:04.594192 17887 net.cpp:122] Setting up slice8
I1017 08:33:04.594199 17887 net.cpp:129] Top shape: 64 116 8 8 (475136)
I1017 08:33:04.594203 17887 net.cpp:129] Top shape: 64 116 8 8 (475136)
I1017 08:33:04.594206 17887 net.cpp:137] Memory required for data: 481021440
I1017 08:33:04.594209 17887 layer_factory.hpp:77] Creating layer branch8_2_conv1
I1017 08:33:04.594216 17887 net.cpp:84] Creating Layer branch8_2_conv1
I1017 08:33:04.594219 17887 net.cpp:406] branch8_2_conv1 <- branch8_2
I1017 08:33:04.594228 17887 net.cpp:380] branch8_2_conv1 -> branch8_2_conv1
I1017 08:33:04.594573 17887 net.cpp:122] Setting up branch8_2_conv1
I1017 08:33:04.594583 17887 net.cpp:129] Top shape: 64 116 8 8 (475136)
I1017 08:33:04.594586 17887 net.cpp:137] Memory required for data: 482921984
I1017 08:33:04.594591 17887 layer_factory.hpp:77] Creating layer branch8_2_conv1_bn
I1017 08:33:04.594599 17887 net.cpp:84] Creating Layer branch8_2_conv1_bn
I1017 08:33:04.594604 17887 net.cpp:406] branch8_2_conv1_bn <- branch8_2_conv1
I1017 08:33:04.594609 17887 net.cpp:367] branch8_2_conv1_bn -> branch8_2_conv1 (in-place)
I1017 08:33:04.594799 17887 net.cpp:122] Setting up branch8_2_conv1_bn
I1017 08:33:04.594808 17887 net.cpp:129] Top shape: 64 116 8 8 (475136)
I1017 08:33:04.594811 17887 net.cpp:137] Memory required for data: 484822528
I1017 08:33:04.594818 17887 layer_factory.hpp:77] Creating layer branch8_2_conv1_scale
I1017 08:33:04.594825 17887 net.cpp:84] Creating Layer branch8_2_conv1_scale
I1017 08:33:04.594828 17887 net.cpp:406] branch8_2_conv1_scale <- branch8_2_conv1
I1017 08:33:04.594835 17887 net.cpp:367] branch8_2_conv1_scale -> branch8_2_conv1 (in-place)
I1017 08:33:04.594871 17887 layer_factory.hpp:77] Creating layer branch8_2_conv1_scale
I1017 08:33:04.594995 17887 net.cpp:122] Setting up branch8_2_conv1_scale
I1017 08:33:04.595005 17887 net.cpp:129] Top shape: 64 116 8 8 (475136)
I1017 08:33:04.595008 17887 net.cpp:137] Memory required for data: 486723072
I1017 08:33:04.595014 17887 layer_factory.hpp:77] Creating layer branch8_2_conv1_relu
I1017 08:33:04.595019 17887 net.cpp:84] Creating Layer branch8_2_conv1_relu
I1017 08:33:04.595023 17887 net.cpp:406] branch8_2_conv1_relu <- branch8_2_conv1
I1017 08:33:04.595027 17887 net.cpp:367] branch8_2_conv1_relu -> branch8_2_conv1 (in-place)
I1017 08:33:04.595033 17887 net.cpp:122] Setting up branch8_2_conv1_relu
I1017 08:33:04.595037 17887 net.cpp:129] Top shape: 64 116 8 8 (475136)
I1017 08:33:04.595041 17887 net.cpp:137] Memory required for data: 488623616
I1017 08:33:04.595043 17887 layer_factory.hpp:77] Creating layer branch8_2_conv2
I1017 08:33:04.595052 17887 net.cpp:84] Creating Layer branch8_2_conv2
I1017 08:33:04.595054 17887 net.cpp:406] branch8_2_conv2 <- branch8_2_conv1
I1017 08:33:04.595062 17887 net.cpp:380] branch8_2_conv2 -> branch8_2_conv2
I1017 08:33:04.595268 17887 net.cpp:122] Setting up branch8_2_conv2
I1017 08:33:04.595278 17887 net.cpp:129] Top shape: 64 116 8 8 (475136)
I1017 08:33:04.595281 17887 net.cpp:137] Memory required for data: 490524160
I1017 08:33:04.595286 17887 layer_factory.hpp:77] Creating layer branch8_2_conv2_bn
I1017 08:33:04.595291 17887 net.cpp:84] Creating Layer branch8_2_conv2_bn
I1017 08:33:04.595295 17887 net.cpp:406] branch8_2_conv2_bn <- branch8_2_conv2
I1017 08:33:04.595300 17887 net.cpp:367] branch8_2_conv2_bn -> branch8_2_conv2 (in-place)
I1017 08:33:04.595494 17887 net.cpp:122] Setting up branch8_2_conv2_bn
I1017 08:33:04.595502 17887 net.cpp:129] Top shape: 64 116 8 8 (475136)
I1017 08:33:04.595505 17887 net.cpp:137] Memory required for data: 492424704
I1017 08:33:04.595512 17887 layer_factory.hpp:77] Creating layer branch8_2_conv2_scale
I1017 08:33:04.595520 17887 net.cpp:84] Creating Layer branch8_2_conv2_scale
I1017 08:33:04.595523 17887 net.cpp:406] branch8_2_conv2_scale <- branch8_2_conv2
I1017 08:33:04.595528 17887 net.cpp:367] branch8_2_conv2_scale -> branch8_2_conv2 (in-place)
I1017 08:33:04.595566 17887 layer_factory.hpp:77] Creating layer branch8_2_conv2_scale
I1017 08:33:04.595686 17887 net.cpp:122] Setting up branch8_2_conv2_scale
I1017 08:33:04.595695 17887 net.cpp:129] Top shape: 64 116 8 8 (475136)
I1017 08:33:04.595698 17887 net.cpp:137] Memory required for data: 494325248
I1017 08:33:04.595705 17887 layer_factory.hpp:77] Creating layer branch8_2_conv3
I1017 08:33:04.595713 17887 net.cpp:84] Creating Layer branch8_2_conv3
I1017 08:33:04.595717 17887 net.cpp:406] branch8_2_conv3 <- branch8_2_conv2
I1017 08:33:04.595724 17887 net.cpp:380] branch8_2_conv3 -> branch8_2_conv3
I1017 08:33:04.596071 17887 net.cpp:122] Setting up branch8_2_conv3
I1017 08:33:04.596081 17887 net.cpp:129] Top shape: 64 116 8 8 (475136)
I1017 08:33:04.596083 17887 net.cpp:137] Memory required for data: 496225792
I1017 08:33:04.596087 17887 layer_factory.hpp:77] Creating layer branch8_2_conv3_bn
I1017 08:33:04.596093 17887 net.cpp:84] Creating Layer branch8_2_conv3_bn
I1017 08:33:04.596097 17887 net.cpp:406] branch8_2_conv3_bn <- branch8_2_conv3
I1017 08:33:04.596102 17887 net.cpp:367] branch8_2_conv3_bn -> branch8_2_conv3 (in-place)
I1017 08:33:04.596293 17887 net.cpp:122] Setting up branch8_2_conv3_bn
I1017 08:33:04.596302 17887 net.cpp:129] Top shape: 64 116 8 8 (475136)
I1017 08:33:04.596305 17887 net.cpp:137] Memory required for data: 498126336
I1017 08:33:04.596312 17887 layer_factory.hpp:77] Creating layer branch8_2_conv3_scale
I1017 08:33:04.596338 17887 net.cpp:84] Creating Layer branch8_2_conv3_scale
I1017 08:33:04.596343 17887 net.cpp:406] branch8_2_conv3_scale <- branch8_2_conv3
I1017 08:33:04.596349 17887 net.cpp:367] branch8_2_conv3_scale -> branch8_2_conv3 (in-place)
I1017 08:33:04.596385 17887 layer_factory.hpp:77] Creating layer branch8_2_conv3_scale
I1017 08:33:04.596508 17887 net.cpp:122] Setting up branch8_2_conv3_scale
I1017 08:33:04.596516 17887 net.cpp:129] Top shape: 64 116 8 8 (475136)
I1017 08:33:04.596520 17887 net.cpp:137] Memory required for data: 500026880
I1017 08:33:04.596526 17887 layer_factory.hpp:77] Creating layer branch8_2_conv3_relu
I1017 08:33:04.596531 17887 net.cpp:84] Creating Layer branch8_2_conv3_relu
I1017 08:33:04.596534 17887 net.cpp:406] branch8_2_conv3_relu <- branch8_2_conv3
I1017 08:33:04.596539 17887 net.cpp:367] branch8_2_conv3_relu -> branch8_2_conv3 (in-place)
I1017 08:33:04.596545 17887 net.cpp:122] Setting up branch8_2_conv3_relu
I1017 08:33:04.596549 17887 net.cpp:129] Top shape: 64 116 8 8 (475136)
I1017 08:33:04.596552 17887 net.cpp:137] Memory required for data: 501927424
I1017 08:33:04.596555 17887 layer_factory.hpp:77] Creating layer concat8
I1017 08:33:04.596560 17887 net.cpp:84] Creating Layer concat8
I1017 08:33:04.596563 17887 net.cpp:406] concat8 <- branch8_1
I1017 08:33:04.596567 17887 net.cpp:406] concat8 <- branch8_2_conv3
I1017 08:33:04.596575 17887 net.cpp:380] concat8 -> concat8
I1017 08:33:04.596596 17887 net.cpp:122] Setting up concat8
I1017 08:33:04.596606 17887 net.cpp:129] Top shape: 64 232 8 8 (950272)
I1017 08:33:04.596609 17887 net.cpp:137] Memory required for data: 505728512
I1017 08:33:04.596612 17887 layer_factory.hpp:77] Creating layer shuffle8
I1017 08:33:04.596618 17887 net.cpp:84] Creating Layer shuffle8
I1017 08:33:04.596621 17887 net.cpp:406] shuffle8 <- concat8
I1017 08:33:04.596627 17887 net.cpp:380] shuffle8 -> shuffle8
I1017 08:33:04.596654 17887 net.cpp:122] Setting up shuffle8
I1017 08:33:04.596663 17887 net.cpp:129] Top shape: 64 232 8 8 (950272)
I1017 08:33:04.596666 17887 net.cpp:137] Memory required for data: 509529600
I1017 08:33:04.596669 17887 layer_factory.hpp:77] Creating layer slice9
I1017 08:33:04.596675 17887 net.cpp:84] Creating Layer slice9
I1017 08:33:04.596679 17887 net.cpp:406] slice9 <- shuffle8
I1017 08:33:04.596686 17887 net.cpp:380] slice9 -> branch9_1
I1017 08:33:04.596700 17887 net.cpp:380] slice9 -> branch9_2
I1017 08:33:04.596736 17887 net.cpp:122] Setting up slice9
I1017 08:33:04.596745 17887 net.cpp:129] Top shape: 64 116 8 8 (475136)
I1017 08:33:04.596750 17887 net.cpp:129] Top shape: 64 116 8 8 (475136)
I1017 08:33:04.596753 17887 net.cpp:137] Memory required for data: 513330688
I1017 08:33:04.596755 17887 layer_factory.hpp:77] Creating layer branch9_2_conv1
I1017 08:33:04.596763 17887 net.cpp:84] Creating Layer branch9_2_conv1
I1017 08:33:04.596767 17887 net.cpp:406] branch9_2_conv1 <- branch9_2
I1017 08:33:04.596776 17887 net.cpp:380] branch9_2_conv1 -> branch9_2_conv1
I1017 08:33:04.597123 17887 net.cpp:122] Setting up branch9_2_conv1
I1017 08:33:04.597133 17887 net.cpp:129] Top shape: 64 116 8 8 (475136)
I1017 08:33:04.597136 17887 net.cpp:137] Memory required for data: 515231232
I1017 08:33:04.597141 17887 layer_factory.hpp:77] Creating layer branch9_2_conv1_bn
I1017 08:33:04.597149 17887 net.cpp:84] Creating Layer branch9_2_conv1_bn
I1017 08:33:04.597153 17887 net.cpp:406] branch9_2_conv1_bn <- branch9_2_conv1
I1017 08:33:04.597158 17887 net.cpp:367] branch9_2_conv1_bn -> branch9_2_conv1 (in-place)
I1017 08:33:04.597362 17887 net.cpp:122] Setting up branch9_2_conv1_bn
I1017 08:33:04.597373 17887 net.cpp:129] Top shape: 64 116 8 8 (475136)
I1017 08:33:04.597376 17887 net.cpp:137] Memory required for data: 517131776
I1017 08:33:04.597383 17887 layer_factory.hpp:77] Creating layer branch9_2_conv1_scale
I1017 08:33:04.597389 17887 net.cpp:84] Creating Layer branch9_2_conv1_scale
I1017 08:33:04.597393 17887 net.cpp:406] branch9_2_conv1_scale <- branch9_2_conv1
I1017 08:33:04.597399 17887 net.cpp:367] branch9_2_conv1_scale -> branch9_2_conv1 (in-place)
I1017 08:33:04.597437 17887 layer_factory.hpp:77] Creating layer branch9_2_conv1_scale
I1017 08:33:04.597563 17887 net.cpp:122] Setting up branch9_2_conv1_scale
I1017 08:33:04.597573 17887 net.cpp:129] Top shape: 64 116 8 8 (475136)
I1017 08:33:04.597577 17887 net.cpp:137] Memory required for data: 519032320
I1017 08:33:04.597582 17887 layer_factory.hpp:77] Creating layer branch9_2_conv1_relu
I1017 08:33:04.597589 17887 net.cpp:84] Creating Layer branch9_2_conv1_relu
I1017 08:33:04.597591 17887 net.cpp:406] branch9_2_conv1_relu <- branch9_2_conv1
I1017 08:33:04.597596 17887 net.cpp:367] branch9_2_conv1_relu -> branch9_2_conv1 (in-place)
I1017 08:33:04.597601 17887 net.cpp:122] Setting up branch9_2_conv1_relu
I1017 08:33:04.597605 17887 net.cpp:129] Top shape: 64 116 8 8 (475136)
I1017 08:33:04.597609 17887 net.cpp:137] Memory required for data: 520932864
I1017 08:33:04.597611 17887 layer_factory.hpp:77] Creating layer branch9_2_conv2
I1017 08:33:04.597620 17887 net.cpp:84] Creating Layer branch9_2_conv2
I1017 08:33:04.597622 17887 net.cpp:406] branch9_2_conv2 <- branch9_2_conv1
I1017 08:33:04.597630 17887 net.cpp:380] branch9_2_conv2 -> branch9_2_conv2
I1017 08:33:04.597831 17887 net.cpp:122] Setting up branch9_2_conv2
I1017 08:33:04.597841 17887 net.cpp:129] Top shape: 64 116 8 8 (475136)
I1017 08:33:04.597843 17887 net.cpp:137] Memory required for data: 522833408
I1017 08:33:04.597848 17887 layer_factory.hpp:77] Creating layer branch9_2_conv2_bn
I1017 08:33:04.597854 17887 net.cpp:84] Creating Layer branch9_2_conv2_bn
I1017 08:33:04.597857 17887 net.cpp:406] branch9_2_conv2_bn <- branch9_2_conv2
I1017 08:33:04.597862 17887 net.cpp:367] branch9_2_conv2_bn -> branch9_2_conv2 (in-place)
I1017 08:33:04.598067 17887 net.cpp:122] Setting up branch9_2_conv2_bn
I1017 08:33:04.598076 17887 net.cpp:129] Top shape: 64 116 8 8 (475136)
I1017 08:33:04.598079 17887 net.cpp:137] Memory required for data: 524733952
I1017 08:33:04.598086 17887 layer_factory.hpp:77] Creating layer branch9_2_conv2_scale
I1017 08:33:04.598094 17887 net.cpp:84] Creating Layer branch9_2_conv2_scale
I1017 08:33:04.598098 17887 net.cpp:406] branch9_2_conv2_scale <- branch9_2_conv2
I1017 08:33:04.598103 17887 net.cpp:367] branch9_2_conv2_scale -> branch9_2_conv2 (in-place)
I1017 08:33:04.598142 17887 layer_factory.hpp:77] Creating layer branch9_2_conv2_scale
I1017 08:33:04.598265 17887 net.cpp:122] Setting up branch9_2_conv2_scale
I1017 08:33:04.598274 17887 net.cpp:129] Top shape: 64 116 8 8 (475136)
I1017 08:33:04.598278 17887 net.cpp:137] Memory required for data: 526634496
I1017 08:33:04.598284 17887 layer_factory.hpp:77] Creating layer branch9_2_conv3
I1017 08:33:04.598292 17887 net.cpp:84] Creating Layer branch9_2_conv3
I1017 08:33:04.598295 17887 net.cpp:406] branch9_2_conv3 <- branch9_2_conv2
I1017 08:33:04.598304 17887 net.cpp:380] branch9_2_conv3 -> branch9_2_conv3
I1017 08:33:04.598651 17887 net.cpp:122] Setting up branch9_2_conv3
I1017 08:33:04.598661 17887 net.cpp:129] Top shape: 64 116 8 8 (475136)
I1017 08:33:04.598664 17887 net.cpp:137] Memory required for data: 528535040
I1017 08:33:04.598670 17887 layer_factory.hpp:77] Creating layer branch9_2_conv3_bn
I1017 08:33:04.598675 17887 net.cpp:84] Creating Layer branch9_2_conv3_bn
I1017 08:33:04.598678 17887 net.cpp:406] branch9_2_conv3_bn <- branch9_2_conv3
I1017 08:33:04.598683 17887 net.cpp:367] branch9_2_conv3_bn -> branch9_2_conv3 (in-place)
I1017 08:33:04.598879 17887 net.cpp:122] Setting up branch9_2_conv3_bn
I1017 08:33:04.598888 17887 net.cpp:129] Top shape: 64 116 8 8 (475136)
I1017 08:33:04.598891 17887 net.cpp:137] Memory required for data: 530435584
I1017 08:33:04.598898 17887 layer_factory.hpp:77] Creating layer branch9_2_conv3_scale
I1017 08:33:04.598906 17887 net.cpp:84] Creating Layer branch9_2_conv3_scale
I1017 08:33:04.598909 17887 net.cpp:406] branch9_2_conv3_scale <- branch9_2_conv3
I1017 08:33:04.598914 17887 net.cpp:367] branch9_2_conv3_scale -> branch9_2_conv3 (in-place)
I1017 08:33:04.598953 17887 layer_factory.hpp:77] Creating layer branch9_2_conv3_scale
I1017 08:33:04.599076 17887 net.cpp:122] Setting up branch9_2_conv3_scale
I1017 08:33:04.599084 17887 net.cpp:129] Top shape: 64 116 8 8 (475136)
I1017 08:33:04.599087 17887 net.cpp:137] Memory required for data: 532336128
I1017 08:33:04.599093 17887 layer_factory.hpp:77] Creating layer branch9_2_conv3_relu
I1017 08:33:04.599098 17887 net.cpp:84] Creating Layer branch9_2_conv3_relu
I1017 08:33:04.599102 17887 net.cpp:406] branch9_2_conv3_relu <- branch9_2_conv3
I1017 08:33:04.599108 17887 net.cpp:367] branch9_2_conv3_relu -> branch9_2_conv3 (in-place)
I1017 08:33:04.599113 17887 net.cpp:122] Setting up branch9_2_conv3_relu
I1017 08:33:04.599118 17887 net.cpp:129] Top shape: 64 116 8 8 (475136)
I1017 08:33:04.599122 17887 net.cpp:137] Memory required for data: 534236672
I1017 08:33:04.599123 17887 layer_factory.hpp:77] Creating layer concat9
I1017 08:33:04.599128 17887 net.cpp:84] Creating Layer concat9
I1017 08:33:04.599131 17887 net.cpp:406] concat9 <- branch9_1
I1017 08:33:04.599136 17887 net.cpp:406] concat9 <- branch9_2_conv3
I1017 08:33:04.599146 17887 net.cpp:380] concat9 -> concat9
I1017 08:33:04.599169 17887 net.cpp:122] Setting up concat9
I1017 08:33:04.599177 17887 net.cpp:129] Top shape: 64 232 8 8 (950272)
I1017 08:33:04.599180 17887 net.cpp:137] Memory required for data: 538037760
I1017 08:33:04.599184 17887 layer_factory.hpp:77] Creating layer shuffle9
I1017 08:33:04.599191 17887 net.cpp:84] Creating Layer shuffle9
I1017 08:33:04.599195 17887 net.cpp:406] shuffle9 <- concat9
I1017 08:33:04.599200 17887 net.cpp:380] shuffle9 -> shuffle9
I1017 08:33:04.599222 17887 net.cpp:122] Setting up shuffle9
I1017 08:33:04.599229 17887 net.cpp:129] Top shape: 64 232 8 8 (950272)
I1017 08:33:04.599232 17887 net.cpp:137] Memory required for data: 541838848
I1017 08:33:04.599236 17887 layer_factory.hpp:77] Creating layer slice10
I1017 08:33:04.599241 17887 net.cpp:84] Creating Layer slice10
I1017 08:33:04.599246 17887 net.cpp:406] slice10 <- shuffle9
I1017 08:33:04.599252 17887 net.cpp:380] slice10 -> branch10_1
I1017 08:33:04.599258 17887 net.cpp:380] slice10 -> branch10_2
I1017 08:33:04.599294 17887 net.cpp:122] Setting up slice10
I1017 08:33:04.599303 17887 net.cpp:129] Top shape: 64 116 8 8 (475136)
I1017 08:33:04.599306 17887 net.cpp:129] Top shape: 64 116 8 8 (475136)
I1017 08:33:04.599309 17887 net.cpp:137] Memory required for data: 545639936
I1017 08:33:04.599313 17887 layer_factory.hpp:77] Creating layer branch10_2_conv1
I1017 08:33:04.599319 17887 net.cpp:84] Creating Layer branch10_2_conv1
I1017 08:33:04.599323 17887 net.cpp:406] branch10_2_conv1 <- branch10_2
I1017 08:33:04.599328 17887 net.cpp:380] branch10_2_conv1 -> branch10_2_conv1
I1017 08:33:04.599683 17887 net.cpp:122] Setting up branch10_2_conv1
I1017 08:33:04.599692 17887 net.cpp:129] Top shape: 64 116 8 8 (475136)
I1017 08:33:04.599695 17887 net.cpp:137] Memory required for data: 547540480
I1017 08:33:04.599699 17887 layer_factory.hpp:77] Creating layer branch10_2_conv1_bn
I1017 08:33:04.599705 17887 net.cpp:84] Creating Layer branch10_2_conv1_bn
I1017 08:33:04.599709 17887 net.cpp:406] branch10_2_conv1_bn <- branch10_2_conv1
I1017 08:33:04.599716 17887 net.cpp:367] branch10_2_conv1_bn -> branch10_2_conv1 (in-place)
I1017 08:33:04.599920 17887 net.cpp:122] Setting up branch10_2_conv1_bn
I1017 08:33:04.599930 17887 net.cpp:129] Top shape: 64 116 8 8 (475136)
I1017 08:33:04.599932 17887 net.cpp:137] Memory required for data: 549441024
I1017 08:33:04.599939 17887 layer_factory.hpp:77] Creating layer branch10_2_conv1_scale
I1017 08:33:04.599946 17887 net.cpp:84] Creating Layer branch10_2_conv1_scale
I1017 08:33:04.599948 17887 net.cpp:406] branch10_2_conv1_scale <- branch10_2_conv1
I1017 08:33:04.599954 17887 net.cpp:367] branch10_2_conv1_scale -> branch10_2_conv1 (in-place)
I1017 08:33:04.599994 17887 layer_factory.hpp:77] Creating layer branch10_2_conv1_scale
I1017 08:33:04.600118 17887 net.cpp:122] Setting up branch10_2_conv1_scale
I1017 08:33:04.600127 17887 net.cpp:129] Top shape: 64 116 8 8 (475136)
I1017 08:33:04.600131 17887 net.cpp:137] Memory required for data: 551341568
I1017 08:33:04.600136 17887 layer_factory.hpp:77] Creating layer branch10_2_conv1_relu
I1017 08:33:04.600142 17887 net.cpp:84] Creating Layer branch10_2_conv1_relu
I1017 08:33:04.600145 17887 net.cpp:406] branch10_2_conv1_relu <- branch10_2_conv1
I1017 08:33:04.600152 17887 net.cpp:367] branch10_2_conv1_relu -> branch10_2_conv1 (in-place)
I1017 08:33:04.600158 17887 net.cpp:122] Setting up branch10_2_conv1_relu
I1017 08:33:04.600162 17887 net.cpp:129] Top shape: 64 116 8 8 (475136)
I1017 08:33:04.600165 17887 net.cpp:137] Memory required for data: 553242112
I1017 08:33:04.600168 17887 layer_factory.hpp:77] Creating layer branch10_2_conv2
I1017 08:33:04.600176 17887 net.cpp:84] Creating Layer branch10_2_conv2
I1017 08:33:04.600179 17887 net.cpp:406] branch10_2_conv2 <- branch10_2_conv1
I1017 08:33:04.600184 17887 net.cpp:380] branch10_2_conv2 -> branch10_2_conv2
I1017 08:33:04.600390 17887 net.cpp:122] Setting up branch10_2_conv2
I1017 08:33:04.600400 17887 net.cpp:129] Top shape: 64 116 8 8 (475136)
I1017 08:33:04.600404 17887 net.cpp:137] Memory required for data: 555142656
I1017 08:33:04.600409 17887 layer_factory.hpp:77] Creating layer branch10_2_conv2_bn
I1017 08:33:04.600416 17887 net.cpp:84] Creating Layer branch10_2_conv2_bn
I1017 08:33:04.600419 17887 net.cpp:406] branch10_2_conv2_bn <- branch10_2_conv2
I1017 08:33:04.600425 17887 net.cpp:367] branch10_2_conv2_bn -> branch10_2_conv2 (in-place)
I1017 08:33:04.600622 17887 net.cpp:122] Setting up branch10_2_conv2_bn
I1017 08:33:04.600631 17887 net.cpp:129] Top shape: 64 116 8 8 (475136)
I1017 08:33:04.600634 17887 net.cpp:137] Memory required for data: 557043200
I1017 08:33:04.600641 17887 layer_factory.hpp:77] Creating layer branch10_2_conv2_scale
I1017 08:33:04.600649 17887 net.cpp:84] Creating Layer branch10_2_conv2_scale
I1017 08:33:04.600652 17887 net.cpp:406] branch10_2_conv2_scale <- branch10_2_conv2
I1017 08:33:04.600657 17887 net.cpp:367] branch10_2_conv2_scale -> branch10_2_conv2 (in-place)
I1017 08:33:04.600697 17887 layer_factory.hpp:77] Creating layer branch10_2_conv2_scale
I1017 08:33:04.600818 17887 net.cpp:122] Setting up branch10_2_conv2_scale
I1017 08:33:04.600827 17887 net.cpp:129] Top shape: 64 116 8 8 (475136)
I1017 08:33:04.600831 17887 net.cpp:137] Memory required for data: 558943744
I1017 08:33:04.600836 17887 layer_factory.hpp:77] Creating layer branch10_2_conv3
I1017 08:33:04.600847 17887 net.cpp:84] Creating Layer branch10_2_conv3
I1017 08:33:04.600850 17887 net.cpp:406] branch10_2_conv3 <- branch10_2_conv2
I1017 08:33:04.600858 17887 net.cpp:380] branch10_2_conv3 -> branch10_2_conv3
I1017 08:33:04.601217 17887 net.cpp:122] Setting up branch10_2_conv3
I1017 08:33:04.601228 17887 net.cpp:129] Top shape: 64 116 8 8 (475136)
I1017 08:33:04.601233 17887 net.cpp:137] Memory required for data: 560844288
I1017 08:33:04.601236 17887 layer_factory.hpp:77] Creating layer branch10_2_conv3_bn
I1017 08:33:04.601243 17887 net.cpp:84] Creating Layer branch10_2_conv3_bn
I1017 08:33:04.601246 17887 net.cpp:406] branch10_2_conv3_bn <- branch10_2_conv3
I1017 08:33:04.601251 17887 net.cpp:367] branch10_2_conv3_bn -> branch10_2_conv3 (in-place)
I1017 08:33:04.601450 17887 net.cpp:122] Setting up branch10_2_conv3_bn
I1017 08:33:04.601459 17887 net.cpp:129] Top shape: 64 116 8 8 (475136)
I1017 08:33:04.601462 17887 net.cpp:137] Memory required for data: 562744832
I1017 08:33:04.601469 17887 layer_factory.hpp:77] Creating layer branch10_2_conv3_scale
I1017 08:33:04.601477 17887 net.cpp:84] Creating Layer branch10_2_conv3_scale
I1017 08:33:04.601480 17887 net.cpp:406] branch10_2_conv3_scale <- branch10_2_conv3
I1017 08:33:04.601486 17887 net.cpp:367] branch10_2_conv3_scale -> branch10_2_conv3 (in-place)
I1017 08:33:04.601526 17887 layer_factory.hpp:77] Creating layer branch10_2_conv3_scale
I1017 08:33:04.601649 17887 net.cpp:122] Setting up branch10_2_conv3_scale
I1017 08:33:04.601658 17887 net.cpp:129] Top shape: 64 116 8 8 (475136)
I1017 08:33:04.601661 17887 net.cpp:137] Memory required for data: 564645376
I1017 08:33:04.601667 17887 layer_factory.hpp:77] Creating layer branch10_2_conv3_relu
I1017 08:33:04.601675 17887 net.cpp:84] Creating Layer branch10_2_conv3_relu
I1017 08:33:04.601678 17887 net.cpp:406] branch10_2_conv3_relu <- branch10_2_conv3
I1017 08:33:04.601682 17887 net.cpp:367] branch10_2_conv3_relu -> branch10_2_conv3 (in-place)
I1017 08:33:04.601688 17887 net.cpp:122] Setting up branch10_2_conv3_relu
I1017 08:33:04.601693 17887 net.cpp:129] Top shape: 64 116 8 8 (475136)
I1017 08:33:04.601696 17887 net.cpp:137] Memory required for data: 566545920
I1017 08:33:04.601698 17887 layer_factory.hpp:77] Creating layer concat10
I1017 08:33:04.601704 17887 net.cpp:84] Creating Layer concat10
I1017 08:33:04.601707 17887 net.cpp:406] concat10 <- branch10_1
I1017 08:33:04.601711 17887 net.cpp:406] concat10 <- branch10_2_conv3
I1017 08:33:04.601718 17887 net.cpp:380] concat10 -> concat10
I1017 08:33:04.601742 17887 net.cpp:122] Setting up concat10
I1017 08:33:04.601749 17887 net.cpp:129] Top shape: 64 232 8 8 (950272)
I1017 08:33:04.601752 17887 net.cpp:137] Memory required for data: 570347008
I1017 08:33:04.601755 17887 layer_factory.hpp:77] Creating layer shuffle10
I1017 08:33:04.601763 17887 net.cpp:84] Creating Layer shuffle10
I1017 08:33:04.601766 17887 net.cpp:406] shuffle10 <- concat10
I1017 08:33:04.601771 17887 net.cpp:380] shuffle10 -> shuffle10
I1017 08:33:04.601794 17887 net.cpp:122] Setting up shuffle10
I1017 08:33:04.601802 17887 net.cpp:129] Top shape: 64 232 8 8 (950272)
I1017 08:33:04.601805 17887 net.cpp:137] Memory required for data: 574148096
I1017 08:33:04.601809 17887 layer_factory.hpp:77] Creating layer slice11
I1017 08:33:04.601816 17887 net.cpp:84] Creating Layer slice11
I1017 08:33:04.601820 17887 net.cpp:406] slice11 <- shuffle10
I1017 08:33:04.601825 17887 net.cpp:380] slice11 -> branch11_1
I1017 08:33:04.601831 17887 net.cpp:380] slice11 -> branch11_2
I1017 08:33:04.601866 17887 net.cpp:122] Setting up slice11
I1017 08:33:04.601874 17887 net.cpp:129] Top shape: 64 116 8 8 (475136)
I1017 08:33:04.601879 17887 net.cpp:129] Top shape: 64 116 8 8 (475136)
I1017 08:33:04.601881 17887 net.cpp:137] Memory required for data: 577949184
I1017 08:33:04.601884 17887 layer_factory.hpp:77] Creating layer branch11_2_conv1
I1017 08:33:04.601892 17887 net.cpp:84] Creating Layer branch11_2_conv1
I1017 08:33:04.601896 17887 net.cpp:406] branch11_2_conv1 <- branch11_2
I1017 08:33:04.601902 17887 net.cpp:380] branch11_2_conv1 -> branch11_2_conv1
I1017 08:33:04.602252 17887 net.cpp:122] Setting up branch11_2_conv1
I1017 08:33:04.602262 17887 net.cpp:129] Top shape: 64 116 8 8 (475136)
I1017 08:33:04.602264 17887 net.cpp:137] Memory required for data: 579849728
I1017 08:33:04.602269 17887 layer_factory.hpp:77] Creating layer branch11_2_conv1_bn
I1017 08:33:04.602275 17887 net.cpp:84] Creating Layer branch11_2_conv1_bn
I1017 08:33:04.602279 17887 net.cpp:406] branch11_2_conv1_bn <- branch11_2_conv1
I1017 08:33:04.602286 17887 net.cpp:367] branch11_2_conv1_bn -> branch11_2_conv1 (in-place)
I1017 08:33:04.602483 17887 net.cpp:122] Setting up branch11_2_conv1_bn
I1017 08:33:04.602493 17887 net.cpp:129] Top shape: 64 116 8 8 (475136)
I1017 08:33:04.602496 17887 net.cpp:137] Memory required for data: 581750272
I1017 08:33:04.602504 17887 layer_factory.hpp:77] Creating layer branch11_2_conv1_scale
I1017 08:33:04.602509 17887 net.cpp:84] Creating Layer branch11_2_conv1_scale
I1017 08:33:04.602514 17887 net.cpp:406] branch11_2_conv1_scale <- branch11_2_conv1
I1017 08:33:04.602519 17887 net.cpp:367] branch11_2_conv1_scale -> branch11_2_conv1 (in-place)
I1017 08:33:04.602558 17887 layer_factory.hpp:77] Creating layer branch11_2_conv1_scale
I1017 08:33:04.602684 17887 net.cpp:122] Setting up branch11_2_conv1_scale
I1017 08:33:04.602694 17887 net.cpp:129] Top shape: 64 116 8 8 (475136)
I1017 08:33:04.602696 17887 net.cpp:137] Memory required for data: 583650816
I1017 08:33:04.602702 17887 layer_factory.hpp:77] Creating layer branch11_2_conv1_relu
I1017 08:33:04.602710 17887 net.cpp:84] Creating Layer branch11_2_conv1_relu
I1017 08:33:04.602713 17887 net.cpp:406] branch11_2_conv1_relu <- branch11_2_conv1
I1017 08:33:04.602718 17887 net.cpp:367] branch11_2_conv1_relu -> branch11_2_conv1 (in-place)
I1017 08:33:04.602723 17887 net.cpp:122] Setting up branch11_2_conv1_relu
I1017 08:33:04.602728 17887 net.cpp:129] Top shape: 64 116 8 8 (475136)
I1017 08:33:04.602732 17887 net.cpp:137] Memory required for data: 585551360
I1017 08:33:04.602735 17887 layer_factory.hpp:77] Creating layer branch11_2_conv2
I1017 08:33:04.602742 17887 net.cpp:84] Creating Layer branch11_2_conv2
I1017 08:33:04.602746 17887 net.cpp:406] branch11_2_conv2 <- branch11_2_conv1
I1017 08:33:04.602753 17887 net.cpp:380] branch11_2_conv2 -> branch11_2_conv2
I1017 08:33:04.602960 17887 net.cpp:122] Setting up branch11_2_conv2
I1017 08:33:04.602972 17887 net.cpp:129] Top shape: 64 116 8 8 (475136)
I1017 08:33:04.602974 17887 net.cpp:137] Memory required for data: 587451904
I1017 08:33:04.602978 17887 layer_factory.hpp:77] Creating layer branch11_2_conv2_bn
I1017 08:33:04.602986 17887 net.cpp:84] Creating Layer branch11_2_conv2_bn
I1017 08:33:04.602991 17887 net.cpp:406] branch11_2_conv2_bn <- branch11_2_conv2
I1017 08:33:04.602996 17887 net.cpp:367] branch11_2_conv2_bn -> branch11_2_conv2 (in-place)
I1017 08:33:04.603195 17887 net.cpp:122] Setting up branch11_2_conv2_bn
I1017 08:33:04.603204 17887 net.cpp:129] Top shape: 64 116 8 8 (475136)
I1017 08:33:04.603207 17887 net.cpp:137] Memory required for data: 589352448
I1017 08:33:04.603214 17887 layer_factory.hpp:77] Creating layer branch11_2_conv2_scale
I1017 08:33:04.603222 17887 net.cpp:84] Creating Layer branch11_2_conv2_scale
I1017 08:33:04.603225 17887 net.cpp:406] branch11_2_conv2_scale <- branch11_2_conv2
I1017 08:33:04.603230 17887 net.cpp:367] branch11_2_conv2_scale -> branch11_2_conv2 (in-place)
I1017 08:33:04.603269 17887 layer_factory.hpp:77] Creating layer branch11_2_conv2_scale
I1017 08:33:04.603400 17887 net.cpp:122] Setting up branch11_2_conv2_scale
I1017 08:33:04.603410 17887 net.cpp:129] Top shape: 64 116 8 8 (475136)
I1017 08:33:04.603412 17887 net.cpp:137] Memory required for data: 591252992
I1017 08:33:04.603418 17887 layer_factory.hpp:77] Creating layer branch11_2_conv3
I1017 08:33:04.603427 17887 net.cpp:84] Creating Layer branch11_2_conv3
I1017 08:33:04.603431 17887 net.cpp:406] branch11_2_conv3 <- branch11_2_conv2
I1017 08:33:04.603440 17887 net.cpp:380] branch11_2_conv3 -> branch11_2_conv3
I1017 08:33:04.603792 17887 net.cpp:122] Setting up branch11_2_conv3
I1017 08:33:04.603802 17887 net.cpp:129] Top shape: 64 116 8 8 (475136)
I1017 08:33:04.603806 17887 net.cpp:137] Memory required for data: 593153536
I1017 08:33:04.603811 17887 layer_factory.hpp:77] Creating layer branch11_2_conv3_bn
I1017 08:33:04.603816 17887 net.cpp:84] Creating Layer branch11_2_conv3_bn
I1017 08:33:04.603819 17887 net.cpp:406] branch11_2_conv3_bn <- branch11_2_conv3
I1017 08:33:04.603826 17887 net.cpp:367] branch11_2_conv3_bn -> branch11_2_conv3 (in-place)
I1017 08:33:04.604025 17887 net.cpp:122] Setting up branch11_2_conv3_bn
I1017 08:33:04.604034 17887 net.cpp:129] Top shape: 64 116 8 8 (475136)
I1017 08:33:04.604038 17887 net.cpp:137] Memory required for data: 595054080
I1017 08:33:04.604044 17887 layer_factory.hpp:77] Creating layer branch11_2_conv3_scale
I1017 08:33:04.604051 17887 net.cpp:84] Creating Layer branch11_2_conv3_scale
I1017 08:33:04.604055 17887 net.cpp:406] branch11_2_conv3_scale <- branch11_2_conv3
I1017 08:33:04.604060 17887 net.cpp:367] branch11_2_conv3_scale -> branch11_2_conv3 (in-place)
I1017 08:33:04.604102 17887 layer_factory.hpp:77] Creating layer branch11_2_conv3_scale
I1017 08:33:04.604228 17887 net.cpp:122] Setting up branch11_2_conv3_scale
I1017 08:33:04.604238 17887 net.cpp:129] Top shape: 64 116 8 8 (475136)
I1017 08:33:04.604241 17887 net.cpp:137] Memory required for data: 596954624
I1017 08:33:04.604246 17887 layer_factory.hpp:77] Creating layer branch11_2_conv3_relu
I1017 08:33:04.604252 17887 net.cpp:84] Creating Layer branch11_2_conv3_relu
I1017 08:33:04.604255 17887 net.cpp:406] branch11_2_conv3_relu <- branch11_2_conv3
I1017 08:33:04.604262 17887 net.cpp:367] branch11_2_conv3_relu -> branch11_2_conv3 (in-place)
I1017 08:33:04.604269 17887 net.cpp:122] Setting up branch11_2_conv3_relu
I1017 08:33:04.604272 17887 net.cpp:129] Top shape: 64 116 8 8 (475136)
I1017 08:33:04.604275 17887 net.cpp:137] Memory required for data: 598855168
I1017 08:33:04.604279 17887 layer_factory.hpp:77] Creating layer concat11
I1017 08:33:04.604284 17887 net.cpp:84] Creating Layer concat11
I1017 08:33:04.604286 17887 net.cpp:406] concat11 <- branch11_1
I1017 08:33:04.604291 17887 net.cpp:406] concat11 <- branch11_2_conv3
I1017 08:33:04.604296 17887 net.cpp:380] concat11 -> concat11
I1017 08:33:04.604321 17887 net.cpp:122] Setting up concat11
I1017 08:33:04.604329 17887 net.cpp:129] Top shape: 64 232 8 8 (950272)
I1017 08:33:04.604332 17887 net.cpp:137] Memory required for data: 602656256
I1017 08:33:04.604336 17887 layer_factory.hpp:77] Creating layer shuffle11
I1017 08:33:04.604341 17887 net.cpp:84] Creating Layer shuffle11
I1017 08:33:04.604344 17887 net.cpp:406] shuffle11 <- concat11
I1017 08:33:04.604349 17887 net.cpp:380] shuffle11 -> shuffle11
I1017 08:33:04.604373 17887 net.cpp:122] Setting up shuffle11
I1017 08:33:04.604380 17887 net.cpp:129] Top shape: 64 232 8 8 (950272)
I1017 08:33:04.604384 17887 net.cpp:137] Memory required for data: 606457344
I1017 08:33:04.604387 17887 layer_factory.hpp:77] Creating layer slice12
I1017 08:33:04.604395 17887 net.cpp:84] Creating Layer slice12
I1017 08:33:04.604398 17887 net.cpp:406] slice12 <- shuffle11
I1017 08:33:04.604404 17887 net.cpp:380] slice12 -> branch12_1
I1017 08:33:04.604410 17887 net.cpp:380] slice12 -> branch12_2
I1017 08:33:04.604445 17887 net.cpp:122] Setting up slice12
I1017 08:33:04.604454 17887 net.cpp:129] Top shape: 64 116 8 8 (475136)
I1017 08:33:04.604457 17887 net.cpp:129] Top shape: 64 116 8 8 (475136)
I1017 08:33:04.604460 17887 net.cpp:137] Memory required for data: 610258432
I1017 08:33:04.604463 17887 layer_factory.hpp:77] Creating layer branch12_2_conv1
I1017 08:33:04.604471 17887 net.cpp:84] Creating Layer branch12_2_conv1
I1017 08:33:04.604475 17887 net.cpp:406] branch12_2_conv1 <- branch12_2
I1017 08:33:04.604482 17887 net.cpp:380] branch12_2_conv1 -> branch12_2_conv1
I1017 08:33:04.604830 17887 net.cpp:122] Setting up branch12_2_conv1
I1017 08:33:04.604840 17887 net.cpp:129] Top shape: 64 116 8 8 (475136)
I1017 08:33:04.604843 17887 net.cpp:137] Memory required for data: 612158976
I1017 08:33:04.604848 17887 layer_factory.hpp:77] Creating layer branch12_2_conv1_bn
I1017 08:33:04.604859 17887 net.cpp:84] Creating Layer branch12_2_conv1_bn
I1017 08:33:04.604863 17887 net.cpp:406] branch12_2_conv1_bn <- branch12_2_conv1
I1017 08:33:04.604868 17887 net.cpp:367] branch12_2_conv1_bn -> branch12_2_conv1 (in-place)
I1017 08:33:04.605064 17887 net.cpp:122] Setting up branch12_2_conv1_bn
I1017 08:33:04.605073 17887 net.cpp:129] Top shape: 64 116 8 8 (475136)
I1017 08:33:04.605077 17887 net.cpp:137] Memory required for data: 614059520
I1017 08:33:04.605084 17887 layer_factory.hpp:77] Creating layer branch12_2_conv1_scale
I1017 08:33:04.605090 17887 net.cpp:84] Creating Layer branch12_2_conv1_scale
I1017 08:33:04.605093 17887 net.cpp:406] branch12_2_conv1_scale <- branch12_2_conv1
I1017 08:33:04.605100 17887 net.cpp:367] branch12_2_conv1_scale -> branch12_2_conv1 (in-place)
I1017 08:33:04.605137 17887 layer_factory.hpp:77] Creating layer branch12_2_conv1_scale
I1017 08:33:04.605267 17887 net.cpp:122] Setting up branch12_2_conv1_scale
I1017 08:33:04.605278 17887 net.cpp:129] Top shape: 64 116 8 8 (475136)
I1017 08:33:04.605281 17887 net.cpp:137] Memory required for data: 615960064
I1017 08:33:04.605288 17887 layer_factory.hpp:77] Creating layer branch12_2_conv1_relu
I1017 08:33:04.605293 17887 net.cpp:84] Creating Layer branch12_2_conv1_relu
I1017 08:33:04.605296 17887 net.cpp:406] branch12_2_conv1_relu <- branch12_2_conv1
I1017 08:33:04.605301 17887 net.cpp:367] branch12_2_conv1_relu -> branch12_2_conv1 (in-place)
I1017 08:33:04.605307 17887 net.cpp:122] Setting up branch12_2_conv1_relu
I1017 08:33:04.605311 17887 net.cpp:129] Top shape: 64 116 8 8 (475136)
I1017 08:33:04.605314 17887 net.cpp:137] Memory required for data: 617860608
I1017 08:33:04.605317 17887 layer_factory.hpp:77] Creating layer branch12_2_conv2
I1017 08:33:04.605326 17887 net.cpp:84] Creating Layer branch12_2_conv2
I1017 08:33:04.605329 17887 net.cpp:406] branch12_2_conv2 <- branch12_2_conv1
I1017 08:33:04.605338 17887 net.cpp:380] branch12_2_conv2 -> branch12_2_conv2
I1017 08:33:04.605540 17887 net.cpp:122] Setting up branch12_2_conv2
I1017 08:33:04.605551 17887 net.cpp:129] Top shape: 64 116 8 8 (475136)
I1017 08:33:04.605554 17887 net.cpp:137] Memory required for data: 619761152
I1017 08:33:04.605558 17887 layer_factory.hpp:77] Creating layer branch12_2_conv2_bn
I1017 08:33:04.605564 17887 net.cpp:84] Creating Layer branch12_2_conv2_bn
I1017 08:33:04.605567 17887 net.cpp:406] branch12_2_conv2_bn <- branch12_2_conv2
I1017 08:33:04.605572 17887 net.cpp:367] branch12_2_conv2_bn -> branch12_2_conv2 (in-place)
I1017 08:33:04.605769 17887 net.cpp:122] Setting up branch12_2_conv2_bn
I1017 08:33:04.605779 17887 net.cpp:129] Top shape: 64 116 8 8 (475136)
I1017 08:33:04.605782 17887 net.cpp:137] Memory required for data: 621661696
I1017 08:33:04.605789 17887 layer_factory.hpp:77] Creating layer branch12_2_conv2_scale
I1017 08:33:04.605798 17887 net.cpp:84] Creating Layer branch12_2_conv2_scale
I1017 08:33:04.605800 17887 net.cpp:406] branch12_2_conv2_scale <- branch12_2_conv2
I1017 08:33:04.605805 17887 net.cpp:367] branch12_2_conv2_scale -> branch12_2_conv2 (in-place)
I1017 08:33:04.605845 17887 layer_factory.hpp:77] Creating layer branch12_2_conv2_scale
I1017 08:33:04.605969 17887 net.cpp:122] Setting up branch12_2_conv2_scale
I1017 08:33:04.605978 17887 net.cpp:129] Top shape: 64 116 8 8 (475136)
I1017 08:33:04.605981 17887 net.cpp:137] Memory required for data: 623562240
I1017 08:33:04.605988 17887 layer_factory.hpp:77] Creating layer branch12_2_conv3
I1017 08:33:04.606000 17887 net.cpp:84] Creating Layer branch12_2_conv3
I1017 08:33:04.606009 17887 net.cpp:406] branch12_2_conv3 <- branch12_2_conv2
I1017 08:33:04.606015 17887 net.cpp:380] branch12_2_conv3 -> branch12_2_conv3
I1017 08:33:04.606364 17887 net.cpp:122] Setting up branch12_2_conv3
I1017 08:33:04.606375 17887 net.cpp:129] Top shape: 64 116 8 8 (475136)
I1017 08:33:04.606379 17887 net.cpp:137] Memory required for data: 625462784
I1017 08:33:04.606382 17887 layer_factory.hpp:77] Creating layer branch12_2_conv3_bn
I1017 08:33:04.606389 17887 net.cpp:84] Creating Layer branch12_2_conv3_bn
I1017 08:33:04.606392 17887 net.cpp:406] branch12_2_conv3_bn <- branch12_2_conv3
I1017 08:33:04.606400 17887 net.cpp:367] branch12_2_conv3_bn -> branch12_2_conv3 (in-place)
I1017 08:33:04.606598 17887 net.cpp:122] Setting up branch12_2_conv3_bn
I1017 08:33:04.606608 17887 net.cpp:129] Top shape: 64 116 8 8 (475136)
I1017 08:33:04.606611 17887 net.cpp:137] Memory required for data: 627363328
I1017 08:33:04.606618 17887 layer_factory.hpp:77] Creating layer branch12_2_conv3_scale
I1017 08:33:04.606624 17887 net.cpp:84] Creating Layer branch12_2_conv3_scale
I1017 08:33:04.606627 17887 net.cpp:406] branch12_2_conv3_scale <- branch12_2_conv3
I1017 08:33:04.606632 17887 net.cpp:367] branch12_2_conv3_scale -> branch12_2_conv3 (in-place)
I1017 08:33:04.606673 17887 layer_factory.hpp:77] Creating layer branch12_2_conv3_scale
I1017 08:33:04.606794 17887 net.cpp:122] Setting up branch12_2_conv3_scale
I1017 08:33:04.606803 17887 net.cpp:129] Top shape: 64 116 8 8 (475136)
I1017 08:33:04.606806 17887 net.cpp:137] Memory required for data: 629263872
I1017 08:33:04.606812 17887 layer_factory.hpp:77] Creating layer branch12_2_conv3_relu
I1017 08:33:04.606817 17887 net.cpp:84] Creating Layer branch12_2_conv3_relu
I1017 08:33:04.606820 17887 net.cpp:406] branch12_2_conv3_relu <- branch12_2_conv3
I1017 08:33:04.606827 17887 net.cpp:367] branch12_2_conv3_relu -> branch12_2_conv3 (in-place)
I1017 08:33:04.606833 17887 net.cpp:122] Setting up branch12_2_conv3_relu
I1017 08:33:04.606837 17887 net.cpp:129] Top shape: 64 116 8 8 (475136)
I1017 08:33:04.606840 17887 net.cpp:137] Memory required for data: 631164416
I1017 08:33:04.606843 17887 layer_factory.hpp:77] Creating layer concat12
I1017 08:33:04.606848 17887 net.cpp:84] Creating Layer concat12
I1017 08:33:04.606851 17887 net.cpp:406] concat12 <- branch12_1
I1017 08:33:04.606855 17887 net.cpp:406] concat12 <- branch12_2_conv3
I1017 08:33:04.606860 17887 net.cpp:380] concat12 -> concat12
I1017 08:33:04.606885 17887 net.cpp:122] Setting up concat12
I1017 08:33:04.606894 17887 net.cpp:129] Top shape: 64 232 8 8 (950272)
I1017 08:33:04.606896 17887 net.cpp:137] Memory required for data: 634965504
I1017 08:33:04.606899 17887 layer_factory.hpp:77] Creating layer shuffle12
I1017 08:33:04.606904 17887 net.cpp:84] Creating Layer shuffle12
I1017 08:33:04.606909 17887 net.cpp:406] shuffle12 <- concat12
I1017 08:33:04.606914 17887 net.cpp:380] shuffle12 -> shuffle12
I1017 08:33:04.606935 17887 net.cpp:122] Setting up shuffle12
I1017 08:33:04.606943 17887 net.cpp:129] Top shape: 64 232 8 8 (950272)
I1017 08:33:04.606946 17887 net.cpp:137] Memory required for data: 638766592
I1017 08:33:04.606950 17887 layer_factory.hpp:77] Creating layer shuffle12_shuffle12_0_split
I1017 08:33:04.606957 17887 net.cpp:84] Creating Layer shuffle12_shuffle12_0_split
I1017 08:33:04.606961 17887 net.cpp:406] shuffle12_shuffle12_0_split <- shuffle12
I1017 08:33:04.606967 17887 net.cpp:380] shuffle12_shuffle12_0_split -> shuffle12_shuffle12_0_split_0
I1017 08:33:04.606973 17887 net.cpp:380] shuffle12_shuffle12_0_split -> shuffle12_shuffle12_0_split_1
I1017 08:33:04.607008 17887 net.cpp:122] Setting up shuffle12_shuffle12_0_split
I1017 08:33:04.607017 17887 net.cpp:129] Top shape: 64 232 8 8 (950272)
I1017 08:33:04.607020 17887 net.cpp:129] Top shape: 64 232 8 8 (950272)
I1017 08:33:04.607023 17887 net.cpp:137] Memory required for data: 646368768
I1017 08:33:04.607026 17887 layer_factory.hpp:77] Creating layer branch13_1_conv1
I1017 08:33:04.607033 17887 net.cpp:84] Creating Layer branch13_1_conv1
I1017 08:33:04.607038 17887 net.cpp:406] branch13_1_conv1 <- shuffle12_shuffle12_0_split_0
I1017 08:33:04.607044 17887 net.cpp:380] branch13_1_conv1 -> branch13_1_conv1
I1017 08:33:04.607256 17887 net.cpp:122] Setting up branch13_1_conv1
I1017 08:33:04.607267 17887 net.cpp:129] Top shape: 64 232 4 4 (237568)
I1017 08:33:04.607270 17887 net.cpp:137] Memory required for data: 647319040
I1017 08:33:04.607275 17887 layer_factory.hpp:77] Creating layer branch13_1_conv1_bn
I1017 08:33:04.607283 17887 net.cpp:84] Creating Layer branch13_1_conv1_bn
I1017 08:33:04.607287 17887 net.cpp:406] branch13_1_conv1_bn <- branch13_1_conv1
I1017 08:33:04.607292 17887 net.cpp:367] branch13_1_conv1_bn -> branch13_1_conv1 (in-place)
I1017 08:33:04.607494 17887 net.cpp:122] Setting up branch13_1_conv1_bn
I1017 08:33:04.607503 17887 net.cpp:129] Top shape: 64 232 4 4 (237568)
I1017 08:33:04.607506 17887 net.cpp:137] Memory required for data: 648269312
I1017 08:33:04.607513 17887 layer_factory.hpp:77] Creating layer branch13_1_conv1_scale
I1017 08:33:04.607519 17887 net.cpp:84] Creating Layer branch13_1_conv1_scale
I1017 08:33:04.607523 17887 net.cpp:406] branch13_1_conv1_scale <- branch13_1_conv1
I1017 08:33:04.607530 17887 net.cpp:367] branch13_1_conv1_scale -> branch13_1_conv1 (in-place)
I1017 08:33:04.607568 17887 layer_factory.hpp:77] Creating layer branch13_1_conv1_scale
I1017 08:33:04.607694 17887 net.cpp:122] Setting up branch13_1_conv1_scale
I1017 08:33:04.607703 17887 net.cpp:129] Top shape: 64 232 4 4 (237568)
I1017 08:33:04.607707 17887 net.cpp:137] Memory required for data: 649219584
I1017 08:33:04.607712 17887 layer_factory.hpp:77] Creating layer branch13_1_conv2
I1017 08:33:04.607722 17887 net.cpp:84] Creating Layer branch13_1_conv2
I1017 08:33:04.607725 17887 net.cpp:406] branch13_1_conv2 <- branch13_1_conv1
I1017 08:33:04.607731 17887 net.cpp:380] branch13_1_conv2 -> branch13_1_conv2
I1017 08:33:04.609410 17887 net.cpp:122] Setting up branch13_1_conv2
I1017 08:33:04.609426 17887 net.cpp:129] Top shape: 64 232 4 4 (237568)
I1017 08:33:04.609429 17887 net.cpp:137] Memory required for data: 650169856
I1017 08:33:04.609436 17887 layer_factory.hpp:77] Creating layer branch13_1_conv2_bn
I1017 08:33:04.609442 17887 net.cpp:84] Creating Layer branch13_1_conv2_bn
I1017 08:33:04.609447 17887 net.cpp:406] branch13_1_conv2_bn <- branch13_1_conv2
I1017 08:33:04.609454 17887 net.cpp:367] branch13_1_conv2_bn -> branch13_1_conv2 (in-place)
I1017 08:33:04.609656 17887 net.cpp:122] Setting up branch13_1_conv2_bn
I1017 08:33:04.609666 17887 net.cpp:129] Top shape: 64 232 4 4 (237568)
I1017 08:33:04.609669 17887 net.cpp:137] Memory required for data: 651120128
I1017 08:33:04.609678 17887 layer_factory.hpp:77] Creating layer branch13_1_conv2_scale
I1017 08:33:04.609683 17887 net.cpp:84] Creating Layer branch13_1_conv2_scale
I1017 08:33:04.609688 17887 net.cpp:406] branch13_1_conv2_scale <- branch13_1_conv2
I1017 08:33:04.609692 17887 net.cpp:367] branch13_1_conv2_scale -> branch13_1_conv2 (in-place)
I1017 08:33:04.609732 17887 layer_factory.hpp:77] Creating layer branch13_1_conv2_scale
I1017 08:33:04.609861 17887 net.cpp:122] Setting up branch13_1_conv2_scale
I1017 08:33:04.609870 17887 net.cpp:129] Top shape: 64 232 4 4 (237568)
I1017 08:33:04.609874 17887 net.cpp:137] Memory required for data: 652070400
I1017 08:33:04.609910 17887 layer_factory.hpp:77] Creating layer branch13_1_conv2_relu
I1017 08:33:04.609920 17887 net.cpp:84] Creating Layer branch13_1_conv2_relu
I1017 08:33:04.609922 17887 net.cpp:406] branch13_1_conv2_relu <- branch13_1_conv2
I1017 08:33:04.609928 17887 net.cpp:367] branch13_1_conv2_relu -> branch13_1_conv2 (in-place)
I1017 08:33:04.609935 17887 net.cpp:122] Setting up branch13_1_conv2_relu
I1017 08:33:04.609938 17887 net.cpp:129] Top shape: 64 232 4 4 (237568)
I1017 08:33:04.609941 17887 net.cpp:137] Memory required for data: 653020672
I1017 08:33:04.609944 17887 layer_factory.hpp:77] Creating layer branch13_2_conv1
I1017 08:33:04.609952 17887 net.cpp:84] Creating Layer branch13_2_conv1
I1017 08:33:04.609956 17887 net.cpp:406] branch13_2_conv1 <- shuffle12_shuffle12_0_split_1
I1017 08:33:04.609962 17887 net.cpp:380] branch13_2_conv1 -> branch13_2_conv1
I1017 08:33:04.610805 17887 net.cpp:122] Setting up branch13_2_conv1
I1017 08:33:04.610816 17887 net.cpp:129] Top shape: 64 232 8 8 (950272)
I1017 08:33:04.610819 17887 net.cpp:137] Memory required for data: 656821760
I1017 08:33:04.610824 17887 layer_factory.hpp:77] Creating layer branch13_2_conv1_bn
I1017 08:33:04.610832 17887 net.cpp:84] Creating Layer branch13_2_conv1_bn
I1017 08:33:04.610836 17887 net.cpp:406] branch13_2_conv1_bn <- branch13_2_conv1
I1017 08:33:04.610843 17887 net.cpp:367] branch13_2_conv1_bn -> branch13_2_conv1 (in-place)
I1017 08:33:04.611042 17887 net.cpp:122] Setting up branch13_2_conv1_bn
I1017 08:33:04.611050 17887 net.cpp:129] Top shape: 64 232 8 8 (950272)
I1017 08:33:04.611053 17887 net.cpp:137] Memory required for data: 660622848
I1017 08:33:04.611060 17887 layer_factory.hpp:77] Creating layer branch13_2_conv1_scale
I1017 08:33:04.611069 17887 net.cpp:84] Creating Layer branch13_2_conv1_scale
I1017 08:33:04.611073 17887 net.cpp:406] branch13_2_conv1_scale <- branch13_2_conv1
I1017 08:33:04.611078 17887 net.cpp:367] branch13_2_conv1_scale -> branch13_2_conv1 (in-place)
I1017 08:33:04.611119 17887 layer_factory.hpp:77] Creating layer branch13_2_conv1_scale
I1017 08:33:04.611245 17887 net.cpp:122] Setting up branch13_2_conv1_scale
I1017 08:33:04.611254 17887 net.cpp:129] Top shape: 64 232 8 8 (950272)
I1017 08:33:04.611258 17887 net.cpp:137] Memory required for data: 664423936
I1017 08:33:04.611263 17887 layer_factory.hpp:77] Creating layer branch13_2_conv1_relu
I1017 08:33:04.611269 17887 net.cpp:84] Creating Layer branch13_2_conv1_relu
I1017 08:33:04.611272 17887 net.cpp:406] branch13_2_conv1_relu <- branch13_2_conv1
I1017 08:33:04.611279 17887 net.cpp:367] branch13_2_conv1_relu -> branch13_2_conv1 (in-place)
I1017 08:33:04.611285 17887 net.cpp:122] Setting up branch13_2_conv1_relu
I1017 08:33:04.611289 17887 net.cpp:129] Top shape: 64 232 8 8 (950272)
I1017 08:33:04.611292 17887 net.cpp:137] Memory required for data: 668225024
I1017 08:33:04.611295 17887 layer_factory.hpp:77] Creating layer branch13_2_conv2
I1017 08:33:04.611304 17887 net.cpp:84] Creating Layer branch13_2_conv2
I1017 08:33:04.611307 17887 net.cpp:406] branch13_2_conv2 <- branch13_2_conv1
I1017 08:33:04.611312 17887 net.cpp:380] branch13_2_conv2 -> branch13_2_conv2
I1017 08:33:04.611526 17887 net.cpp:122] Setting up branch13_2_conv2
I1017 08:33:04.611536 17887 net.cpp:129] Top shape: 64 232 4 4 (237568)
I1017 08:33:04.611539 17887 net.cpp:137] Memory required for data: 669175296
I1017 08:33:04.611544 17887 layer_factory.hpp:77] Creating layer branch13_2_conv2_bn
I1017 08:33:04.611549 17887 net.cpp:84] Creating Layer branch13_2_conv2_bn
I1017 08:33:04.611553 17887 net.cpp:406] branch13_2_conv2_bn <- branch13_2_conv2
I1017 08:33:04.611560 17887 net.cpp:367] branch13_2_conv2_bn -> branch13_2_conv2 (in-place)
I1017 08:33:04.611763 17887 net.cpp:122] Setting up branch13_2_conv2_bn
I1017 08:33:04.611773 17887 net.cpp:129] Top shape: 64 232 4 4 (237568)
I1017 08:33:04.611776 17887 net.cpp:137] Memory required for data: 670125568
I1017 08:33:04.611783 17887 layer_factory.hpp:77] Creating layer branch13_2_conv2_scale
I1017 08:33:04.611789 17887 net.cpp:84] Creating Layer branch13_2_conv2_scale
I1017 08:33:04.611793 17887 net.cpp:406] branch13_2_conv2_scale <- branch13_2_conv2
I1017 08:33:04.611798 17887 net.cpp:367] branch13_2_conv2_scale -> branch13_2_conv2 (in-place)
I1017 08:33:04.611837 17887 layer_factory.hpp:77] Creating layer branch13_2_conv2_scale
I1017 08:33:04.611965 17887 net.cpp:122] Setting up branch13_2_conv2_scale
I1017 08:33:04.611974 17887 net.cpp:129] Top shape: 64 232 4 4 (237568)
I1017 08:33:04.611979 17887 net.cpp:137] Memory required for data: 671075840
I1017 08:33:04.611984 17887 layer_factory.hpp:77] Creating layer branch13_2_conv3
I1017 08:33:04.611994 17887 net.cpp:84] Creating Layer branch13_2_conv3
I1017 08:33:04.611999 17887 net.cpp:406] branch13_2_conv3 <- branch13_2_conv2
I1017 08:33:04.612005 17887 net.cpp:380] branch13_2_conv3 -> branch13_2_conv3
I1017 08:33:04.612834 17887 net.cpp:122] Setting up branch13_2_conv3
I1017 08:33:04.612845 17887 net.cpp:129] Top shape: 64 232 4 4 (237568)
I1017 08:33:04.612848 17887 net.cpp:137] Memory required for data: 672026112
I1017 08:33:04.612854 17887 layer_factory.hpp:77] Creating layer branch13_2_conv3_bn
I1017 08:33:04.612861 17887 net.cpp:84] Creating Layer branch13_2_conv3_bn
I1017 08:33:04.612864 17887 net.cpp:406] branch13_2_conv3_bn <- branch13_2_conv3
I1017 08:33:04.612869 17887 net.cpp:367] branch13_2_conv3_bn -> branch13_2_conv3 (in-place)
I1017 08:33:04.613072 17887 net.cpp:122] Setting up branch13_2_conv3_bn
I1017 08:33:04.613080 17887 net.cpp:129] Top shape: 64 232 4 4 (237568)
I1017 08:33:04.613082 17887 net.cpp:137] Memory required for data: 672976384
I1017 08:33:04.613088 17887 layer_factory.hpp:77] Creating layer branch13_2_conv3_scale
I1017 08:33:04.613095 17887 net.cpp:84] Creating Layer branch13_2_conv3_scale
I1017 08:33:04.613098 17887 net.cpp:406] branch13_2_conv3_scale <- branch13_2_conv3
I1017 08:33:04.613104 17887 net.cpp:367] branch13_2_conv3_scale -> branch13_2_conv3 (in-place)
I1017 08:33:04.613142 17887 layer_factory.hpp:77] Creating layer branch13_2_conv3_scale
I1017 08:33:04.613270 17887 net.cpp:122] Setting up branch13_2_conv3_scale
I1017 08:33:04.613279 17887 net.cpp:129] Top shape: 64 232 4 4 (237568)
I1017 08:33:04.613282 17887 net.cpp:137] Memory required for data: 673926656
I1017 08:33:04.613287 17887 layer_factory.hpp:77] Creating layer branch13_2_conv3_relu
I1017 08:33:04.613293 17887 net.cpp:84] Creating Layer branch13_2_conv3_relu
I1017 08:33:04.613297 17887 net.cpp:406] branch13_2_conv3_relu <- branch13_2_conv3
I1017 08:33:04.613301 17887 net.cpp:367] branch13_2_conv3_relu -> branch13_2_conv3 (in-place)
I1017 08:33:04.613307 17887 net.cpp:122] Setting up branch13_2_conv3_relu
I1017 08:33:04.613312 17887 net.cpp:129] Top shape: 64 232 4 4 (237568)
I1017 08:33:04.613314 17887 net.cpp:137] Memory required for data: 674876928
I1017 08:33:04.613317 17887 layer_factory.hpp:77] Creating layer concat13
I1017 08:33:04.613322 17887 net.cpp:84] Creating Layer concat13
I1017 08:33:04.613325 17887 net.cpp:406] concat13 <- branch13_1_conv2
I1017 08:33:04.613329 17887 net.cpp:406] concat13 <- branch13_2_conv3
I1017 08:33:04.613337 17887 net.cpp:380] concat13 -> concat13
I1017 08:33:04.613363 17887 net.cpp:122] Setting up concat13
I1017 08:33:04.613369 17887 net.cpp:129] Top shape: 64 464 4 4 (475136)
I1017 08:33:04.613373 17887 net.cpp:137] Memory required for data: 676777472
I1017 08:33:04.613375 17887 layer_factory.hpp:77] Creating layer shuffle13
I1017 08:33:04.613381 17887 net.cpp:84] Creating Layer shuffle13
I1017 08:33:04.613384 17887 net.cpp:406] shuffle13 <- concat13
I1017 08:33:04.613389 17887 net.cpp:380] shuffle13 -> shuffle13
I1017 08:33:04.613413 17887 net.cpp:122] Setting up shuffle13
I1017 08:33:04.613420 17887 net.cpp:129] Top shape: 64 464 4 4 (475136)
I1017 08:33:04.613422 17887 net.cpp:137] Memory required for data: 678678016
I1017 08:33:04.613425 17887 layer_factory.hpp:77] Creating layer slice14
I1017 08:33:04.613431 17887 net.cpp:84] Creating Layer slice14
I1017 08:33:04.613435 17887 net.cpp:406] slice14 <- shuffle13
I1017 08:33:04.613440 17887 net.cpp:380] slice14 -> branch14_1
I1017 08:33:04.613446 17887 net.cpp:380] slice14 -> branch14_2
I1017 08:33:04.613481 17887 net.cpp:122] Setting up slice14
I1017 08:33:04.613487 17887 net.cpp:129] Top shape: 64 232 4 4 (237568)
I1017 08:33:04.613490 17887 net.cpp:129] Top shape: 64 232 4 4 (237568)
I1017 08:33:04.613493 17887 net.cpp:137] Memory required for data: 680578560
I1017 08:33:04.613497 17887 layer_factory.hpp:77] Creating layer branch14_2_conv1
I1017 08:33:04.613505 17887 net.cpp:84] Creating Layer branch14_2_conv1
I1017 08:33:04.613508 17887 net.cpp:406] branch14_2_conv1 <- branch14_2
I1017 08:33:04.613517 17887 net.cpp:380] branch14_2_conv1 -> branch14_2_conv1
I1017 08:33:04.614331 17887 net.cpp:122] Setting up branch14_2_conv1
I1017 08:33:04.614341 17887 net.cpp:129] Top shape: 64 232 4 4 (237568)
I1017 08:33:04.614343 17887 net.cpp:137] Memory required for data: 681528832
I1017 08:33:04.614347 17887 layer_factory.hpp:77] Creating layer branch14_2_conv1_bn
I1017 08:33:04.614353 17887 net.cpp:84] Creating Layer branch14_2_conv1_bn
I1017 08:33:04.614357 17887 net.cpp:406] branch14_2_conv1_bn <- branch14_2_conv1
I1017 08:33:04.614362 17887 net.cpp:367] branch14_2_conv1_bn -> branch14_2_conv1 (in-place)
I1017 08:33:04.614565 17887 net.cpp:122] Setting up branch14_2_conv1_bn
I1017 08:33:04.614573 17887 net.cpp:129] Top shape: 64 232 4 4 (237568)
I1017 08:33:04.614575 17887 net.cpp:137] Memory required for data: 682479104
I1017 08:33:04.614583 17887 layer_factory.hpp:77] Creating layer branch14_2_conv1_scale
I1017 08:33:04.614591 17887 net.cpp:84] Creating Layer branch14_2_conv1_scale
I1017 08:33:04.614595 17887 net.cpp:406] branch14_2_conv1_scale <- branch14_2_conv1
I1017 08:33:04.614600 17887 net.cpp:367] branch14_2_conv1_scale -> branch14_2_conv1 (in-place)
I1017 08:33:04.614641 17887 layer_factory.hpp:77] Creating layer branch14_2_conv1_scale
I1017 08:33:04.614766 17887 net.cpp:122] Setting up branch14_2_conv1_scale
I1017 08:33:04.614773 17887 net.cpp:129] Top shape: 64 232 4 4 (237568)
I1017 08:33:04.614776 17887 net.cpp:137] Memory required for data: 683429376
I1017 08:33:04.614782 17887 layer_factory.hpp:77] Creating layer branch14_2_conv1_relu
I1017 08:33:04.614789 17887 net.cpp:84] Creating Layer branch14_2_conv1_relu
I1017 08:33:04.614792 17887 net.cpp:406] branch14_2_conv1_relu <- branch14_2_conv1
I1017 08:33:04.614797 17887 net.cpp:367] branch14_2_conv1_relu -> branch14_2_conv1 (in-place)
I1017 08:33:04.614804 17887 net.cpp:122] Setting up branch14_2_conv1_relu
I1017 08:33:04.614807 17887 net.cpp:129] Top shape: 64 232 4 4 (237568)
I1017 08:33:04.614810 17887 net.cpp:137] Memory required for data: 684379648
I1017 08:33:04.614814 17887 layer_factory.hpp:77] Creating layer branch14_2_conv2
I1017 08:33:04.614821 17887 net.cpp:84] Creating Layer branch14_2_conv2
I1017 08:33:04.614825 17887 net.cpp:406] branch14_2_conv2 <- branch14_2_conv1
I1017 08:33:04.614831 17887 net.cpp:380] branch14_2_conv2 -> branch14_2_conv2
I1017 08:33:04.615041 17887 net.cpp:122] Setting up branch14_2_conv2
I1017 08:33:04.615047 17887 net.cpp:129] Top shape: 64 232 4 4 (237568)
I1017 08:33:04.615051 17887 net.cpp:137] Memory required for data: 685329920
I1017 08:33:04.615056 17887 layer_factory.hpp:77] Creating layer branch14_2_conv2_bn
I1017 08:33:04.615061 17887 net.cpp:84] Creating Layer branch14_2_conv2_bn
I1017 08:33:04.615064 17887 net.cpp:406] branch14_2_conv2_bn <- branch14_2_conv2
I1017 08:33:04.615072 17887 net.cpp:367] branch14_2_conv2_bn -> branch14_2_conv2 (in-place)
I1017 08:33:04.615268 17887 net.cpp:122] Setting up branch14_2_conv2_bn
I1017 08:33:04.615275 17887 net.cpp:129] Top shape: 64 232 4 4 (237568)
I1017 08:33:04.615278 17887 net.cpp:137] Memory required for data: 686280192
I1017 08:33:04.615285 17887 layer_factory.hpp:77] Creating layer branch14_2_conv2_scale
I1017 08:33:04.615290 17887 net.cpp:84] Creating Layer branch14_2_conv2_scale
I1017 08:33:04.615294 17887 net.cpp:406] branch14_2_conv2_scale <- branch14_2_conv2
I1017 08:33:04.615298 17887 net.cpp:367] branch14_2_conv2_scale -> branch14_2_conv2 (in-place)
I1017 08:33:04.615337 17887 layer_factory.hpp:77] Creating layer branch14_2_conv2_scale
I1017 08:33:04.615458 17887 net.cpp:122] Setting up branch14_2_conv2_scale
I1017 08:33:04.615466 17887 net.cpp:129] Top shape: 64 232 4 4 (237568)
I1017 08:33:04.615469 17887 net.cpp:137] Memory required for data: 687230464
I1017 08:33:04.615475 17887 layer_factory.hpp:77] Creating layer branch14_2_conv3
I1017 08:33:04.615483 17887 net.cpp:84] Creating Layer branch14_2_conv3
I1017 08:33:04.615486 17887 net.cpp:406] branch14_2_conv3 <- branch14_2_conv2
I1017 08:33:04.615494 17887 net.cpp:380] branch14_2_conv3 -> branch14_2_conv3
I1017 08:33:04.616319 17887 net.cpp:122] Setting up branch14_2_conv3
I1017 08:33:04.616331 17887 net.cpp:129] Top shape: 64 232 4 4 (237568)
I1017 08:33:04.616334 17887 net.cpp:137] Memory required for data: 688180736
I1017 08:33:04.616339 17887 layer_factory.hpp:77] Creating layer branch14_2_conv3_bn
I1017 08:33:04.616348 17887 net.cpp:84] Creating Layer branch14_2_conv3_bn
I1017 08:33:04.616350 17887 net.cpp:406] branch14_2_conv3_bn <- branch14_2_conv3
I1017 08:33:04.616355 17887 net.cpp:367] branch14_2_conv3_bn -> branch14_2_conv3 (in-place)
I1017 08:33:04.616564 17887 net.cpp:122] Setting up branch14_2_conv3_bn
I1017 08:33:04.616573 17887 net.cpp:129] Top shape: 64 232 4 4 (237568)
I1017 08:33:04.616576 17887 net.cpp:137] Memory required for data: 689131008
I1017 08:33:04.616585 17887 layer_factory.hpp:77] Creating layer branch14_2_conv3_scale
I1017 08:33:04.616590 17887 net.cpp:84] Creating Layer branch14_2_conv3_scale
I1017 08:33:04.616593 17887 net.cpp:406] branch14_2_conv3_scale <- branch14_2_conv3
I1017 08:33:04.616600 17887 net.cpp:367] branch14_2_conv3_scale -> branch14_2_conv3 (in-place)
I1017 08:33:04.616639 17887 layer_factory.hpp:77] Creating layer branch14_2_conv3_scale
I1017 08:33:04.616770 17887 net.cpp:122] Setting up branch14_2_conv3_scale
I1017 08:33:04.616780 17887 net.cpp:129] Top shape: 64 232 4 4 (237568)
I1017 08:33:04.616782 17887 net.cpp:137] Memory required for data: 690081280
I1017 08:33:04.616788 17887 layer_factory.hpp:77] Creating layer branch14_2_conv3_relu
I1017 08:33:04.616794 17887 net.cpp:84] Creating Layer branch14_2_conv3_relu
I1017 08:33:04.616797 17887 net.cpp:406] branch14_2_conv3_relu <- branch14_2_conv3
I1017 08:33:04.616804 17887 net.cpp:367] branch14_2_conv3_relu -> branch14_2_conv3 (in-place)
I1017 08:33:04.616811 17887 net.cpp:122] Setting up branch14_2_conv3_relu
I1017 08:33:04.616814 17887 net.cpp:129] Top shape: 64 232 4 4 (237568)
I1017 08:33:04.616817 17887 net.cpp:137] Memory required for data: 691031552
I1017 08:33:04.616820 17887 layer_factory.hpp:77] Creating layer concat14
I1017 08:33:04.616825 17887 net.cpp:84] Creating Layer concat14
I1017 08:33:04.616828 17887 net.cpp:406] concat14 <- branch14_1
I1017 08:33:04.616832 17887 net.cpp:406] concat14 <- branch14_2_conv3
I1017 08:33:04.616837 17887 net.cpp:380] concat14 -> concat14
I1017 08:33:04.616863 17887 net.cpp:122] Setting up concat14
I1017 08:33:04.616871 17887 net.cpp:129] Top shape: 64 464 4 4 (475136)
I1017 08:33:04.616874 17887 net.cpp:137] Memory required for data: 692932096
I1017 08:33:04.616878 17887 layer_factory.hpp:77] Creating layer shuffle14
I1017 08:33:04.616883 17887 net.cpp:84] Creating Layer shuffle14
I1017 08:33:04.616886 17887 net.cpp:406] shuffle14 <- concat14
I1017 08:33:04.616894 17887 net.cpp:380] shuffle14 -> shuffle14
I1017 08:33:04.616916 17887 net.cpp:122] Setting up shuffle14
I1017 08:33:04.616925 17887 net.cpp:129] Top shape: 64 464 4 4 (475136)
I1017 08:33:04.616927 17887 net.cpp:137] Memory required for data: 694832640
I1017 08:33:04.616930 17887 layer_factory.hpp:77] Creating layer slice15
I1017 08:33:04.616936 17887 net.cpp:84] Creating Layer slice15
I1017 08:33:04.616940 17887 net.cpp:406] slice15 <- shuffle14
I1017 08:33:04.616945 17887 net.cpp:380] slice15 -> branch15_1
I1017 08:33:04.616953 17887 net.cpp:380] slice15 -> branch15_2
I1017 08:33:04.616987 17887 net.cpp:122] Setting up slice15
I1017 08:33:04.616994 17887 net.cpp:129] Top shape: 64 232 4 4 (237568)
I1017 08:33:04.616999 17887 net.cpp:129] Top shape: 64 232 4 4 (237568)
I1017 08:33:04.617002 17887 net.cpp:137] Memory required for data: 696733184
I1017 08:33:04.617004 17887 layer_factory.hpp:77] Creating layer branch15_2_conv1
I1017 08:33:04.617014 17887 net.cpp:84] Creating Layer branch15_2_conv1
I1017 08:33:04.617018 17887 net.cpp:406] branch15_2_conv1 <- branch15_2
I1017 08:33:04.617025 17887 net.cpp:380] branch15_2_conv1 -> branch15_2_conv1
I1017 08:33:04.617854 17887 net.cpp:122] Setting up branch15_2_conv1
I1017 08:33:04.617866 17887 net.cpp:129] Top shape: 64 232 4 4 (237568)
I1017 08:33:04.617869 17887 net.cpp:137] Memory required for data: 697683456
I1017 08:33:04.617874 17887 layer_factory.hpp:77] Creating layer branch15_2_conv1_bn
I1017 08:33:04.617882 17887 net.cpp:84] Creating Layer branch15_2_conv1_bn
I1017 08:33:04.617884 17887 net.cpp:406] branch15_2_conv1_bn <- branch15_2_conv1
I1017 08:33:04.617889 17887 net.cpp:367] branch15_2_conv1_bn -> branch15_2_conv1 (in-place)
I1017 08:33:04.618093 17887 net.cpp:122] Setting up branch15_2_conv1_bn
I1017 08:33:04.618101 17887 net.cpp:129] Top shape: 64 232 4 4 (237568)
I1017 08:33:04.618105 17887 net.cpp:137] Memory required for data: 698633728
I1017 08:33:04.618111 17887 layer_factory.hpp:77] Creating layer branch15_2_conv1_scale
I1017 08:33:04.618120 17887 net.cpp:84] Creating Layer branch15_2_conv1_scale
I1017 08:33:04.618124 17887 net.cpp:406] branch15_2_conv1_scale <- branch15_2_conv1
I1017 08:33:04.618129 17887 net.cpp:367] branch15_2_conv1_scale -> branch15_2_conv1 (in-place)
I1017 08:33:04.618170 17887 layer_factory.hpp:77] Creating layer branch15_2_conv1_scale
I1017 08:33:04.618299 17887 net.cpp:122] Setting up branch15_2_conv1_scale
I1017 08:33:04.618307 17887 net.cpp:129] Top shape: 64 232 4 4 (237568)
I1017 08:33:04.618310 17887 net.cpp:137] Memory required for data: 699584000
I1017 08:33:04.618316 17887 layer_factory.hpp:77] Creating layer branch15_2_conv1_relu
I1017 08:33:04.618324 17887 net.cpp:84] Creating Layer branch15_2_conv1_relu
I1017 08:33:04.618327 17887 net.cpp:406] branch15_2_conv1_relu <- branch15_2_conv1
I1017 08:33:04.618332 17887 net.cpp:367] branch15_2_conv1_relu -> branch15_2_conv1 (in-place)
I1017 08:33:04.618340 17887 net.cpp:122] Setting up branch15_2_conv1_relu
I1017 08:33:04.618345 17887 net.cpp:129] Top shape: 64 232 4 4 (237568)
I1017 08:33:04.618347 17887 net.cpp:137] Memory required for data: 700534272
I1017 08:33:04.618350 17887 layer_factory.hpp:77] Creating layer branch15_2_conv2
I1017 08:33:04.618356 17887 net.cpp:84] Creating Layer branch15_2_conv2
I1017 08:33:04.618360 17887 net.cpp:406] branch15_2_conv2 <- branch15_2_conv1
I1017 08:33:04.618371 17887 net.cpp:380] branch15_2_conv2 -> branch15_2_conv2
I1017 08:33:04.618588 17887 net.cpp:122] Setting up branch15_2_conv2
I1017 08:33:04.618599 17887 net.cpp:129] Top shape: 64 232 4 4 (237568)
I1017 08:33:04.618602 17887 net.cpp:137] Memory required for data: 701484544
I1017 08:33:04.618607 17887 layer_factory.hpp:77] Creating layer branch15_2_conv2_bn
I1017 08:33:04.618615 17887 net.cpp:84] Creating Layer branch15_2_conv2_bn
I1017 08:33:04.618618 17887 net.cpp:406] branch15_2_conv2_bn <- branch15_2_conv2
I1017 08:33:04.618623 17887 net.cpp:367] branch15_2_conv2_bn -> branch15_2_conv2 (in-place)
I1017 08:33:04.618824 17887 net.cpp:122] Setting up branch15_2_conv2_bn
I1017 08:33:04.618834 17887 net.cpp:129] Top shape: 64 232 4 4 (237568)
I1017 08:33:04.618837 17887 net.cpp:137] Memory required for data: 702434816
I1017 08:33:04.618844 17887 layer_factory.hpp:77] Creating layer branch15_2_conv2_scale
I1017 08:33:04.618850 17887 net.cpp:84] Creating Layer branch15_2_conv2_scale
I1017 08:33:04.618854 17887 net.cpp:406] branch15_2_conv2_scale <- branch15_2_conv2
I1017 08:33:04.618860 17887 net.cpp:367] branch15_2_conv2_scale -> branch15_2_conv2 (in-place)
I1017 08:33:04.618897 17887 layer_factory.hpp:77] Creating layer branch15_2_conv2_scale
I1017 08:33:04.619025 17887 net.cpp:122] Setting up branch15_2_conv2_scale
I1017 08:33:04.619035 17887 net.cpp:129] Top shape: 64 232 4 4 (237568)
I1017 08:33:04.619037 17887 net.cpp:137] Memory required for data: 703385088
I1017 08:33:04.619043 17887 layer_factory.hpp:77] Creating layer branch15_2_conv3
I1017 08:33:04.619050 17887 net.cpp:84] Creating Layer branch15_2_conv3
I1017 08:33:04.619055 17887 net.cpp:406] branch15_2_conv3 <- branch15_2_conv2
I1017 08:33:04.619063 17887 net.cpp:380] branch15_2_conv3 -> branch15_2_conv3
I1017 08:33:04.619887 17887 net.cpp:122] Setting up branch15_2_conv3
I1017 08:33:04.619897 17887 net.cpp:129] Top shape: 64 232 4 4 (237568)
I1017 08:33:04.619901 17887 net.cpp:137] Memory required for data: 704335360
I1017 08:33:04.619905 17887 layer_factory.hpp:77] Creating layer branch15_2_conv3_bn
I1017 08:33:04.619913 17887 net.cpp:84] Creating Layer branch15_2_conv3_bn
I1017 08:33:04.619917 17887 net.cpp:406] branch15_2_conv3_bn <- branch15_2_conv3
I1017 08:33:04.619922 17887 net.cpp:367] branch15_2_conv3_bn -> branch15_2_conv3 (in-place)
I1017 08:33:04.620122 17887 net.cpp:122] Setting up branch15_2_conv3_bn
I1017 08:33:04.620131 17887 net.cpp:129] Top shape: 64 232 4 4 (237568)
I1017 08:33:04.620134 17887 net.cpp:137] Memory required for data: 705285632
I1017 08:33:04.620141 17887 layer_factory.hpp:77] Creating layer branch15_2_conv3_scale
I1017 08:33:04.620148 17887 net.cpp:84] Creating Layer branch15_2_conv3_scale
I1017 08:33:04.620151 17887 net.cpp:406] branch15_2_conv3_scale <- branch15_2_conv3
I1017 08:33:04.620158 17887 net.cpp:367] branch15_2_conv3_scale -> branch15_2_conv3 (in-place)
I1017 08:33:04.620198 17887 layer_factory.hpp:77] Creating layer branch15_2_conv3_scale
I1017 08:33:04.620332 17887 net.cpp:122] Setting up branch15_2_conv3_scale
I1017 08:33:04.620342 17887 net.cpp:129] Top shape: 64 232 4 4 (237568)
I1017 08:33:04.620345 17887 net.cpp:137] Memory required for data: 706235904
I1017 08:33:04.620350 17887 layer_factory.hpp:77] Creating layer branch15_2_conv3_relu
I1017 08:33:04.620357 17887 net.cpp:84] Creating Layer branch15_2_conv3_relu
I1017 08:33:04.620360 17887 net.cpp:406] branch15_2_conv3_relu <- branch15_2_conv3
I1017 08:33:04.620366 17887 net.cpp:367] branch15_2_conv3_relu -> branch15_2_conv3 (in-place)
I1017 08:33:04.620373 17887 net.cpp:122] Setting up branch15_2_conv3_relu
I1017 08:33:04.620376 17887 net.cpp:129] Top shape: 64 232 4 4 (237568)
I1017 08:33:04.620379 17887 net.cpp:137] Memory required for data: 707186176
I1017 08:33:04.620383 17887 layer_factory.hpp:77] Creating layer concat15
I1017 08:33:04.620388 17887 net.cpp:84] Creating Layer concat15
I1017 08:33:04.620390 17887 net.cpp:406] concat15 <- branch15_1
I1017 08:33:04.620394 17887 net.cpp:406] concat15 <- branch15_2_conv3
I1017 08:33:04.620399 17887 net.cpp:380] concat15 -> concat15
I1017 08:33:04.620424 17887 net.cpp:122] Setting up concat15
I1017 08:33:04.620432 17887 net.cpp:129] Top shape: 64 464 4 4 (475136)
I1017 08:33:04.620435 17887 net.cpp:137] Memory required for data: 709086720
I1017 08:33:04.620438 17887 layer_factory.hpp:77] Creating layer shuffle15
I1017 08:33:04.620445 17887 net.cpp:84] Creating Layer shuffle15
I1017 08:33:04.620447 17887 net.cpp:406] shuffle15 <- concat15
I1017 08:33:04.620455 17887 net.cpp:380] shuffle15 -> shuffle15
I1017 08:33:04.620478 17887 net.cpp:122] Setting up shuffle15
I1017 08:33:04.620487 17887 net.cpp:129] Top shape: 64 464 4 4 (475136)
I1017 08:33:04.620491 17887 net.cpp:137] Memory required for data: 710987264
I1017 08:33:04.620493 17887 layer_factory.hpp:77] Creating layer slice16
I1017 08:33:04.620499 17887 net.cpp:84] Creating Layer slice16
I1017 08:33:04.620503 17887 net.cpp:406] slice16 <- shuffle15
I1017 08:33:04.620513 17887 net.cpp:380] slice16 -> branch16_1
I1017 08:33:04.620520 17887 net.cpp:380] slice16 -> branch16_2
I1017 08:33:04.620555 17887 net.cpp:122] Setting up slice16
I1017 08:33:04.620563 17887 net.cpp:129] Top shape: 64 232 4 4 (237568)
I1017 08:33:04.620568 17887 net.cpp:129] Top shape: 64 232 4 4 (237568)
I1017 08:33:04.620571 17887 net.cpp:137] Memory required for data: 712887808
I1017 08:33:04.620573 17887 layer_factory.hpp:77] Creating layer branch16_2_conv1
I1017 08:33:04.620584 17887 net.cpp:84] Creating Layer branch16_2_conv1
I1017 08:33:04.620587 17887 net.cpp:406] branch16_2_conv1 <- branch16_2
I1017 08:33:04.620594 17887 net.cpp:380] branch16_2_conv1 -> branch16_2_conv1
I1017 08:33:04.621423 17887 net.cpp:122] Setting up branch16_2_conv1
I1017 08:33:04.621434 17887 net.cpp:129] Top shape: 64 232 4 4 (237568)
I1017 08:33:04.621438 17887 net.cpp:137] Memory required for data: 713838080
I1017 08:33:04.621443 17887 layer_factory.hpp:77] Creating layer branch16_2_conv1_bn
I1017 08:33:04.621448 17887 net.cpp:84] Creating Layer branch16_2_conv1_bn
I1017 08:33:04.621453 17887 net.cpp:406] branch16_2_conv1_bn <- branch16_2_conv1
I1017 08:33:04.621457 17887 net.cpp:367] branch16_2_conv1_bn -> branch16_2_conv1 (in-place)
I1017 08:33:04.621664 17887 net.cpp:122] Setting up branch16_2_conv1_bn
I1017 08:33:04.621673 17887 net.cpp:129] Top shape: 64 232 4 4 (237568)
I1017 08:33:04.621676 17887 net.cpp:137] Memory required for data: 714788352
I1017 08:33:04.621683 17887 layer_factory.hpp:77] Creating layer branch16_2_conv1_scale
I1017 08:33:04.621691 17887 net.cpp:84] Creating Layer branch16_2_conv1_scale
I1017 08:33:04.621695 17887 net.cpp:406] branch16_2_conv1_scale <- branch16_2_conv1
I1017 08:33:04.621701 17887 net.cpp:367] branch16_2_conv1_scale -> branch16_2_conv1 (in-place)
I1017 08:33:04.621743 17887 layer_factory.hpp:77] Creating layer branch16_2_conv1_scale
I1017 08:33:04.621875 17887 net.cpp:122] Setting up branch16_2_conv1_scale
I1017 08:33:04.621883 17887 net.cpp:129] Top shape: 64 232 4 4 (237568)
I1017 08:33:04.621887 17887 net.cpp:137] Memory required for data: 715738624
I1017 08:33:04.621892 17887 layer_factory.hpp:77] Creating layer branch16_2_conv1_relu
I1017 08:33:04.621898 17887 net.cpp:84] Creating Layer branch16_2_conv1_relu
I1017 08:33:04.621901 17887 net.cpp:406] branch16_2_conv1_relu <- branch16_2_conv1
I1017 08:33:04.621908 17887 net.cpp:367] branch16_2_conv1_relu -> branch16_2_conv1 (in-place)
I1017 08:33:04.621914 17887 net.cpp:122] Setting up branch16_2_conv1_relu
I1017 08:33:04.621918 17887 net.cpp:129] Top shape: 64 232 4 4 (237568)
I1017 08:33:04.621922 17887 net.cpp:137] Memory required for data: 716688896
I1017 08:33:04.621924 17887 layer_factory.hpp:77] Creating layer branch16_2_conv2
I1017 08:33:04.621930 17887 net.cpp:84] Creating Layer branch16_2_conv2
I1017 08:33:04.621933 17887 net.cpp:406] branch16_2_conv2 <- branch16_2_conv1
I1017 08:33:04.621942 17887 net.cpp:380] branch16_2_conv2 -> branch16_2_conv2
I1017 08:33:04.622159 17887 net.cpp:122] Setting up branch16_2_conv2
I1017 08:33:04.622169 17887 net.cpp:129] Top shape: 64 232 4 4 (237568)
I1017 08:33:04.622172 17887 net.cpp:137] Memory required for data: 717639168
I1017 08:33:04.622177 17887 layer_factory.hpp:77] Creating layer branch16_2_conv2_bn
I1017 08:33:04.622189 17887 net.cpp:84] Creating Layer branch16_2_conv2_bn
I1017 08:33:04.622192 17887 net.cpp:406] branch16_2_conv2_bn <- branch16_2_conv2
I1017 08:33:04.622197 17887 net.cpp:367] branch16_2_conv2_bn -> branch16_2_conv2 (in-place)
I1017 08:33:04.622400 17887 net.cpp:122] Setting up branch16_2_conv2_bn
I1017 08:33:04.622409 17887 net.cpp:129] Top shape: 64 232 4 4 (237568)
I1017 08:33:04.622412 17887 net.cpp:137] Memory required for data: 718589440
I1017 08:33:04.622419 17887 layer_factory.hpp:77] Creating layer branch16_2_conv2_scale
I1017 08:33:04.622426 17887 net.cpp:84] Creating Layer branch16_2_conv2_scale
I1017 08:33:04.622429 17887 net.cpp:406] branch16_2_conv2_scale <- branch16_2_conv2
I1017 08:33:04.622438 17887 net.cpp:367] branch16_2_conv2_scale -> branch16_2_conv2 (in-place)
I1017 08:33:04.622478 17887 layer_factory.hpp:77] Creating layer branch16_2_conv2_scale
I1017 08:33:04.622608 17887 net.cpp:122] Setting up branch16_2_conv2_scale
I1017 08:33:04.622617 17887 net.cpp:129] Top shape: 64 232 4 4 (237568)
I1017 08:33:04.622620 17887 net.cpp:137] Memory required for data: 719539712
I1017 08:33:04.622627 17887 layer_factory.hpp:77] Creating layer branch16_2_conv3
I1017 08:33:04.622637 17887 net.cpp:84] Creating Layer branch16_2_conv3
I1017 08:33:04.622640 17887 net.cpp:406] branch16_2_conv3 <- branch16_2_conv2
I1017 08:33:04.622647 17887 net.cpp:380] branch16_2_conv3 -> branch16_2_conv3
I1017 08:33:04.624298 17887 net.cpp:122] Setting up branch16_2_conv3
I1017 08:33:04.624315 17887 net.cpp:129] Top shape: 64 232 4 4 (237568)
I1017 08:33:04.624317 17887 net.cpp:137] Memory required for data: 720489984
I1017 08:33:04.624323 17887 layer_factory.hpp:77] Creating layer branch16_2_conv3_bn
I1017 08:33:04.624330 17887 net.cpp:84] Creating Layer branch16_2_conv3_bn
I1017 08:33:04.624334 17887 net.cpp:406] branch16_2_conv3_bn <- branch16_2_conv3
I1017 08:33:04.624342 17887 net.cpp:367] branch16_2_conv3_bn -> branch16_2_conv3 (in-place)
I1017 08:33:04.624559 17887 net.cpp:122] Setting up branch16_2_conv3_bn
I1017 08:33:04.624569 17887 net.cpp:129] Top shape: 64 232 4 4 (237568)
I1017 08:33:04.624572 17887 net.cpp:137] Memory required for data: 721440256
I1017 08:33:04.624580 17887 layer_factory.hpp:77] Creating layer branch16_2_conv3_scale
I1017 08:33:04.624588 17887 net.cpp:84] Creating Layer branch16_2_conv3_scale
I1017 08:33:04.624591 17887 net.cpp:406] branch16_2_conv3_scale <- branch16_2_conv3
I1017 08:33:04.624596 17887 net.cpp:367] branch16_2_conv3_scale -> branch16_2_conv3 (in-place)
I1017 08:33:04.624640 17887 layer_factory.hpp:77] Creating layer branch16_2_conv3_scale
I1017 08:33:04.624773 17887 net.cpp:122] Setting up branch16_2_conv3_scale
I1017 08:33:04.624783 17887 net.cpp:129] Top shape: 64 232 4 4 (237568)
I1017 08:33:04.624786 17887 net.cpp:137] Memory required for data: 722390528
I1017 08:33:04.624792 17887 layer_factory.hpp:77] Creating layer branch16_2_conv3_relu
I1017 08:33:04.624799 17887 net.cpp:84] Creating Layer branch16_2_conv3_relu
I1017 08:33:04.624802 17887 net.cpp:406] branch16_2_conv3_relu <- branch16_2_conv3
I1017 08:33:04.624809 17887 net.cpp:367] branch16_2_conv3_relu -> branch16_2_conv3 (in-place)
I1017 08:33:04.624815 17887 net.cpp:122] Setting up branch16_2_conv3_relu
I1017 08:33:04.624820 17887 net.cpp:129] Top shape: 64 232 4 4 (237568)
I1017 08:33:04.624822 17887 net.cpp:137] Memory required for data: 723340800
I1017 08:33:04.624825 17887 layer_factory.hpp:77] Creating layer concat16
I1017 08:33:04.624831 17887 net.cpp:84] Creating Layer concat16
I1017 08:33:04.624835 17887 net.cpp:406] concat16 <- branch16_1
I1017 08:33:04.624840 17887 net.cpp:406] concat16 <- branch16_2_conv3
I1017 08:33:04.624845 17887 net.cpp:380] concat16 -> concat16
I1017 08:33:04.624871 17887 net.cpp:122] Setting up concat16
I1017 08:33:04.624879 17887 net.cpp:129] Top shape: 64 464 4 4 (475136)
I1017 08:33:04.624882 17887 net.cpp:137] Memory required for data: 725241344
I1017 08:33:04.624886 17887 layer_factory.hpp:77] Creating layer shuffle16
I1017 08:33:04.624891 17887 net.cpp:84] Creating Layer shuffle16
I1017 08:33:04.624895 17887 net.cpp:406] shuffle16 <- concat16
I1017 08:33:04.624900 17887 net.cpp:380] shuffle16 -> shuffle16
I1017 08:33:04.624927 17887 net.cpp:122] Setting up shuffle16
I1017 08:33:04.624934 17887 net.cpp:129] Top shape: 64 464 4 4 (475136)
I1017 08:33:04.624938 17887 net.cpp:137] Memory required for data: 727141888
I1017 08:33:04.624941 17887 layer_factory.hpp:77] Creating layer conv5
I1017 08:33:04.624948 17887 net.cpp:84] Creating Layer conv5
I1017 08:33:04.624953 17887 net.cpp:406] conv5 <- shuffle16
I1017 08:33:04.624958 17887 net.cpp:380] conv5 -> conv5
I1017 08:33:04.631500 17887 net.cpp:122] Setting up conv5
I1017 08:33:04.631517 17887 net.cpp:129] Top shape: 64 1024 4 4 (1048576)
I1017 08:33:04.631521 17887 net.cpp:137] Memory required for data: 731336192
I1017 08:33:04.631527 17887 layer_factory.hpp:77] Creating layer conv5_bn
I1017 08:33:04.631536 17887 net.cpp:84] Creating Layer conv5_bn
I1017 08:33:04.631541 17887 net.cpp:406] conv5_bn <- conv5
I1017 08:33:04.631546 17887 net.cpp:367] conv5_bn -> conv5 (in-place)
I1017 08:33:04.631747 17887 net.cpp:122] Setting up conv5_bn
I1017 08:33:04.631758 17887 net.cpp:129] Top shape: 64 1024 4 4 (1048576)
I1017 08:33:04.631762 17887 net.cpp:137] Memory required for data: 735530496
I1017 08:33:04.631768 17887 layer_factory.hpp:77] Creating layer conv5_scale
I1017 08:33:04.631775 17887 net.cpp:84] Creating Layer conv5_scale
I1017 08:33:04.631779 17887 net.cpp:406] conv5_scale <- conv5
I1017 08:33:04.631784 17887 net.cpp:367] conv5_scale -> conv5 (in-place)
I1017 08:33:04.631826 17887 layer_factory.hpp:77] Creating layer conv5_scale
I1017 08:33:04.631945 17887 net.cpp:122] Setting up conv5_scale
I1017 08:33:04.631955 17887 net.cpp:129] Top shape: 64 1024 4 4 (1048576)
I1017 08:33:04.631958 17887 net.cpp:137] Memory required for data: 739724800
I1017 08:33:04.631964 17887 layer_factory.hpp:77] Creating layer conv5_relu
I1017 08:33:04.631971 17887 net.cpp:84] Creating Layer conv5_relu
I1017 08:33:04.631975 17887 net.cpp:406] conv5_relu <- conv5
I1017 08:33:04.631980 17887 net.cpp:367] conv5_relu -> conv5 (in-place)
I1017 08:33:04.631985 17887 net.cpp:122] Setting up conv5_relu
I1017 08:33:04.631990 17887 net.cpp:129] Top shape: 64 1024 4 4 (1048576)
I1017 08:33:04.631992 17887 net.cpp:137] Memory required for data: 743919104
I1017 08:33:04.631995 17887 layer_factory.hpp:77] Creating layer pool_ave
I1017 08:33:04.632004 17887 net.cpp:84] Creating Layer pool_ave
I1017 08:33:04.632006 17887 net.cpp:406] pool_ave <- conv5
I1017 08:33:04.632011 17887 net.cpp:380] pool_ave -> pool_ave
I1017 08:33:04.632038 17887 net.cpp:122] Setting up pool_ave
I1017 08:33:04.632047 17887 net.cpp:129] Top shape: 64 1024 1 1 (65536)
I1017 08:33:04.632050 17887 net.cpp:137] Memory required for data: 744181248
I1017 08:33:04.632053 17887 layer_factory.hpp:77] Creating layer pred
I1017 08:33:04.632095 17887 net.cpp:84] Creating Layer pred
I1017 08:33:04.632102 17887 net.cpp:406] pred <- pool_ave
I1017 08:33:04.632108 17887 net.cpp:380] pred -> pred
I1017 08:33:04.635387 17887 net.cpp:122] Setting up pred
I1017 08:33:04.635406 17887 net.cpp:129] Top shape: 64 254 1 1 (16256)
I1017 08:33:04.635411 17887 net.cpp:137] Memory required for data: 744246272
I1017 08:33:04.635417 17887 layer_factory.hpp:77] Creating layer landmark_pred
I1017 08:33:04.635426 17887 net.cpp:84] Creating Layer landmark_pred
I1017 08:33:04.635428 17887 net.cpp:406] landmark_pred <- pred
I1017 08:33:04.635434 17887 net.cpp:380] landmark_pred -> landmark_pred
I1017 08:33:04.635470 17887 net.cpp:122] Setting up landmark_pred
I1017 08:33:04.635479 17887 net.cpp:129] Top shape: 64 254 (16256)
I1017 08:33:04.635483 17887 net.cpp:137] Memory required for data: 744311296
I1017 08:33:04.635485 17887 layer_factory.hpp:77] Creating layer landmark_loss
I1017 08:33:04.635491 17887 net.cpp:84] Creating Layer landmark_loss
I1017 08:33:04.635495 17887 net.cpp:406] landmark_loss <- landmark_pred
I1017 08:33:04.635499 17887 net.cpp:406] landmark_loss <- label
I1017 08:33:04.635507 17887 net.cpp:380] landmark_loss -> landmark_loss
…
